brains/trained_q_network.pth (torch, 1748 bytes, 2 tensors)

fc.weight f4 [4, 8]
-0.0010170831 0.19159521 0.1294277 0.16460365 0.19153856 0.35111958 0.10502488 0.115767665
0.006593243 0.22055721 0.1670516 0.3292866 0.0973306 0.22284475 0.11707971 0.105432294
0.010323822 0.23649639 0.17833912 0.20400931 0.1482633 -0.15409334 0.11311139 0.103510864
0.05713055 0.25745854 0.15708004 0.26266658 -0.08408149 -0.02847929 0.10570588 0.118121296
00000000: a54f 85ba 8931 443e b288 043e dc8d 283e
00000010: af22 443e f2c5 b33e 4917 d73d 9917 ed3d
00000020: 220c d83b c0d9 613e 930f 2b3e 4198 a83e
00000030: 4455 c73d 6a31 643e 7dc7 ef3d e3ec d73d
00000040: 3f25 293c 1c2c 723e 889e 363e d1e7 503e
00000050: 56d2 173e a5ca 1dbe f2a6 e73d 81fd d33d
00000060: b901 6a3d 9bd1 833e 97d9 203e 3c7c 863e
00000070: eb32 acbd 664d e9bc 537c d83d 94e9 f13d

fc.bias f4 [4]
0.25755844 0.26277635 0.25838137 0.24000564
00000000: b3de 833e 9f8a 863e 904a 843e 0ac4 753e
