brains/trained_q_network.pth (torch, 2976 bytes, 4 tensors)

fc1.weight f4 [16, 8]
-0.16954778 -0.12626825 -0.11283437 -0.04462378 -0.5663871 0.087940216 -1.9596494 -1.4511533
-0.7787278 -0.7103347 -0.7418274 -0.7859463 -0.43667898 -0.40348184 -13.44051 -8.426374
-1.2286999 -1.1104571 -1.0227157 -1.020712 -0.40883732 -0.029911198 -5.026009 -3.345531
0.036617782 0.0029644147 0.12224902 -0.38367286 0.22255804 0.23664927 -1.852733 -1.1959199
-0.36282593 -0.39628395 -0.65316594 0.23013778 -0.18412146 -0.37600294 -1.8565565 -1.0188287
-0.5385036 -0.4702565 -0.7213955 -0.60377574 -0.17413537 -0.32241797 -3.0796258 -2.1440966
-0.9079939 -0.90409213 -0.68756163 -0.7611064 -0.039405353 -0.21606052 -1.9627768 -1.2255765
-0.34626594 -0.128036 -0.7782037 -0.76801866 -0.10900428 -0.19401544 -7.171832 -3.6328428
0.8439663 0.5811549 0.9916122 0.8974927 0.28597263 0.37816742 4.9877014 3.304742
0.5602788 0.5165596 0.157208 1.020489 0.505862 -0.00377338 5.6092844 2.9603407
-1.1286932 -0.9467167 -0.7833625 -0.43358183 -0.25410196 0.07157417 -1.8307304 -1.5211353
0.13233542 0.5667873 0.31874084 0.947972 -0.012348434 0.5676664 5.8898883 3.2145977
-0.19631904 -0.35922778 -0.44658744 -0.469343 -0.21612822 -0.5413252 -3.8512375 -2.4320161
-0.13577865 -0.2663339 0.011775223 -0.58535486 -0.045390185 0.11833066 -0.18918575 -0.3454291
0.9833177 1.2860658 1.2281553 0.53795934 0.02767019 0.7306376 5.7294326 3.6221726
0.5090075 0.30041757 0.6034789 0.31031483 0.033670258 0.2843481 1.6632918 1.4306628
00000000: ef9d 2dbe 774c 01be b515 e7bd 6dc7 36bd
00000010: bffe 10bf 001a b43d cbd5 fabf 64bf b9bf
00000020: b55a 47bf 7fd8 35bf 67e8 3dbf c733 49bf
00000030: 6394 dfbe 2c95 cebe 540c 57c1 6ed2 06c1
00000040: 0a46 9dbf 7523 8ebf 59e8 82bf b1a6 82bf
00000050: 2053 d1be 5408 f5bc 11d5 a0c0 2e1d 56c0
00000060: 87fc 153d a046 423b b25d fa3d c570 c4be
00000070: 41e6 633e 3054 723e 5b26 edbf e713 99bf
00000080: 52c4 b9be bbe5 cabe e235 27bf 3da9 6b3e
00000090: 568a 3cbe 7583 c0be a5a3 edbf fb68 82bf
000000a0: 5fdb 09bf 76c5 f0be 60ad 38bf 0c91 1abf
000000b0: 8b50 32be f813 a5be 9718 45c0 e138 09c0
000000c0: 4a72 68bf 9572 67bf 0a04 30bf ded7 42bf
000000d0: 8267 21bd f83e 5dbe 453c fbbf b1df 9cbf
000000e0: c549 b1be df1b 03be 5c38 47bf df9c 44bf
000000f0: a33d dfbd fcab 46be a67f e5c0 7f80 68c0
00000100: 2d0e 583f 91c6 143f 4cda 7d3f 15c2 653f
00000110: 016b 923e 299f c13e 409b 9f40 e580 5340
00000120: 6e6e 0f3f 403d 043f 22fb 203e 629f 823f
00000130: 2c80 013f d04a 77bb 427f b340 3976 3d40
00000140: 0579 90bf 075c 72bf 728a 48bf 70fe ddbe
00000150: a719 82be 7a95 923d 6055 eabf 90b4 c2bf
00000160: f082 073e f918 113f 0032 a33e 4bae 723f
00000170: 1651 4abc 9652 113f f779 bc40 f8bb 4d40
00000180: dc07 49be b4ec b7be 1ca7 e4be ba4d f0be
00000190: b750 5dbe 4a94 0abf ad7a 76c0 27a6 1bc0
000001a0: 8f09 0bbe eb5c 88be ddec 403c d1d9 15bf
000001b0: 0feb 39bd 5857 f23d e9b9 41be 15dc b0be
000001c0: b5ba 7b3f ce9d a43f 3134 9d3f b4b7 093f
000001d0: 98ac e23c 110b 3b3f 8357 b740 add1 6740
000001e0: 514e 023f 55d0 993e 987d 1a3f 96e1 9e3e
000001f0: d3e9 093d 1396 913e bfe6 d43f f51f b73f

fc1.bias f4 [16]
-2.9794822 -18.96129 -6.086498 -2.080395 -1.8786861 -4.2045703 -3.0542803 -9.445598
6.238267 7.2305384 -2.3252542 7.306272 -4.4399195 -0.2897699 7.0148606 2.0773365
00000000: d6af 3ec0 b9b0 97c1 97c4 c2c0 3125 05c0
00000010: c978 f0bf d78b 86c0 5479 43c0 2b21 17c1
00000020: e29f c740 9260 e740 f7d0 14c0 fbcc e940
00000030: d213 8ec0 b85c 94be bd79 e040 15f3 0440

fc2.weight f4 [4, 16]
-0.8099644 -0.69758433 -0.6450525 -0.557059 -0.82503015 -0.73721564 -0.58937305 -0.63803536
0.6035136 0.7902521 -0.47329187 0.6553545 -0.59673107 -0.07737338 0.6769304 0.59951544
-0.64773655 -0.7188395 -0.74255747 -0.7151138 -0.5556406 -0.5706664 -0.66883653 -0.6460196
0.6624327 0.76766866 -0.50069135 0.66842043 -0.607236 -0.19743511 0.67675537 0.6013746
-0.6005493 -0.7209152 -0.6859692 -0.5204714 -0.46090043 -0.6386399 -0.51969373 -0.63852626
0.72670645 0.745554 -0.6419453 0.70421904 -0.70555717 -0.1816908 0.75631857 0.4117426
-0.5191822 -0.6918159 -0.8140891 -0.41589692 -0.8090917 -0.70074666 -0.81881803 -0.58436817
0.65770864 0.6530593 -0.8149568 0.59565616 -0.5616405 -0.23655741 0.81221366 0.69081765
00000000: d459 4fbf e394 32bf 2922 25bf 6b9b 0ebf
00000010: 2d35 53bf 2aba 3cbf 27e1 16bf 4956 23bf
00000020: de7f 1a3f f64d 4a3f 5053 f2be 50c5 273f
00000030: 5ec3 18bf ef75 9ebd 504b 2d3f d879 193f
00000040: 10d2 25bf de05 38bf 3f18 3ebf b311 37bf
00000050: 763e 0ebf 3117 12bf df38 2bbf 8a61 25bf
00000060: 3095 293f ef85 443f 4f2d 00bf 9a1d 2b3f
00000070: d273 1bbf 6e2c 4abe d73f 2d3f b0f3 193f
00000080: 99bd 19bf e68d 38bf ad9b 2fbf 9d3d 05bf
00000090: 24fb ebbe e87d 23bf a60a 05bf 7576 23bf
000000a0: 6f09 3a3f a0dc 3e3f 8756 24bf b347 343f
000000b0: 659f 34bf 270d 3abe 189e 413f edcf d23e
000000c0: 20e9 04bf d91a 31bf 2568 50bf 71f0 d4be
000000d0: a220 4fbf 2264 33bf 0f9e 51bf 2799 15bf
000000e0: 985f 283f e52e 273f 02a1 50bf ec7c 183f
000000f0: acc7 0fbf 1b3c 72be 3ced 4f3f 6dd9 303f

fc2.bias f4 [4]
0.47796497 0.6950983 0.7270562 0.5368005
00000000: d3b7 f43e f6f1 313f 5b20 3a3f c26b 093f
