brains/trained_q_network.pth (torch, 3104 bytes, 4 tensors)

fc1.weight f4 [16, 10]
0	0xbf254608	-0.64559984
1	0xbeed889c	-0.46393287
2	0xbedbf94b	-0.42963633
3	0xbefe0b19	-0.49617842
4	0xbeba6020	-0.36401463
5	0x3e731f16	0.23742327
6	0xbf05838b	-0.52153844
7	0x3f3c9ab0	0.73673534
8	0x3e8c2663	0.27373037
9	0xbf3ca3ae	-0.73687255
10	0xbe18e8e3	-0.14932589
11	0xbd003b98	-0.031306833
12	0x3ebe87e8	0.37213063
13	0x3e183bb5	0.14866526
14	0x3e20382d	0.1564643
15	0x3efe80a6	0.49707526
16	0x3f090cad	0.53534967
17	0xbf037469	-0.513495
18	0xbd765c63	-0.0601467
19	0x3f056ae0	0.52116203
20	0xbe2c1f98	-0.16808927
21	0xbec27247	-0.37977812
22	0xbe67d92c	-0.22641438
23	0xbef5c1f7	-0.47999546
24	0xbe2186d3	-0.15774088
25	0xbed7e9a8	-0.42170453
26	0xbeb26921	-0.34845832
27	0x3eb2f91b	0.34955677
28	0xbd6f0fe0	-0.05836475
29	0xbe69807a	-0.22802916
30	0x3ed0182c	0.40643442
31	0x3f04f082	0.51929486
32	0x3de221a2	0.11041571
33	0x3f40d004	0.75317407
34	0xbd8406a1	-0.06446577
35	0x3f3ca112	0.73683274
36	0x3e9beb09	0.30452755
37	0x3f2a1a05	0.6644595
38	0x3d51a97f	0.051187035
39	0x3f5bc228	0.85843134
40	0x3e52a054	0.20568973
41	0x3d62d658	0.055380195
42	0x3dbae7e5	0.091262616
43	0xbe4784a9	-0.194842
44	0x3eae9922	0.34101206
45	0xbf634472	-0.88776314
46	0xbea4bcbe	-0.3217525
47	0xbf518179	-0.81838185
48	0xbe13eced	-0.14445849
49	0xbdcdd488	-0.10050303
50	0xbfd08a5b	-1.6292223
51	0xbfad2f23	-1.353001
52	0xbfa398c8	-1.2781
53	0xc01d1041	-2.454117
54	0xc01f0622	-2.4847493
55	0xbf6ae168	-0.9175019
56	0xc014e5b9	-2.3265212
57	0xbecc01aa	-0.3984502
58	0x3e848a7c	0.25886905
59	0xc049772e	-3.1478992
60	0x3e349fd6	0.17639098
61	0x3ca83325	0.0205322
62	0xbde44115	-0.11145226
63	0x3deedcc3	0.11663201
64	0xbded8b30	-0.115988135
65	0x3d2337eb	0.03984825
66	0x3e29f3ca	0.16596904
67	0x3f7b136b	0.98076504
68	0xbe461060	-0.19342184
69	0x3d1c53ef	0.038165983
70	0x3fc321b1	1.5244657
71	0x3ff331bd	1.8999554
72	0x3ff24ad1	1.8929082
73	0x404a856d	3.1643937
74	0x3ffb4cd5	1.9632822
75	0x3fa1023c	1.2578807
76	0x404fdcef	3.2478597
77	0x3f02e052	0.51123536
78	0xbe875691	-0.26433232
79	0x4037fe3e	2.8748927
80	0x3e895fc9	0.2683089
81	0x3e33d7b0	0.17562747
82	0x3db744e2	0.08948685
83	0x3e40fc9c	0.18846363
84	0x3d18c700	0.037299156
85	0xbf1dc65a	-0.61630785
86	0x3ebe61c5	0.37183967
87	0x3f0379a9	0.51357514
88	0x3ea1229b	0.31471714
89	0x3ec10c82	0.37704855
90	0xc013f113	-2.311589
91	0xc0754f99	-3.8329833
92	0xc007ce51	-2.1219676
93	0xc090279c	-4.504835
94	0xc0217782	-2.5229192
95	0xbf6a3f56	-0.9150289
96	0xc0b735bc	-5.7253094
97	0xbfbea366	-1.4893615
98	0xbe2e10fd	-0.16998668
99	0xc0597acc	-3.39812
100	0x3f867e50	1.0507298
101	0x3fcdcfaa	1.6078999
102	0x3f8ffb17	1.1248502
103	0x40079dc3	2.119004
104	0x3fb580a8	1.4179888
105	0x3f9746e2	1.1818507
106	0x4036e9f5	2.8580296
107	0x3f90b9c0	1.1306686
108	0xbdb116d4	-0.08646932
109	0x3fe6bc03	1.8026127
110	0x3f3b90ef	0.73268026
111	0x3f722adb	0.9459664
112	0x3f35adac	0.7096813
113	0x3f8ba96a	1.0911076
114	0x3f51cd4f	0.819539
115	0x3e32b866	0.17453155
116	0x3fc6c064	1.5527463
117	0x3f58fe33	0.8476288
118	0x3e57ef27	0.21087323
119	0x3fb2e26e	1.3975351
120	0x3eacef2b	0.3377622
121	0x3eddaaed	0.4329447
122	0x3e9b0137	0.30274364
123	0x3f8665bd	1.0499798
124	0x3ede8660	0.43461895
125	0x3f21ccb7	0.63202995
126	0x3f31bb85	0.6942676
127	0xbeeb2136	-0.45923775
128	0xbd08484d	-0.033272076
129	0x3ec2dbba	0.38058263
130	0x3e675cbf	0.22593974
131	0x3dee5d88	0.116389334
132	0x3e4d19cf	0.20029376
133	0x3f14de5e	0.58151805
134	0x3e900dd3	0.28135547
135	0xbef0cd50	-0.4703164
136	0x3e038a7b	0.12845795
137	0xbc836ae1	-0.016042175
138	0xbe1b25a0	-0.15151072
139	0x3f1ffcd9	0.6249519
140	0x3eb5ef5b	0.35534176
141	0x3f14fdeb	0.5819995
142	0x3e9679e5	0.29389873
143	0x3f1eeeb5	0.6208299
144	0x3eaa65fe	0.3328094
145	0x3f6288bc	0.8848989
146	0x3e5aa66c	0.21352547
147	0x3f66b1a1	0.9011479
148	0x3de76119	0.11297817
149	0x3f2fd30f	0.68681425
150	0x401e05de	2.469108
151	0x4093e7a4	4.6220264
152	0x4004507d	2.0674126
153	0x40ac898c	5.3917904
154	0x4042849e	3.0393443
155	0x3fb7c27a	1.4356225
156	0x40e06259	7.0120053
157	0x3f823117	1.0171231
158	0xbd177e36	-0.0369856
159	0x40a0fd9f	5.0309596

fc1.bias f4 [16]
0	0xbeb57b07	-0.35445425
1	0x3f196bcc	0.5993011
2	0xbeb572b1	-0.35439065
3	0x3f6ecf90	0.93285465
4	0xbeb5c328	-0.35500455
5	0xc02a63de	-2.6623454
6	0x3ef86989	0.48518017
7	0x405c9c30	3.447033
8	0x3e987b4b	0.29781565
9	0xc0944b35	-4.6341805
10	0x4037ef4a	2.87398
11	0x3ff675fc	1.9254756
12	0x3f1bfb78	0.60930586
13	0x3e987971	0.29780152
14	0x3f61ee5d	0.8825434
15	0x40af8054	5.484415

fc2.weight f4 [4, 16]
0	0xbe94b44e	-0.29043812
1	0x3e80f3fa	0.2518614
2	0xbeb696d4	-0.35661948
3	0x3ea7d86a	0.32782298
4	0x3c743844	0.014905993
5	0xbea9fbb5	-0.3319985
6	0xbb637267	-0.003470564
7	0x3ed66bd9	0.41879156
8	0x3d714c1a	0.058910467
9	0xbeb8462a	-0.3599103
10	0x3eab58b0	0.334661
11	0x3eab1b04	0.3341905
12	0x3e8811e1	0.2657614
13	0x3df4f744	0.11961225
14	0x3ebd9b99	0.37032774
15	0x3e958c60	0.2920866
16	0xbed747a1	-0.42046836
17	0x3db5613e	0.08856438
18	0xbe997c79	-0.29977778
19	0x3e22afd0	0.1588738
20	0x3e99d794	0.30047286
21	0xbec493c2	-0.3839398
22	0x3d9a8d20	0.07546449
23	0x3edbd021	0.42932227
24	0x3e575cae	0.21031448
25	0xbebe4cde	-0.3716802
26	0x3eb049f2	0.34431416
27	0x3ea898d4	0.329291
28	0x3e8b487f	0.27203748
29	0x3ea5498e	0.3228268
30	0x3e181cba	0.14854708
31	0x3e91a4d4	0.28446066
32	0xbe362f26	-0.17791423
33	0xbd22fc73	-0.039791536
34	0xbddebda5	-0.108760156
35	0x3e9a74ee	0.30167335
36	0x3dcf762c	0.10129961
37	0xbea0daf6	-0.31417054
38	0x3e2dcc76	0.16972527
39	0x3ec1064a	0.3770011
40	0x3ea69422	0.3253489
41	0xbebdbc5b	-0.37057766
42	0x3eb53b62	0.35396868
43	0x3eddc169	0.43311623
44	0x3e63bb05	0.22239311
45	0x3e4ddef0	0.20104575
46	0x3ece92b6	0.40346307
47	0x3e97949a	0.29605561
48	0xbedbe1be	-0.42945665
49	0x3da4d677	0.080487184
50	0xbeae39b1	-0.3402839
51	0x3e8e2393	0.27761516
52	0x3e5817d9	0.21102847
53	0xbea6f00b	-0.32605013
54	0x3c7c8563	0.015412661
55	0x3ebb673d	0.36602202
56	0x3de276bb	0.11057802
57	0xbec9f7f5	-0.3944699
58	0x3e9972b9	0.2997034
59	0x3edc432e	0.43020004
60	0x3e3c4c64	0.18388516
61	0x3ea17690	0.31535769
62	0x3e9252b3	0.2857872
63	0x3e937cb1	0.2880607

fc2.bias f4 [4]
0	0x3f4d1fe8	0.8012681
1	0x3e994fe7	0.29943773
2	0x3f0c52fe	0.54814136
3	0x3e1afe23	0.15136008
