brains/trained_q_network.pth (torch, 1812 bytes, 2 tensors)

fc.weight f4 [4, 12]
0.03684042 0.0152774565 0.002452919 0.07338486 0.07025016 0.1434462 0.14756899 0.048510604
0.24014884 -0.17743765 -0.016682204 0.11959751 0.077994294 0.050438736 0.03394083 0.07540407
-0.28242758 -0.09422574 0.13765712 0.0966486 -0.05673208 -0.27343428 0.04183958 0.09328603
0.027857458 0.061328858 0.03294658 0.13768224 -0.18497488 -0.07208165 0.14199144 0.022414234
0.19408771 -0.0065602073 0.18113598 0.28420642 0.080309786 0.049459066 0.03963181 0.26098263
0.07428391 0.0651858 0.15210144 -0.117358394 -0.10306652 0.15124413 -0.13670072 -0.118909046
00000000: fbe5 163d 4c4e 7a3c 27c1 203b cd4a 963d
00000010: 51df 8f3d 90e3 123e 531c 173e 0eb3 463d
00000020: 94e9 753e 37b2 35be 1ea9 88bc 8aef f43d
00000030: 79bb 9f3d d998 4e3d 8a05 0b3d 736d 9a3d
00000040: 599a 90be 6df9 c0bd fdf5 0c3e b4ef c53d
00000050: e65f 68bd 94ff 8bbe fb5f 2b3d bf0c bf3d
00000060: 5335 e43c f833 7b3d fef2 063d 93fc 0c3e
00000070: 0e6a 3dbe 8b9f 93bd 3466 113e 0e9e b73c
00000080: eebe 463e 02f7 d6bb b67b 393e 8183 913e
00000090: 7579 a43d 9795 4a3d f754 223d 849f 853e
000000a0: 2a22 983d 2280 853d 7bc0 1b3e 9959 f0bd
000000b0: 8a14 d3bd bedf 1a3e 46fb 0bbe 9686 f3bd

fc.bias f4 [4]
-0.14164472 -0.18561834 -0.12768629 0.024536388
00000000: 500b 11be bc12 3ebe 32c0 02be 8900 c93c
