brains/trained_q_network.pth (torch, 2976 bytes, 4 tensors)

fc1.weight f4 [16, 8]
00000000: 4710 eebf 580a e2bf a926 aabf a7d3 93bf
00000010: 6b6d 59be d683 b3bf db26 1940 b328 32c0
00000020: 1e8d da3e efd5 98be 8f33 36bf 015b 0fc0
00000030: 8975 24bf def1 4bbf ba3c 0ec0 2b49 43be
00000040: 07ff 85bc 7016 923e 1856 643f 00a6 a03f
00000050: 82b1 cbbc 7380 1dbb f3d8 2240 631e 383f
00000060: f02b dabe 8de6 c9bd 4b04 313f c211 f6be
00000070: a96a 6dbf 5f9e 94bf 439d 7440 ca5f f3bc
00000080: 8c06 973c eb69 7bbf c423 cfbf 176d d6bf
00000090: 37fc 1dbf a482 4bbf c449 14c0 a14a a9bf
000000a0: 0332 5ebf d1e5 c2be fbfa 853e b8d2 083e
000000b0: 0f10 f3bd 0c6d 72bf cf91 5c40 0248 7fbf
000000c0: 62b7 15be f2e9 e7be 2134 aabf 0c05 873e
000000d0: fd35 af3e d3d9 9c3f 40e7 73c0 c6e2 d7be
000000e0: 13c2 c33f 8bf1 893f 2469 c53e 9703 ccbf
000000f0: e647 533e 0809 19bf 9e5e d8bf 6113 ac3f
00000100: 6988 d1bf 93fa 7fbf 303b 8abf 1261 ed3f
00000110: 1393 a53d 9e53 a43f e51c 01bf 980d acbf
00000120: 2882 e9be 65f5 85be 41f6 5d3e 9266 8ebf
00000130: 6182 2abf 1a1c 06c0 e995 9740 fbe5 abbe
00000140: e0e7 fcbd 0665 3bbf 2ca8 a1bf 8aa6 f4be
00000150: 181f adbf 5d6b 2b3e f4ac 3dc0 5678 23bf
00000160: d8c3 c33f c8ea 803f 48b9 293f e339 c33f
00000170: 2f74 693f 30bd 0740 6e0b 9cc0 3361 0240
00000180: 24b0 77be 9679 873c 8208 283f 58a5 9e3e
00000190: 3dfe 37bc 2347 45bf cfbb 6540 fba2 663e
000001a0: 9ecb 87be 844d 1d3f d77f b03f 42d7 ec40
000001b0: c708 3940 e07c 8340 39aa dbbf 9037 933f
000001c0: ce3f ec3e 9290 863f 1459 da3f 2c25 5b40
000001d0: ca2d 4e40 6ddb 0c40 d4f5 85bd 67ee 123f
000001e0: f1b0 06c0 66c7 d2bf adba e4bf 34cc 2cc0
000001f0: 53b7 15c0 d76a 26c0 e3c3 8c40 ed9e 4cc0
-1.8598717 -1.7659407 -1.3293048 -1.1548966 -0.21233146 -1.4024608 2.3929965 -2.783734
0.4268579 -0.29850718 -0.7117242 -2.2399294 -0.64241844 -0.79665935 -2.2224565 -0.1907088
-0.016356958 0.28532743 0.8919387 1.2550659 -0.024864916 -0.002403286 2.5444915 0.71921366
-0.42611647 -0.09858427 0.69147176 -0.48060423 -0.92740875 -1.1610831 3.8220985 -0.029708762
0.018435739 -0.98208493 -1.618279 -1.6752042 -0.61712974 -0.79496217 -2.3170023 -1.32259
-0.8679506 -0.3806596 0.26168045 0.13361633 -0.11868297 -0.9469764 3.4463995 -0.9971925
-0.14620736 -0.45295674 -1.3297158 0.26371038 0.34220877 1.2253975 -3.8109894 -0.42165202
1.5293602 1.0776838 0.38556778 -1.5938596 0.20632896 -0.59779406 -1.6903875 1.3443414
-1.6369754 -0.9999172 -1.0799313 1.8545249 0.08084693 1.2838018 -0.50434715 -1.3441648
-0.45607114 -0.26163784 0.2167597 -1.1125052 -0.6660519 -2.0954652 4.7370496 -0.335739
-0.12348914 -0.73201025 -1.2629447 -0.4778331 -1.3525114 0.16740175 -2.9636812 -0.63855493
1.5294142 1.007165 0.6629834 1.5252041 0.9119291 2.120922 -4.876395 2.0371826
-0.24188286 0.016537469 0.6563798 0.30985522 -0.011230049 -0.7706167 3.589588 0.2252311
-0.26522535 0.61446404 1.3789014 7.4012766 2.8911607 4.1089935 -1.7161323 1.1501331
0.4614243 1.0512869 1.7058434 3.4241438 3.2215447 2.2008927 -0.065410286 0.57395023
-2.1045496 -1.6467102 -1.7869469 -2.6999636 -2.3393142 -2.600271 4.398912 -3.1972

fc1.bias f4 [16]
00000000: 02c6 b63f 2b58 953f 1836 2cbf 8d9e 6e3f
00000010: e419 9d3f 0046 b03e 3d60 acbf a46c cd3f
00000020: f043 2fc0 7147 fa3f 2b0e 9abe 78d7 d6bf
00000030: 9225 243d d379 a9c0 402b 0cc0 b5c6 3340
1.4279177 1.1667532 -0.6727004 0.9321068 1.2273526 0.34428406 -1.346687 1.604878
-2.7385216 1.9553052 -0.30088934 -1.6784506 0.040074892 -5.296121 -2.1901398 2.809003

fc2.weight f4 [4, 16]
00000000: 6437 963e 1b43 7a3f a8ac 9cbf e784 033e
00000010: 2248 413f c959 97be 807d 53be 380c 613f
00000020: 33d2 2fbf 08af b33e 2dd1 4c3f 2914 b5be
00000030: 5954 26bf f537 39bf 001a 20bf dc12 c93e
00000040: a20c a63e 74f9 223f 4328 4dbe 76e6 283f
00000050: e9bf f83e ff3c c83e c001 cabe 7bbf a33e
00000060: 1121 98be 7b7d ec3e adc2 b23f 169e 0ebf
00000070: 5a00 073f b904 27bf f156 5fbf 33ba 193f
00000080: 9bb5 023f 7bb8 db3e beab 4cbd 9240 343f
00000090: b349 a03e 5c5e 883f 991e 92bf e595 e53e
000000a0: 66be 1abf 2cba 4e3f c827 1fbf 722e 47bf
000000b0: 46b7 c03f 8466 1dbf f6a7 00bf b81b 053f
000000c0: 5051 5e3f c455 183f 484f 49bf ef4d ab3e
000000d0: 6912 413f 119c 3c3f d69a 9bbe 786e 3c3e
000000e0: 94f8 49be bc2a 053f 674c 103f fab0 41bf
000000f0: d993 523e 7e2f 18bf 2fa9 09bf 6a8e 2e3f
0.29339135 0.97758645 -1.224019 0.12843667 0.7550069 -0.29560688 -0.20653343 0.8790927
-0.68680114 0.35094476 0.80006677 -0.35366943 -0.64972454 -0.7235101 -0.6253967 0.392722
0.32431513 0.63661885 -0.2003489 0.65976655 0.48583916 0.39109036 -0.3945446 0.31982026
-0.29712728 0.46189484 1.396566 -0.5570997 0.5273491 -0.6524158 -0.8724204 0.6004974
0.5105836 0.42914185 -0.049968474 0.70411026 0.31306228 1.0653796 -1.1415588 0.44840923
-0.60446775 0.80752826 -0.62170076 -0.77805245 1.5055931 -0.6148455 -0.5025629 0.5199542
0.86842823 0.5950587 -0.786366 0.33457896 0.75418717 0.7367564 -0.30391568 0.18401515
-0.19723731 0.5201833 0.5636658 -0.7566067 0.20564212 -0.5944747 -0.5377378 0.68186057

fc2.bias f4 [4]
00000000: d489 3b3f d5a7 1fbf dc6e 5b3f dd60 273e
0.73257184 -0.62365466 0.85716033 0.16345544
