brains/trained_q_network.pth (torch, 2976 bytes, 4 tensors)

fc1.weight f4 [16, 8]
0	0x3e8cd22d	0.275041
1	0xbe8c35e6	-0.2738487
2	0x3e3f1949	0.1866199
3	0x3ebd4961	0.36970046
4	0xbdbe5e3a	-0.09295316
5	0x3e140505	0.1445504
6	0x3ea107f5	0.31451383
7	0x3e1bbac0	0.15207958
8	0xbe2d8316	-0.16944537
9	0x3e4bee19	0.19915046
10	0xbe46fe4f	-0.19432949
11	0xbe6c6d9b	-0.23088686
12	0xbe7cf332	-0.24702147
13	0xbe0e436f	-0.13892911
14	0xbe9b4383	-0.30324945
15	0x3da7af77	0.08187764
16	0x3bc155df	0.005900129
17	0xbe861cb2	-0.26193768
18	0x3e8c438d	0.27395287
19	0xbd99d854	-0.075119644
20	0xbec523ad	-0.3850378
21	0xbcdb2224	-0.026749678
22	0xbedab759	-0.42718008
23	0xbe099213	-0.13434629
24	0x3e713901	0.23556902
25	0xbe137ea7	-0.14403783
26	0xbe3d6ab4	-0.18497735
27	0x3e621046	0.2207652
28	0xbd1b8015	-0.037963945
29	0x3efb07e7	0.49029467
30	0x3edce8f8	0.4314649
31	0x3a9c10f4	0.0011906908
32	0xbe85702a	-0.26062137
33	0x3de2f065	0.11081008
34	0xbe450b10	-0.19242501
35	0xbdd7d61b	-0.10538884
36	0xbd1c774f	-0.03819972
37	0x3e95987f	0.29217908
38	0xbdb17736	-0.08665316
39	0xbd99af88	-0.07504183
40	0xbe985e42	-0.29759413
41	0xbe22bdad	-0.15892668
42	0x3e6e40a6	0.23266849
43	0xbce1426f	-0.027497498
44	0xbe02f600	-0.12789154
45	0x3ea286a1	0.3174334
46	0xbe029b91	-0.12754656
47	0xbd978a6e	-0.0739945
48	0x3e954cf7	0.29160282
49	0x3e8eca8f	0.27888915
50	0x3e62c8b9	0.22146882
51	0xbd0587dc	-0.03260027
52	0x3e5ee17c	0.21765703
53	0xbe0e31c7	-0.13886176
54	0x3ec81cdf	0.39084527
55	0x3e8667f5	0.26251188
56	0xbe20af04	-0.15691763
57	0xbeac9da3	-0.33714017
58	0xbc37d3c0	-0.011219919
59	0x3dab3e79	0.08361525
60	0xbee6afff	-0.4505615
61	0x3d7827eb	0.060584944
62	0xbe6eadfe	-0.2330856
63	0xbddd2588	-0.10798174
64	0x3e27749a	0.16353074
65	0xbd9c2bb7	-0.076255254
66	0x3ec9e5b8	0.39433074
67	0x3e8bdd10	0.27317095
68	0x3ebb4d53	0.3658243
69	0xbe8a7c4d	-0.2704796
70	0xbc0a024e	-0.008423401
71	0x3f07fcc9	0.53120095
72	0x3dea1958	0.11430615
73	0x3df2aae6	0.118490025
74	0x3df5cca5	0.120019235
75	0xbba10af7	-0.004914637
76	0x3e412588	0.18861973
77	0x3e9042a7	0.28175852
78	0xbea50363	-0.32229146
79	0xbe2e6be1	-0.1703334
80	0x3e72869a	0.23684159
81	0xbcf1a664	-0.029498287
82	0x3d4acd83	0.049512397
83	0xbda190b8	-0.07888931
84	0x3e1b610a	0.15173736
85	0x3dadc6b7	0.084851675
86	0xbec2e857	-0.38067886
87	0xbee67a2b	-0.45015082
88	0xbb3d2efa	-0.0028867112
89	0x3e8f62f5	0.28005186
90	0xbe469cc2	-0.19395736
91	0xbe0712f6	-0.13190827
92	0xbedb7261	-0.42860702
93	0x3ea317dc	0.3185414
94	0x3e3b9881	0.18319894
95	0x3ddd2c09	0.10799415
96	0xbe5e9898	-0.21737897
97	0x3e339023	0.17535453
98	0xbd5d81b5	-0.054078776
99	0x3a4676ad	0.00075707847
100	0x3e43f8f7	0.19137941
101	0x3e8234c7	0.2543089
102	0x3f1e55a2	0.61849415
103	0xbdc0ee81	-0.09420491
104	0x3dd7d06c	0.105378
105	0xbcc4f3b3	-0.024041986
106	0xbe2ece04	-0.17070776
107	0xbe554ed9	-0.20830859
108	0x3e3a03cc	0.18165511
109	0xbc55e7be	-0.01305574
110	0xbe5d6cca	-0.21623531
111	0xbe9213e4	-0.285308
112	0x3c0c4ba8	0.00856296
113	0x3ed4eaa0	0.41585255
114	0x3e9baa03	0.30403146
115	0xbe4748e8	-0.19461405
116	0x3ee690e1	0.4503241
117	0x3f0e6e2e	0.5563687
118	0x3ed0bad9	0.40767553
119	0x3eab466a	0.3345216
120	0xbd94b022	-0.07260157
121	0xbbc2bc48	-0.005942855
122	0xbe5a2665	-0.21303709
123	0xbb45c9dc	-0.0030180132
124	0xbda9c9f6	-0.08290474
125	0x3db3c0f2	0.08777036
126	0x3e80715c	0.25086486
127	0xbec5bfb7	-0.3862283

fc1.bias f4 [16]
0	0x3eb70d56	0.35752362
1	0xbee9791a	-0.45600206
2	0xbf19489a	-0.59876406
3	0x3da63b45	0.081167735
4	0x3e8172a0	0.25282764
5	0x3da62c64	0.081139356
6	0x3f0b447b	0.5440137
7	0x3e0e434c	0.13892859
8	0x3d6290ae	0.05531376
9	0xbee7167a	-0.45134336
10	0xbe7bfb13	-0.24607496
11	0x3e487af6	0.19578156
12	0x3e88fae2	0.26753908
13	0xbe95bb07	-0.29244253
14	0x3f015e36	0.5053438
15	0x3eb42b0b	0.3518909

fc2.weight f4 [4, 16]
0	0x3e53a516	0.20668444
1	0xbdda5d53	-0.106623314
2	0xbe28166f	-0.16414808
3	0x3df69ae2	0.1204126
4	0x3e3706bf	0.17873667
5	0x3e55effd	0.2089233
6	0x3e5d12d7	0.21589218
7	0x3cb5af0e	0.0221782
8	0xbdc9422e	-0.09827076
9	0xbe0ab452	-0.13545349
10	0xbd26f023	-0.040756356
11	0x3cef4b14	0.029210605
12	0x3e2efc81	0.1708851
13	0xbe1794bd	-0.14802833
14	0x3e0416ec	0.12899369
15	0x3cee3274	0.029076792
16	0x3e01f48b	0.12690942
17	0xbb031c75	-0.0020005975
18	0xbe51822f	-0.20459817
19	0x3e6f8bc6	0.23393163
20	0x3d91bf8e	0.07116614
21	0x3dcfc672	0.10145272
22	0xbd69dd3d	-0.057095755
23	0x3d395d9d	0.045255292
24	0x3e4f7131	0.20258023
25	0x3e56165b	0.20906965
26	0xbd9ca53e	-0.07648705
27	0x3c5eff9e	0.013610749
28	0x3e26bb8c	0.16282481
29	0xbd52b483	-0.05144168
30	0x3e9000e9	0.28125694
31	0x3cfd2cbd	0.030905122
32	0x3dbaf094	0.09127918
33	0xbded4aa0	-0.11586499
34	0xbd70c49a	-0.058781244
35	0x3da8b904	0.08238414
36	0x3ad379d2	0.0016134328
37	0xbdcea909	-0.10090835
38	0xbce61c19	-0.02808957
39	0x3e574a48	0.2102443
40	0xbd9054b9	-0.070474096
41	0xbe14c679	-0.14528836
42	0xbdb8e1ae	-0.0902742
43	0x3d811101	0.06302071
44	0x3db2cf86	0.08730988
45	0xbe738554	-0.2378133
46	0x3e431a96	0.1905311
47	0x3e4e27ba	0.20132342
48	0x3de828f2	0.11335935
49	0xbda68ff2	-0.08132924
50	0xbd7279d1	-0.059198204
51	0x3ddad107	0.106844
52	0xbc95ffb4	-0.018310405
53	0x3e0702b7	0.1318463
54	0x3cbd907c	0.023140185
55	0xbbc4bb21	-0.006003753
56	0x3e05de18	0.13073003
57	0x3ce110fc	0.02747392
58	0xbe21e718	-0.15810812
59	0x3e62cefe	0.22149274
60	0x3e09de72	0.13463762
61	0xbdd958d9	-0.106126495
62	0x3e70707b	0.23480408
63	0xbc7bd2cb	-0.015370081

fc2.bias f4 [4]
0	0x3e83a489	0.25711468
1	0xbd048a6c	-0.032358572
2	0x3e04d31a	0.12971154
3	0x3e201a13	0.15634947
