brains/trained_q_network.pth (torch, 2976 bytes, 4 tensors)

fc1.weight f4 [16, 8]
000000 34 9a 37 3d df 45 52 bf 1b f4 2a bf c4 f7 8e be
       0.044824794 -0.82137865 -0.66778725 -0.27923405
000010 62 64 60 bf 44 3c bc 3d 6a 7a 8b 3f 91 b6 04 bf
       -0.8765317 0.09191182 1.0896733 -0.51841074
000020 7b b0 61 bf 5c ec dd 3e 95 a4 c4 be 63 f3 3e bd
       -0.8815991 0.4334439 -0.38406816 -0.04661883
000030 d4 ae 3e 3f b9 dd d8 bc 47 25 76 bf 91 63 58 3f
       0.74485517 -0.026472913 -0.9615063 0.84526926
000040 46 7e 57 be b1 87 84 3e 1c 9f ca 3e 80 55 6e 3d
       -0.21044263 0.25884774 0.39574516 0.058187008
000050 b1 7b 61 bc 04 21 2a bd 97 66 7c 3f 8e 74 9b bc
       -0.0137624005 -0.041535392 0.9859404 -0.018976476
000060 4c e0 9c 3e 59 cb 76 3f ee de c1 3e 31 5b 80 bd
       0.30639875 0.96404034 0.37865394 -0.062673934
000070 20 8e b0 be d1 de b5 bb 08 3a be 3f 65 81 65 bf
       -0.34483433 -0.0055502434 1.486146 -0.89650565
000080 8b 9b 14 3f dd 51 17 3f 6a 5a 1a 3e d7 3d 2e 3e
       0.5804984 0.5910929 0.15073553 0.17015778
000090 d4 a8 fd 3e 46 da 11 be 1c 10 08 3f 21 a0 be bd
       0.49542868 -0.14243421 0.5314958 -0.09307886
0000a0 c3 d3 aa 3c da a8 5b 3e a7 33 a0 3f 80 44 b0 3d
       0.020852929 0.2145113 1.2515763 0.08606815
0000b0 9c db 59 3e c5 1d cd 3e 93 31 d7 bf f9 ce f9 3d
       0.2127518 0.40061775 -1.6812004 0.1219768
0000c0 e6 71 3c 3f db 34 07 3f ff ef 44 3f 9d 67 2d 3c
       0.73611295 0.52815026 0.76928705 0.010583785
0000d0 d6 50 1f 3e 39 55 33 3d f3 4d 2b 3f 26 9f 92 bf
       0.1555818 0.043782447 0.66915816 -1.1454818
0000e0 f0 d7 1a bf 68 9b cb be 6f a5 16 3e c5 d2 29 be
       -0.60485744 -0.39767003 0.14711545 -0.16584308
0000f0 b6 bc 0c 3f e6 0d 0c 3f 51 4b 11 c0 c2 a4 1f 40
       0.5497545 0.5470871 -2.270222 2.494431
000100 0b 81 4a bf f1 4f 91 be 62 f5 44 3f 80 88 ae be
       -0.79103154 -0.28381303 0.76936924 -0.34088516
000110 19 e6 d8 be 8e 7c 68 3e 22 33 1b bf 66 4d 0d bf
       -0.4236305 0.22703764 -0.606249 -0.55196226
000120 40 23 40 bf 03 5a 12 3f ca 81 40 bf 17 f8 90 be
       -0.7505379 0.57168597 -0.7519804 -0.28314278
000130 ad 14 3d 3e 84 d2 50 be 1e 28 0f 3f 10 a9 90 3e
       0.18464918 -0.20392805 0.5592059 0.28253984
000140 fc bd ef 3e f0 f2 2f be 76 50 8a 3f ef 2f 36 3e
       0.46824634 -0.17182517 1.0805805 0.17791723
000150 34 d2 15 bf 73 f2 49 bd fe 7d e0 be 77 65 ec be
       -0.5852387 -0.049303483 -0.43846124 -0.46171162
000160 27 5d 32 be a4 69 92 bd 7c bc 73 3f 01 64 71 be
       -0.17418347 -0.071490556 0.9520948 -0.23573305
000170 d7 a9 d0 be 26 05 0b bb af 65 bf be 5f 4a 4f bf
       -0.40754578 -0.0021212786 -0.37382266 -0.80972856
000180 a7 a5 97 3e 84 16 15 3f 4e 8b fa bd dd 96 72 bd
       0.2961857 0.5823748 -0.122336015 -0.059225906
000190 fb 72 c4 3c 44 b4 43 3d c4 a6 8f 3f 89 19 73 3d
       0.023980608 0.047779337 1.1222768 0.059350524
0001a0 48 c8 1e 3d 4c 54 74 3e 4b aa 98 3f ed 84 55 be
       0.03876522 0.23860282 1.1926969 -0.20851488
0001b0 cd 77 04 3d 6f ce 57 3e a9 9f fe bf 62 de ce 3e
       0.032340813 0.21074842 -1.9892474 0.4040404
0001c0 81 2c 41 bf f3 05 ff be 8a 1d 2d bd 05 32 23 3d
       -0.7545853 -0.49809226 -0.0422645 0.039842624
0001d0 0a ff 28 bd 38 38 34 bd eb 28 97 3e 5b c7 05 3e
       -0.04125885 -0.043998927 0.29523405 0.1306433
0001e0 13 75 3c bf c3 0f 76 bf 74 a6 3c bf 90 98 7c 3c
       -0.7361614 -0.961178 -0.7369149 0.015417233
0001f0 5f 99 29 bf e3 77 4a 3c 0c 68 44 3e 51 de 3b bd
       -0.6624965 0.012357685 0.19180316 -0.045866314

fc1.bias f4 [16]
000000 82 69 e5 3f 91 4e 1d bf 22 79 b2 3f c4 44 06 3e
       1.7922823 -0.6144801 1.3943217 0.1311217
000010 21 54 8e bf 13 a9 cc bf 46 0a 58 3e 4f 73 36 c0
       -1.1119424 -1.5989097 0.21097669 -2.8507879
000020 41 48 6e 3f 6f 53 c7 bd 06 f6 93 be fd 31 8e 3f
       0.93079 -0.097327106 -0.28898638 1.1109005
000030 3a 4e 83 3e 88 c6 aa bf 61 f3 ce 3f 19 69 a3 3f
       0.2564562 -1.3341837 1.6168023 1.2766448

fc2.weight f4 [4, 16]
000000 b9 39 8a 3e 9c de 4a be d5 1e 1a 3e 63 60 98 3e
       0.26997164 -0.19811481 0.15050824 0.29761037
000010 f0 e2 16 be 22 af 25 be 4f b5 07 3e 3f 97 58 be
       -0.14735007 -0.16180089 0.13252757 -0.21151446
000020 d4 5e cc 3e b2 b0 b1 3e 19 ef 40 bd 6b e3 b5 3e
       0.39916098 0.3470512 -0.04710302 0.3552507
000030 62 19 3c 3e 47 53 15 be d0 06 39 3e 00 7b f3 3d
       0.18369058 -0.14582549 0.18069005 0.11888695
000040 e2 d7 07 3f 71 ea cd be b9 b1 28 3e b7 9f 1d 3e
       0.53063786 -0.40217927 0.16474046 0.15392958
000050 60 25 af be 74 72 b7 be 6d ba 0a 3e 23 9f aa be
       -0.34208202 -0.35829508 0.13547678 -0.33324537
000060 72 b6 c9 3e 46 e4 b7 bd 4d ed aa 3d f2 b8 d3 3e
       0.39397007 -0.089790866 0.08346043 0.4135204
000070 d8 be 08 3e 49 d7 bd be c5 15 b7 3e 6e 8c b5 3e
       0.13354051 -0.37078312 0.35758796 0.35458702
000080 34 d8 86 3e 63 31 74 be b7 98 2a 3e f3 e5 aa 3e
       0.26336825 -0.23846965 0.16659819 0.33378562
000090 46 f4 80 3c bd ab a1 be e8 70 84 3e 31 08 8d be
       0.015741479 -0.31576338 0.2586739 -0.27545312
0000a0 1c f6 ac 3c a0 bf 9e 3e 9d ff d0 bd 2a 4f ad 3d
       0.021113448 0.31005573 -0.10205004 0.08462365
0000b0 10 05 29 3e 6b 00 9a be 30 9a 43 3e 1f eb 0c 3e
       0.16505837 -0.30078444 0.19101787 0.13761567
0000c0 df 01 94 3e f9 1d cc be 33 b5 1c 3e 92 b7 d8 3e
       0.28907678 -0.39866617 0.15303497 0.42327553
0000d0 07 e1 75 bd 9b ea 27 be 4d 1f 10 3f 2c 9d ca be
       -0.060029056 -0.16398089 0.5629776 -0.39573038
0000e0 0c 53 c9 3e 07 7f b6 3d 1e 19 89 3e c2 30 db 3e
       0.39321172 0.08910947 0.26776975 0.42810637
0000f0 57 b9 fe 3d f9 93 5b be 06 d7 23 3e d5 c5 01 3e
       0.124376945 -0.21443166 0.15999994 0.12673123

fc2.bias f4 [4]
000000 76 dc ee 3e ab e4 87 3f 59 f3 f4 bd 16 0c ae b9
       0.46652573 1.0616659 -0.119604774 -0.0003319687
