brains/trained_q_network.pth (torch, 2976 bytes, 4 tensors)

fc1.weight f4 [16, 8]
000000 1d 07 f5 3d 39 7b 9e 3e e2 45 67 3e f8 c4 cb bd
       0.119642474 0.30953386 0.22585252 -0.09949678
000010 9a aa 88 3e 42 14 8e 3e db ba 44 3e b0 e0 2e 3e
       0.2669266 0.2774983 0.19211905 0.17077899
000020 dc a8 83 bd 3b 71 b3 bd 89 25 43 be ea 2e 17 3f
       -0.06428692 -0.087618314 -0.19057287 0.5905596
000030 32 da 0d 3f fc 4c 77 3e 60 3b ca 3e 59 b5 a2 3e
       0.55411065 0.24150461 0.39498425 0.31778982
000040 1c be 0d bd 14 9d 93 3e 10 db e3 bc 36 92 90 3d
       -0.03460513 0.2883078 -0.027814418 0.070591375
000050 4c 01 1b 3e 4b b3 7f be 74 5a 27 bd 1f e2 49 bc
       0.15137213 -0.24970739 -0.040857747 -0.012321978
000060 74 fe 3b bb 9b cd 1b be 20 97 5f be 6d c9 1d 3e
       -0.0028685601 -0.15215151 -0.21834993 0.15408869
000070 c3 54 01 bd 2e 2c 40 be b5 bf c2 bd 0c 88 69 3e
       -0.031574976 -0.18766853 -0.095092215 0.22805804
000080 cf b2 8e 3e 44 f3 0e be b7 e3 8e 3e 84 eb c2 3d
       0.27870795 -0.13959986 0.27908108 0.09517577
000090 93 2c e5 bd 86 32 5d be b5 42 b6 bd 07 60 93 bd
       -0.111901425 -0.21601304 -0.08899442 -0.0719605
0000a0 ca 0f 5e 3e c3 64 65 be 73 bc 21 3e f6 9a 75 3e
       0.2168571 -0.22401719 0.15794544 0.23984894
0000b0 21 cd a4 bd 87 ee 5c 3e 64 d8 c7 be 29 2b f9 bd
       -0.08046938 0.21575366 -0.3903228 -0.12166435
0000c0 32 33 22 bf e9 74 d3 be 79 61 1a bf 88 5f 54 bd
       -0.6335937 -0.41300133 -0.6030498 -0.05184892
0000d0 ca eb 95 bd 75 dd 3e bd 07 73 6c 3e 2b fd b2 3e
       -0.07320364 -0.046597917 0.23090754 0.34958777
0000e0 7e 4c 6a 3e 62 b6 c6 3e 1f e0 fd 3e b2 eb 33 3e
       0.22880742 0.38811022 0.49585053 0.1757038
0000f0 2c 10 2d be f7 c9 13 be fb 77 6d be ad c5 70 be
       -0.169007 -0.14432512 -0.231903 -0.23512907
000100 b8 3c e9 be 29 a7 1e bf 30 2b af be 6e 52 7d be
       -0.45554137 -0.61973816 -0.34212637 -0.24738476
000110 a9 47 53 3e cf 33 74 be 30 a1 78 be 9f c1 ce be
       0.20632805 -0.23847888 -0.24280238 -0.40382096
000120 a9 f9 b0 be cc f2 2b be 3f 9d 42 be f5 d3 a6 3e
       -0.34565476 -0.16791838 -0.19005297 0.32583585
000130 2a f6 28 3d d3 94 03 3d 69 11 37 3c bc 82 33 bb
       0.041250385 0.03212435 0.0111735845 -0.0027391156
000140 2c dd 7e be d9 4f 00 be 72 f3 54 be 36 26 25 be
       -0.24889058 -0.1253046 -0.20795992 -0.16127858
000150 6f 00 a1 bc ba 75 d4 3d 46 2f 85 3d 8e 22 84 3e
       -0.019653527 0.10374017 0.06503157 0.25807613
000160 7e fb 27 bd fb 2d 43 be e2 0b f6 3d a1 22 22 3d
       -0.041011326 -0.19060509 0.12013985 0.039583806
000170 ac fd 87 be 52 93 ad 3c 1f 78 a2 3c bc e0 91 bd
       -0.26560724 0.021188412 0.019832669 -0.07122943
000180 c8 f1 bf 3e 7f 43 1c 3e 84 79 b6 3e ff 71 18 bd
       0.37489152 0.15260123 0.35639584 -0.03721809
000190 8c 81 20 be 97 59 d1 3d 5c 26 8c 3e 88 e5 5c 3e
       -0.15674418 0.10222166 0.27373016 0.21571934
0001a0 a5 d9 9e be 4b 7e 1f be 6d 42 c7 bd 81 60 45 3d
       -0.31025425 -0.1557552 -0.097294666 0.048187736
0001b0 52 f8 86 bd c5 0c f6 3d 74 1b 34 3e 35 c9 ce 3d
       -0.06590332 0.12014154 0.17588598 0.10096971
0001c0 b6 b1 33 3e 12 11 dc be c8 8d b1 3d c1 25 6f 3c
       0.1754826 -0.42981774 0.08669621 0.014596404
0001d0 04 39 b3 3c 7a c0 d7 bc 36 60 79 3d 4b 99 ea bd
       0.021877773 -0.026336897 0.06088277 -0.114550196
0001e0 ee 16 ee bd 1c c7 a0 be 0a 64 81 be 8c b1 58 3c
       -0.11625467 -0.31401908 -0.25271636 0.013225924
0001f0 5c ab 04 be c8 a4 89 3e bf 37 b9 be 13 55 b7 be
       -0.12955993 0.2688353 -0.36175343 -0.35807094

fc1.bias f4 [16]
000000 89 3f 6b 3e e6 45 88 3f c9 d3 45 3e f3 e1 c0 3e
       0.22973455 1.0646331 0.19319071 0.37672386
000010 e6 52 e9 3d b6 fb 5e 3e b7 00 2a 3e f2 d3 82 3e
       0.11392765 0.21775708 0.16601835 0.25552326
000020 9d f2 86 be e3 6d 91 3e 99 72 b6 3e 34 71 0e 3e
       -0.26356974 0.2840415 0.35634306 0.13910371
000030 c8 c5 5e be 64 a7 05 bf 51 31 89 be 4e f0 aa be
       -0.21755135 -0.5220854 -0.26795438 -0.33386463

fc2.weight f4 [4, 16]
000000 73 8b 74 bd d8 8b 86 3e 84 b0 51 3d 77 03 08 be
       -0.0597033 0.26278567 0.05119373 -0.13282572
000010 bf 58 83 bb 5e 76 4d 3e 8d 2d 39 3e 2a 05 b0 bd
       -0.004008382 0.20064685 0.18083782 -0.08594735
000020 17 03 90 bd 21 e9 72 3e 0b b4 2f 3e 66 67 1b be
       -0.07031839 0.23721744 0.17158525 -0.15176162
000030 80 2b 08 3e a9 a0 31 bd 79 d5 5f bd d8 bf 17 be
       0.13297844 -0.043366108 -0.054646943 -0.14819276
000040 7e f5 0a 3d a6 34 8f 3e 9c 96 f0 bb f4 18 41 3e
       0.033925526 0.27969855 -0.007342173 0.18857175
000050 ee 87 37 be 6e cb 26 3c c1 bd df 3d 90 f3 63 be
       -0.17922947 0.010180337 0.109248646 -0.2226088
000060 b7 4c cd bd 31 65 38 3e 91 ed 1d 3d 3f 00 36 3e
       -0.10024398 0.18007351 0.03855664 0.17773531
000070 03 f1 c7 bd 77 ff d7 bc 24 c6 26 bd 76 da 1e 3c
       -0.09762766 -0.026366932 -0.040716305 0.00969564
000080 22 2a 3e 3e c7 62 91 3e 35 8a e3 bd 96 87 cc 3d
       0.1857076 0.28395674 -0.11110345 0.099867985
000090 d5 1f 74 bd 31 e0 c7 bc 64 79 2c 3e bf 5b 49 3e
       -0.05960067 -0.024398895 0.16843182 0.19663905
0000a0 36 6d bc bd 1e 20 ab 3d 92 da 6a bc 03 97 26 be
       -0.09200518 0.08355735 -0.014334338 -0.16268544
0000b0 b0 94 04 3e 4a c2 9e 3d ff c6 94 bd 44 48 c3 bb
       0.12947345 0.077519014 -0.07264518 -0.0059595425
0000c0 a8 a1 6f 3e 9c d6 6e 3e ae 55 1b 3d 07 5f e4 bc
       0.2340151 0.23324054 0.037923507 -0.027877344
0000d0 7f 56 49 3d a5 81 95 3d 1e c0 8b bd 61 23 1c 3e
       0.049154755 0.07300118 -0.06823753 0.15247871
0000e0 77 10 8e be d3 2a bc bc 4c 15 b1 bb f2 2b 1f be
       -0.27746937 -0.022969639 -0.00540415 -0.15544108
0000f0 fe d4 44 3e 92 af e4 3b db 0c 6a bc 84 37 01 be
       0.19221875 0.0069789374 -0.014285292 -0.12618834

fc2.bias f4 [4]
000000 ca 5b 23 3e 37 1d 4a 3e f0 9e 55 3e 58 01 cc 3e
       0.15952983 0.19737707 0.20861411 0.39844775
