brains/trained_q_network.pth (torch, 1812 bytes, 2 tensors)

fc.weight f4 [4, 12]
000000 16 72 0a 3e 9c 82 34 3d 00 58 29 3d b8 0c 74 be
       0.13520083 0.04406987 0.04134369 -0.23832977
000010 0e 8b 0b bd 6e d5 6b bc e6 02 0b 3f 31 24 be 3e
       -0.03406816 -0.014394147 0.543013 0.37136987
000020 f2 9b 8a bc 55 22 52 3e 16 55 3a 3e 7f 6f 80 be
       -0.016920064 0.20520909 0.1819652 -0.25085065
000030 ec de f7 3d 86 32 fd 3c c0 6d ff 3c f3 d8 86 3d
       0.12103066 0.03090788 0.031180263 0.065843485
000040 43 4d 05 3e d6 e9 98 3e f6 b9 0b 3f d2 79 c1 3e
       0.13017754 0.29865903 0.5458063 0.37788254
000050 e1 84 90 be 20 52 7a 3c 81 15 7b 3e 09 ab 69 3e
       -0.2822638 0.015278369 0.24519922 0.22819151
000060 95 2d 0b 3e 22 eb 3e 3d f8 d5 df 3c a5 d8 25 bd
       0.13591607 0.04661096 0.027323708 -0.04048981
000070 1e 3f 7c be 17 79 7d be 78 fb 09 3f 14 28 bf 3e
       -0.24633452 -0.24753223 0.53899336 0.37335265
000080 c3 25 83 3e d5 90 30 3e 5a b6 3e be ec a6 80 3e
       0.25614747 0.17242749 -0.18624249 0.2512735
000090 d1 d2 35 3e c5 26 97 3d ec 40 b3 3d c1 6b c4 3d
       0.17756201 0.073804416 0.08752617 0.09590865
0000a0 69 bb 19 3e b3 87 a1 3d 36 2c 07 3f 2e 8e 30 3f
       0.15012898 0.07887211 0.52801836 0.6896695
0000b0 6f 5f 55 bd c1 dc 16 3e f1 d6 a1 bd c8 f3 6c be
       -0.052092966 0.14732648 -0.07902325 -0.2313987

fc.bias f4 [4]
000000 5e 81 4e 3f 0a d2 4d 3f 51 7d 4e 3f 41 b0 f7 3e
       0.8066615 0.8039862 0.8065997 0.4837666
