brains/trained_q_network.pth (torch, 2976 bytes, 4 tensors)

fc1.weight f4 [16, 8]
0	0x3e844fa3	0.25842008
1	0x3eaf86d6	0.3428256
2	0x3eb72cd0	0.35776377
3	0x3dcf61d9	0.10126085
4	0xbd88eea8	-0.06686145
5	0xbe914eae	-0.2838034
6	0xbeaa1ffb	-0.33227524
7	0xbe357a53	-0.17722444
8	0x3f1a643d	0.603092
9	0x3ded239e	0.11579059
10	0x3eb4fa30	0.35347128
11	0x3f5f7bd6	0.87298334
12	0x3f9edb3c	1.2410655
13	0x3f7adf3a	0.97996867
14	0x3f98c4bb	1.1935037
15	0x3ef70f63	0.48253927
16	0x3f0cd196	0.550073
17	0x3ea390b9	0.31946352
18	0x3ec53f74	0.38524973
19	0xbf24fa8e	-0.64444816
20	0xbf4f1327	-0.808886
21	0xbf762945	-0.9615672
22	0xbfcb7e82	-1.5897982
23	0xbf79b0c6	-0.9753536
24	0x3ed8fa9c	0.423787
25	0x3f275bf7	0.653747
26	0x3f27f5af	0.6560926
27	0x3eb59862	0.3546782
28	0x3eca4bc0	0.39510918
29	0x3ef69cca	0.48166496
30	0x3f22de8d	0.63620836
31	0x3aa037de	0.0012223681
32	0x3e8c1262	0.27357775
33	0x3c1c4a96	0.009539267
34	0x3db10842	0.08644153
35	0xbec9707d	-0.39343634
36	0xbf02f8ee	-0.51161087
37	0xbe974738	-0.29546523
38	0xbf1adf43	-0.6049692
39	0xbed0cae4	-0.40779793
40	0xbe589749	-0.2115146
41	0xbec0204d	-0.37524644
42	0xbedd0643	-0.4316884
43	0x3ee2a683	0.44267663
44	0x3ec285c9	0.37992695
45	0x3e98ae78	0.2982061
46	0x3e676f27	0.22600995
47	0x3d1de956	0.038552605
48	0xbd72941c	-0.05922328
49	0xbe043343	-0.1291018
50	0xbe318330	-0.173352
51	0xbe80ed19	-0.2518089
52	0xbf2f5c89	-0.6850057
53	0xbf0faf5e	-0.56126964
54	0xbec2b525	-0.38028827
55	0xbeee9973	-0.46601447
56	0xbf87475d	-1.0568653
57	0xbf3ed3b3	-0.7454178
58	0xbeabee53	-0.33580264
59	0xbfaaaf6e	-1.3334787
60	0xbfd92b7a	-1.6966393
61	0xbfbd03c1	-1.4766771
62	0xc0144c4b	-2.3171566
63	0xbf9d3ceb	-1.2284216
64	0x3f33b5c2	0.70199215
65	0x3ef0ffad	0.47070065
66	0x3f20c284	0.6279681
67	0x3f2b22f8	0.66850233
68	0x3f1b2f11	0.6061869
69	0x3e918935	0.28424993
70	0x3f87289f	1.0559272
71	0x3f079093	0.5295498
72	0x3f88ad46	1.0677879
73	0x3f4360d2	0.7631961
74	0x3f2ad2e2	0.6672803
75	0xbe7e28ff	-0.24820326
76	0xbce6d413	-0.028177297
77	0xbe86a428	-0.26297116
78	0xbdea5510	-0.11442006
79	0xbe928b37	-0.28621837
80	0xbf0b0b95	-0.5431455
81	0xbe66754b	-0.22505681
82	0xbd86af3f	-0.06576394
83	0xbe3164ee	-0.17323658
84	0xbec52510	-0.3850484
85	0xbeae047b	-0.33987793
86	0xbf0a485f	-0.5401668
87	0xbc60f5bc	-0.013730463
88	0x3e95ddf2	0.29270893
89	0x3f0b5947	0.544331
90	0x3f229ff8	0.6352534
91	0x3d077652	0.033071823
92	0xbc1bd11c	-0.009510305
93	0xbe3ae1e2	-0.1825023
94	0xbf575a83	-0.84122485
95	0xbf1cafe4	-0.6120589
96	0xbecef7d6	-0.4042346
97	0xbf2f08ea	-0.68372977
98	0xbf19ba3d	-0.600498
99	0xbed32f94	-0.41247237
100	0xbe1a2ae4	-0.15055424
101	0xbefba1cf	-0.49146888
102	0xbf0c9fc4	-0.54931283
103	0xbf01a3be	-0.50640476
104	0xbf77c92e	-0.9679135
105	0xbf4ef8d0	-0.8084841
106	0xbef0a6de	-0.4700231
107	0xbe91fd58	-0.28513598
108	0xbf05bd6e	-0.5224217
109	0xbf321572	-0.6956397
110	0xbf341b2c	-0.7035396
111	0xbe6a9496	-0.22908244
112	0x3e5ebfe8	0.21752894
113	0x3c41b306	0.011822468
114	0x3ea9cd2b	0.33164343
115	0xbf8f73cb	-1.1207212
116	0xbfb69907	-1.426545
117	0xbfcb4879	-1.5881492
118	0xbff3db30	-1.9051266
119	0xbf58c64e	-0.8467759
120	0x3f65b652	0.89731324
121	0x3f23ef77	0.6403727
122	0x3e8596c9	0.26091602
123	0x3f46f1f9	0.7771297
124	0x3f1ff9b9	0.6249042
125	0x3f7cb8ab	0.9871928
126	0x3fcce07f	1.6006011
127	0x3f16edd8	0.5895667

fc1.bias f4 [16]
0	0xbeb08e92	-0.34483773
1	0x3f759c48	0.9594159
2	0xbfd91b62	-1.6961482
3	0x3f63a7f2	0.8892814
4	0xbecd9a6b	-0.40156874
5	0x3ce05963	0.027386373
6	0xbf321d51	-0.69575983
7	0xc0446d14	-3.0691576
8	0x3f5311a1	0.82448775
9	0x3d45ce4b	0.04829244
10	0xbf0a7303	-0.54081744
11	0xbe8478cc	-0.2587341
12	0x3d0e7032	0.034774967
13	0xbf706bce	-0.93914497
14	0xc0034b3f	-2.0514677
15	0x3fdbad03	1.7162174

fc2.weight f4 [4, 16]
0	0xbdb17aac	-0.08665976
1	0x3e950b5d	0.29110232
2	0xbe5c4ab6	-0.21512875
3	0x3e343f6e	0.17602322
4	0xbe0feb66	-0.14054641
5	0x3e91b18d	0.28455773
6	0xbebc78de	-0.36810964
7	0xbea1419c	-0.31495368
8	0x3e97a89d	0.2962083
9	0xbe1541dd	-0.14575906
10	0xbe29c8ec	-0.16580552
11	0xbe1a2c5e	-0.15055987
12	0xbe491ae7	-0.19639169
13	0xbe74798f	-0.23874496
14	0xbeab3c18	-0.33444285
15	0x3ebac606	0.36479205
16	0xbd669221	-0.056291703
17	0x3e97ce9e	0.29649824
18	0xbe663398	-0.22480619
19	0x3e539dde	0.2066569
20	0xbed4a0bd	-0.41528884
21	0x3e58c500	0.211689
22	0xbeaffb39	-0.34371355
23	0xbea7b484	-0.3275491
24	0x3e4dc6ff	0.20095442
25	0xbe7d56eb	-0.24740188
26	0xbe2800fa	-0.16406623
27	0xbe1e20c7	-0.15442191
28	0xbea4c0af	-0.32178256
29	0xbe555504	-0.20833212
30	0xbeb4037d	-0.3515891
31	0x3e8ca465	0.27469173
32	0xbe198e0a	-0.1499559
33	0x3e76c88e	0.24099943
34	0xbe506fbf	-0.20355128
35	0x3e805935	0.2506806
36	0xbef34dcb	-0.4752029
37	0x3e2d2ee8	0.16912425
38	0xbe476b4b	-0.19474523
39	0xbec4222d	-0.38307324
40	0x3e8cd7a9	0.27508286
41	0xbe1349b1	-0.1438358
42	0xbe5d6db5	-0.21623881
43	0xbd36768a	-0.04454664
44	0xbe375362	-0.17902902
45	0xbe6b4fcc	-0.22979659
46	0xbe9d4414	-0.30716002
47	0x3eb2e81a	0.34942704
48	0xbcf9acf8	-0.030477986
49	0x3ea1580d	0.3151249
50	0xbe448969	-0.19193043
51	0x3e925608	0.28581262
52	0xbe199726	-0.14999065
53	0x3d970957	0.07374828
54	0xbeb08449	-0.34475926
55	0xbeaac945	-0.3335668
56	0x3ebdd062	0.37073046
57	0xbd97f871	-0.07420433
58	0xbe3ee496	-0.18641886
59	0x3b309e07	0.002694966
60	0xbea4024e	-0.32033008
61	0xbe9aa02b	-0.30200323
62	0xbe82a425	-0.25515857
63	0x3ebe85da	0.37211496

fc2.bias f4 [4]
0	0x3f1d4225	0.61429054
1	0x3d623d91	0.055234496
2	0x3f13a296	0.5766996
3	0x3e8b2dcc	0.27183378
