brains/trained_q_network.pth (torch, 3104 bytes, 4 tensors)

fc1.weight f4 [16, 10]
000000 e1 67 25 be 74 ea fe be 5a ae db be 7a e5 85 bf
       -0.16152908 -0.4978825 -0.42906457 -1.0460656
000010 7c 5e a7 be ec 2f 53 bf 1f 39 e0 bf c0 8c 1d bf
       -0.32689273 -0.82495 -1.7517432 -0.6154289
000020 e0 2e 6f be d7 7d f4 be ee ca b5 be 3d f6 07 bf
       -0.23357725 -0.47752258 -0.35506386 -0.53110105
000030 2c a6 93 be f1 09 62 bf a0 53 2e bf 5a 72 cc bd
       -0.28837717 -0.8829642 -0.6809635 -0.09982748
000040 bc a9 c2 bf 93 8b 1c 3e 4c 0c 8e bb af ac 4a bf
       -1.5208049 0.15287618 -0.004334962 -0.79169744
000050 cd c1 78 bf a1 94 9a bf 69 53 52 bf a6 29 9f bf
       -0.97170717 -1.2076608 -0.82158524 -1.2434585
000060 e1 b1 25 bf b9 28 11 bd c5 ad e7 bf f9 14 47 bf
       -0.64724547 -0.035439227 -1.8099905 -0.77766377
000070 1a 06 38 3e 0c 8c e0 bf 92 07 62 bf e9 5f d5 bf
       0.17971078 -1.7542739 -0.882928 -1.6669894
000080 4b 75 8a bf c3 15 04 c0 38 c9 24 bf a2 e9 44 bf
       -1.0817045 -2.0638282 -0.64369535 -0.76918995
000090 93 68 31 c0 5a 46 c7 be b3 64 a1 3d 06 e0 c8 bf
       -2.7720077 -0.3892086 0.07880535 -1.5693367
0000a0 46 80 94 bd 1b cd 32 be c7 c2 07 be 5c 67 0a be
       -0.07251029 -0.17461054 -0.13257895 -0.13515991
0000b0 b2 db 8f be e1 5d a2 be c3 d3 17 bf 51 bf d2 3e
       -0.28097302 -0.3171225 -0.593075 0.41161588
0000c0 3d 3d 6e be a7 c6 1c be 3e 4b 09 bf d2 9d c6 be
       -0.23265548 -0.15310155 -0.53630435 -0.38792282
0000d0 3c 85 e0 be 21 1e 82 bf 98 ef 1c be 3f 40 68 bf
       -0.4385165 -1.0165445 -0.15325773 -0.9072303
0000e0 ab bd 6f bf 6e f2 26 bf 88 01 51 3e 6b 76 5b bf
       -0.93648785 -0.6521367 0.2041074 -0.85727566
0000f0 99 dd 20 3f 7a d4 7b 3f 1a 5f 3a 3f c4 d3 87 3f
       0.6283813 0.9837109 0.72801363 1.0611501
000100 a9 7c 50 3f c0 93 09 3f 13 e5 f6 3f ef df a1 bd
       0.81440216 0.53741074 1.9288658 -0.0790404
000110 ec b3 f6 3d 9c e4 83 3f 9b 01 e0 3d 1e c5 c2 be
       0.12046036 1.0304141 0.10937806 -0.38041013
000120 9d 8f 97 be 8d 60 0f bf bc 3d 8f bd 98 54 50 bf
       -0.29601756 -0.560067 -0.06994197 -0.8137908
000130 83 c3 98 be 6e 52 6d 3e 84 86 d1 bd dc 73 39 bf
       -0.29836664 0.23175976 -0.10230735 -0.7244241
000140 42 27 8c 3f 36 4e 0c 40 00 5f 61 3f 13 44 46 40
       1.094948 2.1922736 0.88035583 3.097905
000150 25 96 af 3f 25 29 32 3e b0 86 91 40 76 e8 19 3f
       1.3717695 0.17398508 4.5476913 0.6012033
000160 7a 8b 78 3d fe 04 5c 40 90 49 0c 40 77 bd 70 40
       0.06067989 3.4378047 2.19199 3.761564
000170 e8 ae 01 40 fb de 98 40 d5 b8 1f 40 a0 e4 f2 3f
       2.0263004 4.7772193 2.4956563 1.8976021
000180 9e 15 d2 40 1c 44 d2 3f 8a 78 91 be 39 14 83 40
       6.565139 1.6427035 -0.28412277 4.0962186
000190 8b 76 9f 3e 5d b2 9f 3e 07 1f a7 3e 96 da 8a 3e
       0.3114513 0.31190768 0.3264086 0.27119893
0001a0 58 37 86 3e b6 bf d3 be 8e ca 00 3f b0 81 4b 3d
       0.262141 -0.413572 0.50309074 0.049684227
0001b0 9a e5 91 3e 48 51 cf 3e c3 99 b7 be 4b ff 4f bf
       0.28495485 0.404917 -0.35859498 -0.8124892
0001c0 c2 c7 10 bf f5 5b 84 bf b7 5c 45 be b8 1f 4f 3e
       -0.56554806 -1.0340563 -0.19273649 0.20226943
0001d0 2c b6 97 bf 62 ae ec be e6 93 6d be 0f 2e 99 bf
       -1.185247 -0.46226794 -0.2320095 -1.1967181
0001e0 8e 61 0e 3f d3 03 46 3f d3 01 f8 3e d7 01 ab 3f
       0.55617607 0.77349585 0.48438892 1.3359936
0001f0 f1 b4 37 3f ac 16 80 be 51 f7 ea 3f 75 64 10 3f
       0.7176047 -0.25017297 1.8356725 0.56403285
000200 c2 55 16 be 04 43 e6 3f 0c 81 d1 3e ec de a8 3e
       -0.14681152 1.7989202 0.40918767 0.32982576
000210 98 1d ae 3e 60 90 14 3f 45 dd ad 3e 5d fd 3e bf
       0.34006953 0.580328 0.33957878 -0.7460535
000220 35 53 0a 3f 09 52 92 bc 36 0f 40 bd d3 d4 37 3f
       0.54033214 -0.017861383 -0.046889506 0.7180912
000230 59 b8 82 be 94 a4 d9 be a6 05 49 3d 15 f2 e3 be
       -0.2553127 -0.42508376 0.049077652 -0.4452063
000240 29 a1 bb be 9a ca b8 3d 97 d7 a0 be 2a 7c e6 be
       -0.36646393 0.09023018 -0.31414482 -0.45016605
000250 23 ab a4 3c 4b 58 27 be 3b 07 cb 3f 38 8d 2d 40
       0.020101136 -0.16342275 1.5861582 2.7117443
000260 0b 26 9c 3f 35 e8 6d 40 fb c7 f8 3f a6 7d 3d 3f
       1.219911 3.7172978 1.9436029 0.7401985
000270 ed 6a 9c 40 c6 5c 8f 3f 5c f5 22 bd 2e c8 8e 40
       4.8880525 1.1200187 -0.039784774 4.461936

fc1.bias f4 [16]
000000 ff bf a5 bf 50 22 47 bf 7c 8d ea bf d9 27 1d c0
       -1.2949218 -0.7778673 -1.8324428 -2.455557
000010 bb 82 72 be a3 27 68 bf 50 57 9d 3f 81 9d 06 bf
       -0.23682682 -0.9068548 1.2292271 -0.5258408
000020 b5 78 26 40 b7 7d 9b 40 11 61 60 3e f1 3a a5 bf
       2.6011174 4.859096 0.21912028 -1.2908612
000030 cf a0 ec 3f c8 29 92 3d 82 34 5f bf 6d 8d 65 40
       1.8486575 0.071368754 -0.87189496 3.586757

fc2.weight f4 [4, 16]
000000 e2 35 96 be f3 df 80 be d7 a2 82 be 2e 48 ad be
       -0.29337984 -0.2517086 -0.25514862 -0.3384413
000010 d3 10 6d be 68 8d cc be c9 98 cd 3e 66 9e d2 be
       -0.23150949 -0.39951634 0.40155628 -0.41136473
000020 51 4d 62 3e 0f d0 9f 3e ca 83 11 3e 80 ff 6a be
       0.22099806 0.31213424 0.1421043 -0.22949028
000030 86 d2 58 3e f4 67 59 3e a2 8b 07 be 8a 36 70 3e
       0.21174058 0.21231061 -0.1323686 0.23458305
000040 04 26 7c be 59 2e 84 be d6 38 a4 be fc 86 a2 be
       -0.24623877 -0.2581661 -0.32074612 -0.3174361
000050 ff 60 2f be 03 e0 38 be 6f d9 ae 3e 50 c8 f4 bd
       -0.17126845 -0.18054204 0.34150264 -0.11952269
000060 ba a8 6b 3e 03 da 9d 3e ab 9c 92 3e 00 7f 9c be
       0.23013583 0.30830392 0.28635153 -0.30565643
000070 86 03 82 3e cb 55 e8 3e f1 d4 2e be 5a 0e 77 3e
       0.25393313 0.45377955 -0.17073418 0.24126568
000080 91 8c 84 be 42 d5 4b be bf 01 ab be f8 2c 9e be
       -0.25888494 -0.1990557 -0.3339977 -0.30893683
000090 29 21 ff bd ec a7 95 be f1 9d 91 3e 35 43 06 be
       -0.12457497 -0.29229677 0.28440812 -0.13111575
0000a0 fb 7b 67 3e b0 ba a1 3e f7 00 84 3e c1 06 ab be
       0.22605889 0.31587744 0.25781986 -0.3340359
0000b0 f3 3c 86 3e 74 3a 7d 3e d8 d3 ab be a3 6d 73 3e
       0.26218376 0.2472933 -0.3356006 0.23772292
0000c0 ac 8c 30 be b9 87 62 be 12 e8 90 be 4d 00 c7 be
       -0.17241162 -0.22122087 -0.28302056 -0.38867417
0000d0 57 e2 8e be 90 51 bc be b1 54 76 3e 7e 4a 44 be
       -0.2790706 -0.36780977 0.24055745 -0.19169042
0000e0 c9 20 6c 3e 7b e7 97 3e 27 9b 25 3e 09 65 b1 be
       0.23059382 0.29668793 0.16172467 -0.34647396
0000f0 e5 64 80 3e 6d c0 b1 3e 43 4d 9f be 40 4b 73 3e
       0.25076976 0.34717122 -0.31113634 0.23759174

fc2.bias f4 [4]
000000 87 b2 10 3f 68 8e 5c 3e 23 9e 5a 3f 42 5f ae 3e
       0.5652241 0.21538699 0.8539755 0.3405705
