brains/trained_q_network.pth (torch, 2976 bytes, 4 tensors)

fc1.weight f4 [16, 8]
00000000: d081 bac0 d093 71bf 10c2 3d40 5cb5 893d
00000010: da30 9f3e 3578 fabd c579 87bf ff28 f43e
00000020: 0e67 aec0 6321 88bf eaab 5340 66a3 cc3e
00000030: dd95 37be 047e a9be b280 69bf df7b 68be
00000040: bf5b 1040 b94d f63d dedf 9fbf 77a7 1c3d
00000050: 7492 90bc a4bd efbb 5383 a93e 506b 83bf
00000060: c79f 9540 1904 ec3e 8df8 5ec0 45ea 74be
00000070: cd60 463c a668 813e eecd d03f 4cd7 d63e
00000080: a72c 80c0 c00d 29be efe5 1c40 10db 99bd
00000090: bc2f 9bbe 3ff6 e33d 0958 a2bf ec90 683e
000000a0: 1804 96c0 1721 f1be 3be9 3c40 13ed 2e3e
000000b0: 4412 abbe 2073 18be 35a6 8cbf 4715 473e
000000c0: 993f 9140 02cd 0a3f 7207 60c0 5189 95be
000000d0: e972 ec3e e512 5b3e d049 cd3f 94d0 79bb
000000e0: cc5d a6c0 b6bd 55bf 7640 3d40 d29e 393e
000000f0: 3ab8 c53e ac74 83be 7922 96bf bfbf b33e
00000100: 6801 5bc0 76c1 22bf 7c47 0740 f902 a93e
00000110: 5a9a a33d c047 c2be 564a c1bf 7e63 a73e
00000120: 1274 b340 7d18 8e3f ba0f 53c0 78b0 6fbe
00000130: 1fd7 80be 8751 983e 7f31 a33f beab cdbe
00000140: 6a24 9bc0 39e6 6bbf e8a0 5840 5973 a63e
00000150: a405 adbe 5231 a3be 90bb b3bf a658 4d3e
00000160: 8529 9e40 e226 953f 8c8c 24c0 4079 b8bd
00000170: a92d 543d 6a9c 903d 97f8 8e3f 652a 2e3e
00000180: f513 9ac0 e9ef 5bbf 71f5 5e40 fab4 9f3d
00000190: 7f46 e9bd 83e0 5ebe 6c6c 7ebf dee9 56be
000001a0: 0d36 60c0 c25a 27be 2ad0 5e40 0b47 b23d
000001b0: 6490 89be d754 a5bd ab25 b1bf 09f9 b3be
000001c0: b05d 10c0 4dfb b5bf 1a4e a6be b3bc d73d
000001d0: f034 953f 6a71 7abe 2ac9 1f40 e988 ed3e
000001e0: 8ff4 abc0 8837 4bbf 956f 4e40 a16b 0c3e
000001f0: 4739 bc3e 4a1b 41be c248 c3bf 06d4 3cbe
-5.8283463 -0.9436617 2.9649696 0.06724045 0.31091958 -0.12229959 -1.0584036 0.47687528
-5.45008 -1.0635189 3.3073678 0.39968413 -0.17928262 -0.33103955 -0.91212 -0.22703503
2.2555997 0.12026543 -1.2490194 0.038245644 -0.01764796 -0.007316308 0.33108005 -1.0267124
4.675754 0.46096876 -3.4839203 -0.23917492 0.01210804 0.25275153 1.6312845 0.41961133
-4.0054507 -0.16509151 2.451534 -0.07512486 -0.30309856 0.11130952 -1.2683116 0.22711533
-4.6879997 -0.47095558 2.9517353 0.17082624 -0.33412373 -0.14887667 -1.0988222 0.1944171
4.5390134 0.5421907 -3.5004544 -0.29206327 0.4618142 0.21393926 1.6038151 -0.0038118707
-5.19895 -0.834926 2.9570594 0.18126991 0.38617116 -0.2567495 -1.172927 0.35107228
-3.4219608 -0.6357645 2.113738 0.3301008 0.079884246 -0.37945366 -1.510081 0.32693094
5.6079187 1.1101223 -3.2978349 -0.23407161 -0.25164124 0.297497 1.274948 -0.4017009
-4.848195 -0.92148167 3.384821 0.32509878 -0.33793366 -0.31873566 -1.4041615 0.20053348
4.9425683 1.1652491 -2.5710783 -0.090075016 0.051801357 0.070610836 1.1169614 0.1700836
-4.814936 -0.8591295 3.4837306 0.077981904 -0.11390399 -0.21765332 -0.9938419 -0.20987651
-3.503299 -0.16343215 3.4814553 0.087049566 -0.26867974 -0.080728225 -1.383962 -0.35150936
-2.2557182 -1.4217316 -0.32481462 0.105340384 1.165678 -0.24457327 2.496653 0.46393517
-5.3736033 -0.7938161 3.2255604 0.13712932 0.3676245 -0.18858066 -1.5256579 -0.18440256

fc1.bias f4 [16]
00000000: ffa5 593f 0c1f 833e b46f 7fbe 1427 b63e
00000010: 9dd8 14bf 74ee 4d3c 7e43 9d3e f7bb b4bc
00000020: 1695 033e e365 04bf c6a9 62be a312 f2be
00000030: eea6 7d3e 88e5 27be 735e 8040 f753 e23d
0.85018915 0.25609624 -0.24944955 0.3557669 -0.58143026 0.012569059 0.30715555 -0.022062285
0.1284984 -0.51717967 -0.22135076 -0.47279844 0.2477071 -0.16396153 4.0115294 0.11051171

fc2.weight f4 [4, 16]
00000000: f57c 16be 50b3 24bf 2664 0cbd b082 a53f
00000010: 70c8 92bd 35a2 66bf cc94 053f ea34 9ebf
00000020: 78e0 39c0 a1f6 0740 2ee6 d4bf 2c52 6a3d
00000030: 478f 7fbe dfbf 6dbe cc1a 7a3e 26fd 90bf
00000040: ea51 903e 8724 143e 0221 d2bd 9f79 973e
00000050: 79e4 e0bd 2eb8 f8bd f641 ba3c 65d8 5ebd
00000060: 2c52 ddbc b83e f8bd 5121 8abd 22b0 ae3c
00000070: 8cb4 0bbe ac24 00be b985 d53e 90e9 2bbe
00000080: 8f72 563f dad4 353f 909c aabd bf98 87bf
00000090: 89bb e6bd c56e 0a3f 6941 acbe 5279 0040
000000a0: e604 5540 22e5 19c0 5d2a ca3f 3bbf 8bbe
000000b0: 0098 8f3d 9cf4 94bd 4536 f13e ecae be3f
000000c0: b6c6 213e 65c3 7d3e 67c4 fe3d 9d97 f9bc
000000d0: 32d5 d3bd e834 c1be 587f c43c d3fd e53d
000000e0: c22d e73c 12ef e83c 09de 8bbe ee58 abbd
000000f0: e557 81bc 11e8 17be 00a2 cb3e 524b c33e
-0.14696105 -0.6433611 -0.034275196 1.2930508 -0.07167137 -0.9009126 0.5218017 -1.2359898
-2.9043255 2.124428 -1.6632745 0.05720727 -0.24957 -0.23217724 0.24424285 -1.1327255
0.28187495 0.14467059 -0.10260202 0.29584977 -0.10981078 -0.121445045 0.02273653 -0.05440559
-0.027016722 -0.12121338 -0.06744636 0.021324221 -0.13643092 -0.12513989 0.41703585 -0.16788316
0.8376855 0.7102791 -0.08330643 -1.059349 -0.11266238 0.5407527 -0.33643654 2.0074048
3.328424 -2.4046102 1.5794178 -0.27294335 0.070114136 -0.07273218 0.47111717 1.4897132
0.15798458 0.24781568 0.124398045 -0.030467803 -0.10343398 -0.37735677 0.023986503 0.11230054
0.028220061 0.02843431 -0.27317837 -0.08366571 -0.015788982 -0.1483462 0.39772034 0.38143402

fc2.bias f4 [4]
00000000: acf6 fa3d 469f 513f 0888 f73e bbbf 573f
0.1225408 0.81883657 0.4834597 0.8427693
