brains/trained_q_network.pth (torch, 3104 bytes, 4 tensors)

fc1.weight f4 [16, 10]
0	0xbe4157e7	-0.18881188
1	0xbeaa1ad3	-0.3322359
2	0xbe6134f2	-0.21992853
3	0xbdd1e635	-0.10248987
4	0xbe818326	-0.2529537
5	0x3eb9c9f1	0.36286882
6	0x3f158f3f	0.584217
7	0xbd9b3753	-0.07578912
8	0x3dac6089	0.0841685
9	0xbed223e4	-0.41043007
10	0x3db0c4fb	0.08631321
11	0x3e112b7c	0.14176744
12	0x3e2fee53	0.17180757
13	0xbe1fc030	-0.15600657
14	0x3e9dbcac	0.30808008
15	0xbebbc220	-0.36671543
16	0xbf333525	-0.7000297
17	0x3df1e2da	0.118108466
18	0x3e63d211	0.22248103
19	0x3dcefd34	0.101068884
20	0x3e751f39	0.23937692
21	0x3f6edca7	0.9330544
22	0x3ea86e05	0.32896438
23	0x3fd9ceef	1.7016276
24	0x4031c313	2.7775314
25	0x3e19b15b	0.15009062
26	0xbdf4f677	-0.11961072
27	0xbe7b3800	-0.24533081
28	0x400d1c3c	2.2048483
29	0x3fa6ca8d	1.3030564
30	0xbe6a779b	-0.22897188
31	0xbee2d782	-0.44305044
32	0xbe8d1205	-0.2755281
33	0xbf0d4c0d	-0.5519417
34	0xbf0ccf1f	-0.5500354
35	0xbe01b1b0	-0.12665439
36	0xbe9b0e95	-0.30284563
37	0xbe5af91a	-0.21384087
38	0xbebf5e56	-0.3737666
39	0xbd59c8cd	-0.053170014
40	0x3f11e21d	0.56985646
41	0x3f40527f	0.7512588
42	0x3f19c9ba	0.60073435
43	0x3f2bf783	0.6717455
44	0x3f952ae6	1.1653717
45	0x3f7c3a49	0.98526436
46	0x3f69c6d8	0.91319036
47	0x3e95ebbd	0.29281417
48	0x3f3f6893	0.7476894
49	0x3f269d6a	0.65083945
50	0xbe47df01	-0.19518663
51	0xbf5b5b45	-0.8568614
52	0xbefa8f71	-0.48937562
53	0xbf532bb4	-0.8248856
54	0xbf9391b2	-1.1528838
55	0xbf275ed9	-0.653791
56	0xbf06b4b3	-0.52619475
57	0x3ba662ee	0.0050777113
58	0xbf2d3d98	-0.6767211
59	0xbf12bf55	-0.573232
60	0x3ea6d61a	0.32585222
61	0x3f0e3263	0.55545634
62	0x3f02c73d	0.51085263
63	0x3f1bcca1	0.60859114
64	0x3f53267a	0.82480586
65	0x3d9e7094	0.07736316
66	0xbeaedd5e	-0.34153265
67	0xbd34ecb2	-0.044171043
68	0x3f13262f	0.5748014
69	0x3e976fa6	0.29577368
70	0xbdd807c3	-0.105483554
71	0xbe6efd16	-0.23338732
72	0x3e1c2277	0.15247522
73	0xbefddd12	-0.49582726
74	0xbf73e936	-0.95277727
75	0xbd93516e	-0.07193266
76	0xbf7299e0	-0.94766045
77	0x3e44df6f	0.19225858
78	0xbece0174	-0.40235484
79	0xbebba438	-0.36648726
80	0x3e833148	0.25623536
81	0x3efacc7c	0.48984134
82	0x3ed81c18	0.42208934
83	0x3f3ef222	0.74588215
84	0x3f10c17a	0.5654522
85	0x3ebaf273	0.365131
86	0xbf21d844	-0.6322062
87	0xbe8bfba9	-0.2734044
88	0x3efbbb6a	0.49166423
89	0x3f1b1e26	0.6059288
90	0x3f6ac94d	0.9171341
91	0x4029c2ee	2.6525226
92	0x3fe49209	1.7857066
93	0x4063c601	3.5589602
94	0x407a1491	3.9075053
95	0x3fb039c5	1.376763
96	0x3f901b41	1.1258317
97	0xbdd431fb	-0.103610955
98	0x405fd814	3.4975634
99	0x4016b08a	2.354525
100	0xbf2b442e	-0.6690091
101	0xbfbb74d5	-1.4645029
102	0xbf87a737	-1.0597905
103	0xbff9dba5	-1.9520155
104	0xc0249d55	-2.5721028
105	0xbf6b2bb3	-0.91863555
106	0xbf98ba42	-1.1931841
107	0xbd215bba	-0.039394118
108	0xbfc7a345	-1.5596701
109	0xbf77d112	-0.9680339
110	0x3e822900	0.25421906
111	0x3f1948d4	0.5987675
112	0x3dad8b45	0.08473829
113	0x3f68a69d	0.9087923
114	0x3fd1e4ee	1.6397989
115	0xbd290d6a	-0.04127256
116	0x3f46953f	0.7757148
117	0xbe0107d7	-0.12600647
118	0x3f74d093	0.9563076
119	0x3f45558c	0.7708366
120	0x3e050470	0.12989974
121	0xbe2e164a	-0.1700069
122	0xbcc5d455	-0.0241491
123	0xbe431b21	-0.19053318
124	0x3e5c920a	0.21540084
125	0xbe4a149f	-0.19734429
126	0xbdd39d14	-0.10332695
127	0x3e2c3048	0.16815293
128	0x3a220756	0.0006180903
129	0x3c2a3e17	0.01039078
130	0x3eef49f9	0.46736124
131	0x3f278954	0.6544392
132	0x3ef0fa35	0.47065893
133	0x3f5f9dc8	0.8735013
134	0x3f4305d6	0.7618078
135	0xbecafa1c	-0.39643943
136	0x3dfc1a9b	0.12309762
137	0x3e76b64b	0.24092977
138	0x3f480235	0.7812837
139	0x3f271d92	0.65279496
140	0xbeb4dac7	-0.35323164
141	0xbf2d2b8c	-0.6764457
142	0xbe485ee3	-0.19567446
143	0xbf4e8409	-0.8067022
144	0xbf9f132e	-1.2427728
145	0xbf452d45	-0.770222
146	0x3f2cb283	0.6745989
147	0x3d6577ef	0.05602258
148	0xbf319728	-0.6937127
149	0xbf11690e	-0.56800926
150	0xbfcb6509	-1.5890208
151	0xc017b5b2	-2.3704648
152	0xbff20f81	-1.8910981
153	0xc03376d6	-2.8041282
154	0xc06409a7	-3.5630891
155	0xbfe6b2d4	-1.8023324
156	0xbfce0cd2	-1.6097662
157	0x3e7bccb3	0.24589805
158	0xc032ab5b	-2.7917087
159	0xbfc7c595	-1.5607172

fc1.bias f4 [16]
0	0x3e6d0284	0.23145491
1	0x3dcf89b0	0.10133684
2	0x3fc2b504	1.5211492
3	0xbe497a57	-0.19675575
4	0x3f7f45f2	0.99716103
5	0xbf5ba3a2	-0.8579656
6	0x3e62f0e0	0.22162199
7	0xbf7a0169	-0.976584
8	0x3ec184ad	0.37796536
9	0x406fd56b	3.747401
10	0xc0153310	-2.3312416
11	0x3f9c5bf1	1.2215558
12	0xbec7d05a	-0.39026147
13	0x3f0228d9	0.5084358
14	0xbf31cd29	-0.69453675
15	0xc047c8ff	-3.1216428

fc2.weight f4 [4, 16]
0	0xbe06a0e3	-0.13147311
1	0x3de7a751	0.1131121
2	0x3e47e2e7	0.1952015
3	0xbe333c9e	-0.17503592
4	0x3ea21d9a	0.3166321
5	0xbea6fff6	-0.32617158
6	0x3e5f030c	0.21778506
7	0xbe394ff3	-0.18096904
8	0x3ed486f1	0.41509202
9	0x3eb02bbe	0.34408373
10	0xbe93c4c2	-0.28861052
11	0x3e466a88	0.19376576
12	0xbc572da3	-0.013133439
13	0x3e419040	0.18902683
14	0xbeb265c1	-0.34843257
15	0xbed6a0a2	-0.41919428
16	0xbe9ea0fd	-0.309822
17	0x3e2fbcfb	0.17161934
18	0x3e5c0f74	0.2149027
19	0xbde264a9	-0.11054356
20	0x3e8562eb	0.2605203
21	0xbe8c2b22	-0.27376658
22	0x3e8b2af7	0.27181217
23	0xbe52db52	-0.20591477
24	0x3ed6cc1a	0.41952592
25	0x3e9e5bfc	0.30929554
26	0xbe9601f2	-0.2929836
27	0x3e71eab8	0.23624694
28	0x3d8da67a	0.069165185
29	0x3ef183d7	0.47170898
30	0xbe82ca0e	-0.2554478
31	0xbec52a53	-0.38508853
32	0xbdd80a30	-0.10548818
33	0x3d581106	0.05275061
34	0x3e48f3af	0.19624208
35	0xbe81b42a	-0.25332767
36	0x3eafbaca	0.34322196
37	0xbe9584e5	-0.29202953
38	0x3e45ef14	0.19329482
39	0xbe9cb49e	-0.3060655
40	0x3e2c85df	0.16847943
41	0x3ea5675d	0.32305422
42	0xbea6dac9	-0.32588795
43	0x3e8c6ea6	0.27428168
44	0xbd8cd40a	-0.06876381
45	0x3ebec7a8	0.372617
46	0xbe43fe82	-0.19140056
47	0xbed9536d	-0.4244646
48	0xbe622fdc	-0.2208857
49	0x3e4b94c7	0.19880973
50	0x3e5380c5	0.2065459
51	0xbe75b6cb	-0.23995511
52	0x3e51e616	0.20497927
53	0xbe669255	-0.22516759
54	0x3e56e8cb	0.20987241
55	0xbe34b0e0	-0.17645597
56	0x3e8ab5c0	0.2709179
57	0x3eaf8508	0.34281182
58	0xbe87ea96	-0.26546162
59	0x3e59cecf	0.21270297
60	0xbdc50c3f	-0.096214764
61	0x3eb6c70c	0.35698736
62	0xbeb9d591	-0.3629575
63	0xbeebe280	-0.46071243

fc2.bias f4 [4]
0	0x3e651774	0.22372228
1	0xbbbf111a	-0.005830896
2	0x3ee4b6bb	0.44670662
3	0x3e768b16	0.24076495
