brains/trained_q_network.pth (torch, 2976 bytes, 4 tensors)

fc1.weight f4 [16, 8]
000000 f1 14 0a bf a5 04 16 bf d3 5a c3 bd fa 5a 62 be
       -0.53938204 -0.58600837 -0.09538808 -0.22105017
000010 17 75 07 bf 20 31 57 3e a8 55 00 be d2 31 b0 3d
       -0.5291304 0.21014833 -0.12532675 0.086032525
000020 b2 ed 44 3c e9 7e bf bc 6a 34 28 be b1 de c0 3e
       0.012019562 -0.023375945 -0.16426244 0.376699
000030 32 8c ea 3e 36 c3 99 3e 30 50 9b 3c 59 44 9a 3e
       0.45810086 0.30031747 0.018959135 0.3013027
000040 cc 26 f6 be f9 6f 1a bf 36 cf 90 bf 48 97 92 bf
       -0.48076475 -0.60327107 -1.1313236 -1.1452417
000050 16 52 da bf 3d 75 86 bf eb a0 c3 bf 5c af 9c bf
       -1.7056301 -1.0504528 -1.5283483 -1.2241015
000060 13 b6 1d 3f d2 a6 5f 3f 73 6d 0e 3f 88 c1 c5 3f
       0.6160595 0.8736392 0.55635756 1.5449686
000070 e0 6b da 3f 69 92 c3 3f 24 5b 19 40 23 8b 18 3f
       1.7064171 1.5279056 2.3961878 0.59587306
000080 d9 38 16 bf 9b a7 ce be f1 33 4b bf 3e a7 98 be
       -0.5868049 -0.40362248 -0.7937613 -0.29815096
000090 92 54 30 be f6 2d 82 be c3 47 93 bf e5 94 9a bf
       -0.17219761 -0.2542569 -1.1506275 -1.2076689
0000a0 be ed 49 bf 94 9f 70 bf c3 78 93 bf 09 3d 64 bf
       -0.7887839 -0.93993497 -1.1521229 -0.8915563
0000b0 a1 3a b8 bf c5 7e 34 bf 66 5c cf bf 5f da d7 bf
       -1.4392892 -0.70505935 -1.6200073 -1.6863517
0000c0 2b 06 f4 3e 23 f4 0a 3f 57 1d 2e 3f 30 4a b7 3e
       0.47660956 0.54278773 0.6801352 0.35798788
0000d0 35 b9 96 3e 10 fa 4b 3e 1b 12 96 3f ce 48 a2 3f
       0.29438177 0.1991961 1.1724275 1.2678468
0000e0 b9 f1 bb 3e cc e3 ce 3e 4d aa dd 3d 41 61 13 3f
       0.36707857 0.4040817 0.10823498 0.5757027
0000f0 74 81 20 3f 06 66 ba 3e d3 c3 29 3f 50 0c 21 3e
       0.6269753 0.36405963 0.6631443 0.15727353
000100 bc 13 d8 bc 5f cd d4 3e 7c f4 75 3f 70 be a8 bd
       -0.026376598 0.41562936 0.9607618 -0.08239448
000110 e9 1d 78 3e d7 d2 22 be a5 29 75 3f 70 9f fa 3e
       0.2423016 -0.15900742 0.9576667 0.48949766
000120 49 24 aa 3d 42 1e 76 3f 7a 37 02 3f e6 45 a2 3e
       0.08307702 0.9613992 0.508659 0.31693953
000130 e6 d2 a7 3f 58 8b 22 3d 1e 32 38 3f b3 19 96 3f
       1.3111236 0.03968367 0.7195147 1.1726593
000140 c2 90 d6 bd 0d 66 7a be 4a 19 a4 3e 99 dc c2 be
       -0.10476829 -0.24452992 0.32050544 -0.38058928
000150 f6 8a 88 3e a8 52 ff 3c 66 ac 12 bf a9 1d 11 bf
       0.2666852 0.031167343 -0.5729431 -0.5668588
000160 11 4f be 3e b9 f5 8f 3e be 04 09 3f af 2c 1c bc
       0.37169698 0.2811716 0.5352286 -0.009532138
000170 e5 94 27 3f 63 ee 13 3f e9 5f 67 3f 67 e3 79 3f
       0.6546157 0.57785624 0.9038072 0.97612613
000180 66 98 eb bc 8f 07 47 3f c4 a5 7d 3e 7c 0b 10 be
       -0.028759193 0.7774591 0.24770266 -0.14066881
000190 ea eb 72 bd c8 7a 9f be 43 cd 50 3f 44 c9 08 3e
       -0.059307016 -0.31148362 0.81563205 0.13358027
0001a0 68 59 5b bf 01 bf d4 be d7 61 33 3e b2 85 44 bf
       -0.856833 -0.41551974 0.17517792 -0.767665
0001b0 58 7d 32 bf cf 4a 39 bf 65 7f aa bf 14 0d 7f bf
       -0.6972251 -0.72379774 -1.3320128 -0.9962933
0001c0 31 a0 f1 bd a8 d3 07 bf 6f f6 bb bd b1 25 b2 be
       -0.11798132 -0.53057337 -0.09177863 -0.3479438
0001d0 33 4c c6 3d c0 21 80 3e f6 4c a3 be ae 79 21 3e
       0.096825026 0.2502575 -0.31894654 0.15769073
0001e0 30 b4 3b 3f c7 3b ab 3f f5 cb 1a 3f b4 c2 d1 3f
       0.7332182 1.3377618 0.60467464 1.6387544
0001f0 5b c5 11 40 c3 a9 c8 3f 08 e3 21 40 bd 1a 6e 3f
       2.2776706 1.5676807 2.529482 0.9300955

fc1.bias f4 [16]
000000 cf 4a 8a bf 88 e7 73 bf aa ea e0 bf 31 8f 0a 40
       -1.080408 -0.95275164 -1.7571614 2.1649897
000010 8d 80 b0 bf e8 b7 5f c0 1c 43 7a 3f dc a6 86 3f
       -1.378923 -3.4955997 0.9775865 1.0519671
000020 46 c3 c2 3f 99 c7 51 3f 28 96 51 be 1e 1c 97 3f
       1.5215843 0.81945187 -0.20467436 1.1805456
000030 37 f8 cd 3f 0e 43 b2 bf 6f 1a 80 bf c9 80 22 40
       1.6091374 -1.3926713 -1.0008067 2.5391104

fc2.weight f4 [4, 16]
000000 a2 90 a1 bd 77 21 b6 3e 52 a8 09 bf 89 26 bf 3e
       -0.07888915 0.35572407 -0.5377246 0.37334087
000010 24 1e a3 be 47 f4 fd be c3 a6 fb 3e 84 40 76 3e
       -0.31858933 -0.4960043 0.49150667 0.24048048
000020 2c 19 89 3e e5 48 93 3e eb 81 80 3c 09 d0 cc 3e
       0.26777017 0.28766552 0.01568695 0.40002468
000030 c0 3a 86 be 6c e5 a0 be 4c 18 ed 3e d6 de e6 3e
       -0.26216698 -0.31425035 0.463076 0.45091885
000040 bb 40 80 3d e4 42 09 3f 31 c2 a8 be 9e 16 ca 3e
       0.06262346 0.5361769 -0.32960656 0.3947038
000050 39 50 23 bf 77 fe 09 bf e2 13 32 3f 6e c7 b6 3e
       -0.63794285 -0.5390391 0.6956159 0.35699028
000060 58 0d 55 3e 8a 63 97 3e 4a b9 39 bf a5 8c d6 3e
       0.20805871 0.2956813 -0.72548354 0.41904178
000070 d4 d6 9b be e0 4e 01 bf ac 8f ac bd d7 58 e2 3e
       -0.30437338 -0.5051098 -0.08425841 0.44208404
000080 b1 a6 28 bf ce 86 19 3e 32 26 ee be 4e c7 b5 3e
       -0.6587935 0.1499283 -0.46513516 0.3550362
000090 15 4e a6 be 21 b0 15 bf 7c 88 cd 3e ad d4 dd 3e
       -0.32481447 -0.58471876 0.40143192 0.4332632
0000a0 e3 e5 7b 3e ed 34 aa 3e 5b 3f 5c be 8f 6c b5 3e
       0.24599414 0.33243504 -0.21508543 0.35434386
0000b0 5e 1b 24 3b 6a 5d 9d be 8f be c8 be 00 ad f9 3e
       0.0025040726 -0.30735332 -0.39207885 0.487648
0000c0 df 70 81 be dc 51 d6 3e b3 77 ed be 71 71 f2 3e
       -0.25281426 0.4185933 -0.46380386 0.47352174
0000d0 26 59 46 be 87 22 b7 be 32 f8 27 3e 37 75 e7 3e
       -0.19369945 -0.3576853 0.16403273 0.45206615
0000e0 5c 04 f7 3d 67 16 71 3e 42 0a f4 3b dc 1e 5d 3e
       0.12061378 0.23543702 0.007447512 0.21593803
0000f0 d4 a0 ce be 2b 56 c6 be 8f 55 f8 bd 01 45 15 3f
       -0.40357077 -0.38737616 -0.12125694 0.58308417

fc2.bias f4 [4]
000000 60 db 3d 3d 8c b9 8c 3f 96 4c 16 40 42 9d 58 be
       0.04635179 1.0994124 2.3484244 -0.21153739
