brains/trained_q_network.pth (torch, 1812 bytes, 2 tensors)

fc.weight f4 [4, 12]
0	0x3e30e23b	0.172738
1	0x3e920fc8	0.28527665
2	0x3dbf898a	0.09352405
3	0xbf02ccc9	-0.5109373
4	0x3ca01bb0	0.019544452
5	0x3e93e91a	0.2888878
6	0x3f3b80e7	0.73243564
7	0x3ea1cbd2	0.31600815
8	0xbd938de6	-0.07204799
9	0x3e41f952	0.18942764
10	0x3e6cb886	0.23117265
11	0x3e0fc221	0.14038898
12	0x3e0323ba	0.12806597
13	0x3e862157	0.2619731
14	0x3dbc8f5a	0.0920703
15	0x3ec04ccc	0.3755859
16	0x3d92199c	0.07133791
17	0x3f2b7316	0.6697248
18	0x3f3d49e8	0.73940897
19	0x3ea20d7a	0.31650907
20	0xbdad14a8	-0.084512055
21	0xbe90918c	-0.28236043
22	0x3e0c398e	0.1369383
23	0xbe924baf	-0.28573367
24	0x3e1659e3	0.14682727
25	0x3ea21dc6	0.3166334
26	0x3e20b221	0.15692951
27	0x3eeb7ca0	0.4599352
28	0x3c5b1514	0.013371725
29	0x3dec2a59	0.11531515
30	0x3f3b3720	0.7313099
31	0x3ea20286	0.3164255
32	0x3e19fdb6	0.1503819
33	0x3dd62b38	0.10457462
34	0x3e6e22c6	0.23255453
35	0xbdbc3422	-0.09189631
36	0x3e721e2e	0.23644325
37	0x3ea90735	0.3301331
38	0x3e385d97	0.18004452
39	0x3d67113b	0.056412917
40	0xbe3a90bf	-0.18219279
41	0xbd023a66	-0.031793974
42	0x3f38f66b	0.72251004
43	0x3f165e35	0.587375
44	0x3e88900f	0.26672408
45	0xbe190bf9	-0.14945973
46	0xbdf92300	-0.12164879
47	0x3dfd00de	0.12353681

fc.bias f4 [4]
0	0x3f88b52f	1.0680293
1	0x3f88c2ca	1.0684445
2	0x3f881ade	1.0633199
3	0x3f48c60b	0.7842719
