brains/trained_q_network.pth (torch, 3040 bytes, 4 tensors)

fc1.weight f4 [16, 9]
0	0x3d50f1ac	0.051011726
1	0x3ea0f0ee	0.31433815
2	0x3e9b3e4a	0.3032096
3	0x3e838204	0.25685132
4	0xbeaa3b25	-0.3324825
5	0x3daa4498	0.083138645
6	0xbd15d544	-0.03658034
7	0x3e0aae6c	0.13543099
8	0x3e2b1c03	0.16709904
9	0xbe8c3eae	-0.2739157
10	0xbe836eaa	-0.25670367
11	0x3e121307	0.14265071
12	0xbea55eee	-0.32298988
13	0xbd790c0f	-0.060802516
14	0x3d6cd4d1	0.057820145
15	0x3e89deec	0.26927888
16	0x3d0502e4	0.03247346
17	0x3df313f3	0.118690394
18	0xbe94877c	-0.29009616
19	0xbdd32b6e	-0.10311018
20	0x3e92ca64	0.28670037
21	0x3cb46ebe	0.022025462
22	0x3de423e5	0.11139659
23	0x3e4e3bf8	0.20140064
24	0x3c92541b	0.01786237
25	0x3e327fd8	0.17431581
26	0x3e2a1488	0.16609395
27	0xbd06c868	-0.032905966
28	0xbe81bdb6	-0.2534005
29	0x3e867996	0.26264638
30	0xbdd59f16	-0.10430734
31	0xbea8b398	-0.3294952
32	0xbed5c5e7	-0.4175255
33	0xbdec2601	-0.11530686
34	0xbe007d01	-0.12547685
35	0xbe1d5bba	-0.15367022
36	0x3dea483a	0.114395574
37	0x3ea6194c	0.32441175
38	0x3e1f5651	0.15560271
39	0x3de53b4b	0.1119295
40	0xbc195c37	-0.009360365
41	0xbebd1e15	-0.36937013
42	0xbe8438c8	-0.2582457
43	0x3c49dcff	0.012320756
44	0x3f0abe73	0.5419685
45	0xbe262265	-0.16224058
46	0xbe1cd864	-0.15316921
47	0x3e9d9a6f	0.30781886
48	0x3e1a5576	0.15071663
49	0xbdfa3b1c	-0.122183055
50	0xbf26b798	-0.6512389
51	0xbf1e711b	-0.61891335
52	0xbc57f7bb	-0.013181622
53	0x3fc300ba	1.5234597
54	0xbe6f4042	-0.23364356
55	0xbdc4e918	-0.096147716
56	0xbda3e56d	-0.08002744
57	0xbd39703d	-0.045273054
58	0x3e61645e	0.22010943
59	0xbf44722e	-0.76736724
60	0xbf1b4df3	-0.60665816
61	0xbe421a09	-0.18955244
62	0x3ff000f5	1.8750292
63	0x3e94ecca	0.29086906
64	0x3ede8ab2	0.4346519
65	0x3ebbb138	0.36658645
66	0x3e65a23e	0.22425172
67	0xbd2efad7	-0.04271969
68	0x3f65c61a	0.89755404
69	0x3f3752c2	0.71610653
70	0x3e1cd308	0.15314877
71	0xbf959424	-1.1685834
72	0x3c422eec	0.011852007
73	0xbebe2a04	-0.3714143
74	0x3e9eaf49	0.30993107
75	0xbe6c42ff	-0.23072432
76	0x3e3c6452	0.18397644
77	0xbf70e6de	-0.94102275
78	0xbeef5f6c	-0.4675249
79	0xbd9c0ec5	-0.076200046
80	0x3fb37a23	1.4021648
81	0xbca19051	-0.019722136
82	0xbe842d7c	-0.25815952
83	0xbdb23fa3	-0.08703544
84	0x3e1bde12	0.15221432
85	0x3cdd326a	0.027001578
86	0xbecb5f80	-0.39721298
87	0xbf0c6a91	-0.5485011
88	0xbd79a050	-0.0609439
89	0x3f8eb174	1.1147904
90	0x3c24b921	0.010053904
91	0x3e2c734a	0.16840854
92	0x3e8ab6ff	0.2709274
93	0x3db6cf97	0.08926313
94	0xbe6eef4f	-0.23333476
95	0x3e9230cd	0.28552857
96	0x3e2330f9	0.1593665
97	0x3ec476cf	0.38371894
98	0xbf043bf9	-0.5165401
99	0xbead401b	-0.3383797
100	0x3d3d03a2	0.046146043
101	0xbe3c99f3	-0.18418102
102	0x3e3a9a9c	0.18223041
103	0x3df9a2bf	0.121892445
104	0xbec1ba28	-0.37837338
105	0xbe3204f3	-0.173847
106	0x3e5e8e2d	0.21733923
107	0x3dd36bc3	0.10323288
108	0xbe46dae7	-0.19419442
109	0xbee9dc2b	-0.45675787
110	0xbe078463	-0.13234095
111	0x3eb43b22	0.35201365
112	0x3e1616b7	0.14657103
113	0xbf71d8b0	-0.94471264
114	0xbf34cd15	-0.7062543
115	0xbe0ca34a	-0.13734165
116	0x3fc1a9e7	1.5129975
117	0x3bbb1792	0.005709597
118	0xbc7a8dfe	-0.015292643
119	0xbe127349	-0.1430179
120	0x3e8bd9e5	0.27314678
121	0xbdd8e01d	-0.10589621
122	0xbee14c77	-0.4400365
123	0xbf0d8629	-0.5528284
124	0xbd0869b5	-0.033303935
125	0x3f1b22ce	0.6059998
126	0x3e23f486	0.16011247
127	0x3d8683e8	0.06568128
128	0x3ea675e8	0.3251183
129	0x3d86f3b8	0.065894544
130	0x3e8e79c3	0.27827272
131	0x3eebce90	0.46056032
132	0x3e0befb4	0.13665658
133	0xbd8dc5cf	-0.069224946
134	0xbedf430b	-0.43605837
135	0xbeaaa15c	-0.33326232
136	0xbe1eab78	-0.15495098
137	0xbde701a8	-0.11279613
138	0xbe835f41	-0.2565861
139	0x3e62c3e8	0.22145045
140	0x3ee874e7	0.4540169
141	0x3ea09599	0.31364134
142	0x3ee96c9f	0.45590684
143	0xbf631f26	-0.88719404

fc1.bias f4 [16]
0	0xbe76e49e	-0.24110648
1	0x3e3f5f8e	0.18688795
2	0x3ebe9b1d	0.37227717
3	0x3e9bc609	0.30424526
4	0x3e5f2e17	0.21794926
5	0xbe34b744	-0.17648035
6	0xbd45822b	-0.04821984
7	0xbe8b91d1	-0.27259687
8	0x3ea44f10	0.3209157
9	0xbe81cfb6	-0.25353783
10	0xbeedcaff	-0.46443936
11	0x3d8587f5	0.06520072
12	0x3ec0a69b	0.3762711
13	0x3e84d68d	0.2594494
14	0x3e6ee975	0.23331244
15	0x3deef70f	0.116682164

fc2.weight f4 [4, 16]
0	0x3e07b0a0	0.13250971
1	0x3e6e9547	0.23299132
2	0x3ea32162	0.31861407
3	0xbe18ef63	-0.14935069
4	0x3e065f92	0.13122395
5	0x3ef62ade	0.4807958
6	0x3ed28383	0.4111596
7	0xbe0374ab	-0.12837474
8	0x3e941aa0	0.28926563
9	0x3e23e7f5	0.16006453
10	0xbe1046bb	-0.14089482
11	0xbd27fdff	-0.041013714
12	0x3e899fda	0.2687977
13	0x3e0a22d7	0.13489853
14	0xbcf88c05	-0.030340204
15	0xbc503161	-0.012707085
16	0x3c87d015	0.016578713
17	0xbe353f4d	-0.17699929
18	0xbded5c6a	-0.11589892
19	0x3e78b72f	0.24288629
20	0x3dfc012c	0.12304911
21	0x3eb8fd58	0.36130786
22	0x3ee0dbd1	0.43917707
23	0xbda6d315	-0.081457295
24	0x3ec284a7	0.3799183
25	0x3e6af0b5	0.22943385
26	0xbddf2430	-0.10895574
27	0x3df70c2e	0.1206287
28	0x3e812efb	0.25231156
29	0x3f09473a	0.5362431
30	0xbe82962d	-0.255052
31	0xbe8372ab	-0.25673422
32	0xbe8c85e7	-0.2744591
33	0xbe2d9cbb	-0.16954319
34	0xbdc1f307	-0.09470182
35	0x3e67ffc8	0.22656167
36	0xbe60f8d1	-0.21969916
37	0x3dc8871b	0.09791394
38	0x3e4391da	0.19098607
39	0xbe83a5ca	-0.25712425
40	0x3d96cbf7	0.07363122
41	0x3bae4d08	0.0053192414
42	0xbd1fa7a2	-0.038978226
43	0x3e1e7f55	0.15478261
44	0x3e66ee2d	0.22551794
45	0x3ee824d6	0.45340604
46	0x3e498794	0.19680625
47	0x3dcafb01	0.099111564
48	0xbdc1a6f5	-0.09455673
49	0x3e1caa4a	0.15299335
50	0x3c9a7b00	0.01885748
51	0x3e20664d	0.15664025
52	0xbe52b6d6	-0.20577559
53	0x3eb9fea4	0.36327088
54	0x3e105293	0.14094
55	0xbe85f67b	-0.26164612
56	0x3da79f92	0.081847325
57	0x3eb44943	0.35212144
58	0x3df902b9	0.121587224
59	0x3db8c268	0.09021455
60	0xbd24d3b5	-0.040240962
61	0x3dcf3805	0.10118107
62	0xbe4b785d	-0.19870134
63	0xbcb5f1a0	-0.022209942

fc2.bias f4 [4]
0	0x3de43930	0.1114372
1	0x3e229833	0.15878372
2	0xbd89fc65	-0.067375936
3	0xbe661a3d	-0.22470947
