brains/trained_q_network.pth (torch, 2976 bytes, 4 tensors)

fc1.weight f4 [16, 8]
0	0x3e51c494	0.20485145
1	0xbe72be01	-0.23705293
2	0xbe54b6cb	-0.20772855
3	0x3f0f5c69	0.5600038
4	0x3ea806df	0.32817742
5	0xbea08318	-0.31350017
6	0xbe212879	-0.15738095
7	0xbe4d988e	-0.20077726
8	0x3d991067	0.074738316
9	0x3eddc020	0.43310642
10	0x3ebae053	0.3649927
11	0x3e2b24aa	0.16713205
12	0x3e4247a6	0.18972644
13	0xbf1cabe5	-0.6119979
14	0x3d48eae9	0.049052153
15	0xbcaabbb6	-0.02084146
16	0x3e83c984	0.25739682
17	0xbd1b49bf	-0.037912127
18	0xbe66ec14	-0.22550994
19	0xbe902112	-0.2815023
20	0x3e1b758b	0.15181558
21	0x3ef724e1	0.48270324
22	0xbe64d22c	-0.22345799
23	0x3dd4fa9a	0.10399361
24	0xbdd6d4af	-0.10489785
25	0x3e6e0f29	0.2324797
26	0xbf040cdc	-0.5158212
27	0xbefc8d3a	-0.49326497
28	0x3db119ff	0.086475365
29	0x3e0d469d	0.13796468
30	0xbce61b00	-0.028089046
31	0xbeb274de	-0.34854788
32	0x3d1a5b35	0.037684638
33	0xbcb233ee	-0.021753278
34	0x3e772710	0.24135995
35	0x3f175d3d	0.59126645
36	0x3da33549	0.07969148
37	0x3d701cae	0.0586211
38	0x3f10ab90	0.56511784
39	0x3e96c747	0.29448912
40	0x3d851be9	0.06499464
41	0xbdb0887b	-0.086197816
42	0xbe5141c1	-0.2043524
43	0x3e7238f9	0.23654546
44	0x3e92890b	0.2862018
45	0x3e18c82b	0.14920108
46	0x3d8b8ed8	0.06814355
47	0x3dcb7ccb	0.09935912
48	0x3cf6516c	0.030068122
49	0x3e04a70e	0.12954351
50	0x3e928dc9	0.28623798
51	0xbe37c60d	-0.17946644
52	0xbde2f979	-0.110827394
53	0xbeef9bae	-0.46798462
54	0x3d62b82a	0.055351414
55	0x3e88eb1e	0.2674188
56	0xbd884b80	-0.066550255
57	0xbea8dbd6	-0.32980222
58	0xbdc9bebb	-0.09850832
59	0x3df3a321	0.11896349
60	0x3d80be44	0.0628629
61	0x3f546cde	0.8297862
62	0xbea9f8a1	-0.331975
63	0xbd752b17	-0.059855547
64	0xbc486ce0	-0.012232989
65	0x3bdc49aa	0.0067226486
66	0xbe9fcbb1	-0.31210092
67	0xbea5a121	-0.32349494
68	0x3e534013	0.20629911
69	0x3f109231	0.5647307
70	0xbdca1427	-0.09867125
71	0x3d19313a	0.03740046
72	0xbe0f417b	-0.13989823
73	0xbd91efe2	-0.07125832
74	0xbe0a946e	-0.13533184
75	0x3dd6d0e0	0.104890585
76	0xbdb5abe1	-0.08870674
77	0x3efe28d3	0.4964052
78	0xbec203a1	-0.37893394
79	0xbd92123a	-0.07132383
80	0x3f1cb974	0.6122048
81	0xbdc834ba	-0.09775682
82	0x3f0b7a0f	0.5448312
83	0x3d2e49d5	0.04255088
84	0x3e56deeb	0.20983474
85	0xbe388d99	-0.18022765
86	0x3e08b4d8	0.13350236
87	0x3f1aa672	0.60410225
88	0x3e0e114b	0.13873784
89	0x3e4319be	0.19052789
90	0xbec046de	-0.37554067
91	0xbf1b189d	-0.6058443
92	0x3de82368	0.11334878
93	0xbd3c54d1	-0.045979325
94	0x3d29743f	0.041370627
95	0xbda5c0c5	-0.080934085
96	0xbdc88f5b	-0.09792968
97	0xbdd0bf1f	-0.101927035
98	0xbecb718f	-0.39735076
99	0x3d7a535c	0.061114654
100	0xbe8eb1e1	-0.27870086
101	0x3e200c93	0.15629797
102	0x3dfec755	0.12440363
103	0x3da0a436	0.07843821
104	0x3ef7ec58	0.48422503
105	0xbe2f3268	-0.17109072
106	0x3eccdef0	0.40013838
107	0xbe9dcec0	-0.308218
108	0x3e0b6778	0.13613689
109	0xbeb6c46d	-0.35696736
110	0x3dfa2a80	0.122151375
111	0x3e17c65b	0.1482176
112	0x3e2eeb57	0.17081963
113	0x3e0875df	0.13326214
114	0xbd9fa79d	-0.077956416
115	0x3eb62fbf	0.35583302
116	0xbd44e68d	-0.048071433
117	0xbd67669e	-0.056494348
118	0x3ea485f6	0.32133454
119	0x3e961dd4	0.29319632
120	0xbe1f49bc	-0.15555471
121	0x3e96a423	0.294221
122	0xbdafe365	-0.08588294
123	0x3cc96173	0.0245826
124	0xbea11b2b	-0.3146604
125	0x3dc69e27	0.09698134
126	0xbe6d4045	-0.23169048
127	0xbe2919e1	-0.16513778

fc1.bias f4 [16]
0	0xbe6107fa	-0.21975699
1	0x3e9c38d1	0.30512097
2	0xbcd5fc0e	-0.026121166
3	0xbd54b3e4	-0.05192937
4	0x3f0f2b88	0.559258
5	0xbe5a076e	-0.21291897
6	0x3f010dc7	0.5041165
7	0x3e742299	0.23841323
8	0x3e3234e9	0.17402996
9	0xbe5ef383	-0.2177258
10	0x3d85acc0	0.0652709
11	0x3edd8b91	0.43270543
12	0x3e41630a	0.18885437
13	0x3e9500ed	0.2910227
14	0xbf0083ab	-0.5020091
15	0xbc244c5d	-0.010027972

fc2.weight f4 [4, 16]
0	0x3cfc2462	0.030779067
1	0x3b554c97	0.0032546872
2	0x3eb20378	0.3476827
3	0x3e22a8e0	0.15884733
4	0x3e0d2020	0.13781786
5	0x3d682c3d	0.056682814
6	0xbe46ecdf	-0.19426297
7	0x3e82bf11	0.25536397
8	0x3eec5867	0.46161196
9	0xbb9a36a5	-0.004706221
10	0x3e849f09	0.25902584
11	0x3e5e7e22	0.21727803
12	0xbe18f764	-0.14938122
13	0x3d9a241b	0.07526418
14	0xbe16b5d7	-0.14717804
15	0xbe268f22	-0.16265538
16	0x3df679a4	0.1203492
17	0xbc911695	-0.017710963
18	0x3e8a5d06	0.27024096
19	0xba745bb0	-0.0009321524
20	0x3e2c6453	0.16835146
21	0x3e966e3e	0.29380983
22	0xbe7e3ce9	-0.24827923
23	0x3e5dec92	0.21672276
24	0x3dccdc1b	0.10002919
25	0x3ec4e74a	0.3845771
26	0x3e68e10e	0.22742102
27	0xbe848534	-0.25882876
28	0x3d8a3c93	0.06749835
29	0xbe14f9d0	-0.14548421
30	0x3e589f68	0.21154559
31	0xbda455f7	-0.08024209
32	0x3e9aad91	0.30210546
33	0x3ee68bf4	0.4502865
34	0x3c3bf3f6	0.011471739
35	0xbe34d40d	-0.17659016
36	0x3e79c381	0.24390985
37	0x3e85f272	0.26161534
38	0xbca83e85	-0.020537624
39	0x3d20bf8f	0.039245185
40	0xbc7e1356	-0.01550754
41	0xbea5e79a	-0.3240326
42	0x3e9f91fb	0.31166062
43	0xbe042806	-0.12905893
44	0xbdfd252e	-0.12360607
45	0x3e44831e	0.19190642
46	0x3e3b8701	0.18313219
47	0xbe2ba05f	-0.16760395
48	0x3e1d75d7	0.15376984
49	0xbdd1a812	-0.10237135
50	0xbc28c512	-0.0103008915
51	0xbdd26d9e	-0.10274814
52	0x3e1764bd	0.14784522
53	0x3dcff495	0.10154072
54	0xbe2fde6b	-0.1717469
55	0x3e8c77cd	0.2743515
56	0x3e20399f	0.1564698
57	0x3ea6b87b	0.32562622
58	0xbe2bfd8b	-0.16795938
59	0xbdecce76	-0.11562817
60	0x3d650f9a	0.055923082
61	0xbecc686d	-0.3992342
62	0x3ceac3ca	0.028657813
63	0x3de4248d	0.11139784

fc2.bias f4 [4]
0	0x3ec75e27	0.3893902
1	0x3d8c0d26	0.06838445
2	0x3ee726c3	0.4514676
3	0x3c6d4f24	0.014484201
