brains/trained_q_network.pth (torch, 2976 bytes, 4 tensors)

fc1.weight f4 [16, 8]
-4.515813 -2.3800905 8.674424 0.45653805 -0.30992904 -0.5566437 -3.7466633 0.103003845
-0.6202755 -1.716908 -3.4787793 -0.052019756 0.20256759 0.287182 6.4448676 -1.0658835
4.0976896 1.9079733 -9.603511 -0.39233997 0.21859568 0.48638257 4.653547 0.8193071
-7.0283756 -5.603693 1.2582601 0.47850034 0.1444239 -0.06649562 5.4742117 1.7616501
-4.8983326 -2.355289 8.251582 0.2919595 -0.14603196 -0.38682064 -3.5870686 0.29958963
-0.772104 0.5231256 9.799215 -0.030682836 -0.8331182 -0.32548848 -6.208275 -0.9783468
5.44392 2.50138 -7.263148 -0.40418297 -0.17726828 0.528633 3.6277485 -0.5225303
4.4505486 1.6699325 -8.780631 -0.39821336 0.22273062 0.49815345 4.350269 0.41846347
3.5805671 2.2578294 -4.652524 -0.21798365 -0.6803687 0.34759307 3.2278812 0.16081005
-0.77358204 -1.5739758 -4.6474175 -0.050525766 0.25098336 0.28704333 6.134223 -0.61768985
-3.6772282 -1.4432877 9.614496 0.24082823 -1.0084888 -0.34525412 -5.1231265 -0.0813404
-4.3814373 -2.3966362 5.7748775 0.31871518 0.5161843 -0.38946104 -2.0667696 -0.22589257
-4.191006 -2.5063322 7.9270854 0.29164788 -0.23481417 -0.37452775 -4.055546 0.33372143
-5.675846 -3.588159 3.331585 0.35555893 0.08222139 -0.21403496 0.09529237 1.3409201
-7.0399027 -5.68914 -1.404754 0.94114554 1.1286417 0.11833454 3.7630427 1.8938937
-4.585512 -3.1945128 8.208388 0.4106444 -0.16472058 -0.49260694 -2.1560237 -0.27231032
00000000: 8a81 90c0 6753 18c0 71ca 0a41 5bbf e93e
00000010: 05af 9ebe 3480 0ebf 55c9 6fc0 aef3 d23d
00000020: 60ca 1ebf a4c3 dbbf 52a4 5ec0 ab12 55bd
00000030: e16d 4f3e 8509 933e 5b3c ce40 df6e 88bf
00000040: 4620 8340 7838 f43f fba7 19c1 c9e0 c8be
00000050: 8cd7 5f3e 2307 f93e dbe9 9440 1cbe 513f
00000060: 74e8 e0c0 7451 b3c0 ab0e a13f fffd f43e
00000070: dce3 133e db2e 88bd be2c af40 c07d e13f
00000080: 24bf 9cc0 0ebd 16c0 7b06 0441 b77b 953e
00000090: 6789 15be 5b0d c6be 8892 65c0 d063 993e
000000a0: 9ca8 45bf 8feb 053f 96c9 1c41 925a fbbc
000000b0: 3c47 55bf 6da6 a6be 30aa c6c0 f074 7abf
000000c0: 9834 ae40 9c16 2040 b56b e8c0 12f1 cebe
000000d0: d185 35be 7e54 073f 082d 6840 8cc4 05bf
000000e0: e56a 8e40 59c0 d53f 777d 0cc1 9fe2 cbbe
000000f0: 7f13 643e f80d ff3e 6735 8b40 d840 d63e
00000100: 0328 6540 4780 1040 7ae1 94c0 1b37 5fbe
00000110: a52c 2ebf b8f7 b13e 9b95 4e40 64ab 243e
00000120: 7909 46bf 0a78 c9bf a5b7 94c0 1bf4 4ebd
00000130: e480 803e 58f7 923e 8e4b c440 ec20 1ebf
00000140: b557 6bc0 a7bd b8bf fad4 1941 ad9b 763e
00000150: 2916 81bf 26c5 b0be a7f0 a3c0 cc95 a6bd
00000160: bc34 8cc0 7d62 19c0 cccb b840 a32e a33e
00000170: a724 043f 7067 c7be f445 04c0 6250 67be
00000180: b91c 86c0 bf67 20c0 afaa fd40 df52 953e
00000190: 2073 70be 1ac2 bfbe 08c7 81c0 89dd aa3e
000001a0: 88a0 b5c0 66a4 65c0 b038 5540 d20b b63e
000001b0: b063 a83d fb2b 5bbe a528 c33d 45a3 ab3f
000001c0: e246 e1c0 6f0d b6c0 fbce b3bf eaee 703f
000001d0: 5577 903f 6159 f23d b1d5 7040 1c6b f23f
000001e0: 84bc 92c0 e672 4cc0 8f55 0341 fc3f d23e
000001f0: 83ac 28be fa36 fcbe 4bfc 09c0 426c 8bbe

fc1.bias f4 [16]
0.043837633 5.245787 1.1568867 9.171045 -0.06255239 -4.0536857 0.13675256 0.80182886
-0.032783195 4.377285 -2.3314867 1.6826893 -0.68417674 2.8674405 7.5409856 1.820879
00000000: 178f 333d 7ddd a740 dd14 943f 9abc 1241
00000010: 781b 80bd cbb7 81c0 dd08 0c3e a844 4d3f
00000020: ac47 06bd b812 8c40 1437 15c0 5d62 d73f
00000030: 3526 2fbf 2584 3740 c14f f140 9012 e93f

fc2.weight f4 [4, 16]
-2.496717 0.8832364 2.1569064 0.48995563 -1.2928998 -0.8374773 6.4863453 4.276931
-0.078898765 0.8214343 -1.6207598 -1.1907948 -1.6257849 0.40991926 0.60897964 -0.2841034
0.9658673 0.7726263 0.18988626 0.54510415 0.22520547 -0.624014 -0.38225973 -0.092623636
0.013220121 0.6661423 -0.38827795 0.736819 0.22792721 0.5006993 0.81099445 0.47181723
2.316865 0.28722024 -1.2174743 0.43320653 0.63319594 -0.41902837 -8.274424 -3.4453466
-0.5405679 0.3416258 0.35445058 2.4379349 0.89355046 0.42397985 0.84303135 0.31711686
0.2735681 0.8692602 -0.45844898 0.43292165 -0.09895602 -0.53095657 0.09431146 -0.39976698
-0.47184777 0.70031863 -0.62303436 1.4044805 -0.2570412 0.37965897 0.71976334 0.24634096
00000000: 36ca 1fc0 c81b 623f c10a 0a40 77db fa3e
00000010: be7d a5bf ea64 56bf 2490 cf40 9edc 8840
00000020: ad95 a1bd 8549 523f 0f75 cfbf f76b 98bf
00000030: b819 d0bf f0e0 d13e 17e6 1b3f 0076 91be
00000040: 1443 773f d6ca 453f 8b71 423e f28b 0b3f
00000050: 439c 663e 62bf 1fbf 8cb7 c3be 76b1 bdbd
00000060: 3599 583c 4d88 2a3f 5ecc c6be 2ca0 3c3f
00000070: c065 693e d42d 003f 559d 4f3f 0792 f13e
00000080: 8447 1440 880e 933e 33d6 9bbf 3fcd dd3e
00000090: 2119 223f e38a d6be 0a64 04c1 8f80 5cc0
000000a0: a862 0abf 94e9 ae3e 8c7a b53e 2007 1c40
000000b0: b9bf 643f e313 d93e e7d0 573f 245d a23e
000000c0: 1e11 8c3e d687 5e3f d3b9 eabe e8a7 dd3e
000000d0: 74a9 cabd c5ec 07bf 5e26 c13d 42ae ccbe
000000e0: 0896 f1be 1548 333f 2e7f 1fbf 04c6 b33f
000000f0: e79a 83be a962 c23e 6942 383f ce40 7c3e

fc2.bias f4 [4]
-0.00897459 5.0337276 -0.7556079 4.997606
00000000: 290a 13bc 4c14 a140 856f 41bf 63ec 9f40
