PythonFiles/brains/trained_q_network.pth (torch, 4192 bytes, 4 tensors)

fc1.weight f4 [28, 14]
000000 e0 3a 1f bd 9e 1a ff bd 6e df ae bd 39 c4 35 be
       -0.038874507 -0.12456249 -0.085387096 -0.17750634
000010 ef c4 37 be 56 eb 76 be 57 3d e5 3d a7 24 3e 3e
       -0.17946218 -0.24113211 0.1119334 0.1856867
000020 82 99 c1 bd f5 a6 45 3e ff 73 88 be 08 fa 69 be
       -0.094531074 0.1930197 -0.26650998 -0.22849286
000030 1a cf 03 3e 60 9f 4c 3d b9 e5 1c 3f 3e 02 35 3f
       0.12871972 0.04995668 0.6128803 0.70706546
000040 ee 81 2f 3f 8d 93 a9 3e a7 dd 8e 3f 0c 47 cf 3e
       0.6855763 0.33120385 1.1161393 0.40483892
000050 d7 10 97 be 59 1e d1 3f 7d f2 f8 bc ca 80 88 be
       -0.29505035 1.6337386 -0.030389065 -0.26660758
000060 d8 d6 4b be 0d fa 03 3f 74 ca 94 3d 18 df c0 3e
       -0.19906175 0.5155342 0.07265177 0.37670207
000070 ee 16 95 bd 8a d6 89 3e 00 63 0e be 8b a7 d9 bd
       -0.07279764 0.26921493 -0.13904953 -0.106276594
000080 82 68 ea bc 46 7a 3c 3e de 24 c3 bd 1f 4a 03 3d
       -0.028614286 0.18406019 -0.09528516 0.03205311
000090 62 4c 09 bd a5 5d 37 be 0c 36 51 be ea 7d 0b be
       -0.03352011 -0.17906816 -0.20430773 -0.13622251
0000a0 a4 2b 30 3e 6f 85 d6 3c 41 f9 2a 3e 94 6b 05 bd
       0.17204148 0.026186673 0.16696645 -0.032573298
0000b0 47 dc 85 be 98 e3 18 3e 9d 6b 59 bd 5e 94 78 be
       -0.2614462 0.1493057 -0.053081144 -0.24275348
0000c0 ef 4a 84 be e4 77 6a bd 70 fd 86 bd 6b 29 2a be
       -0.2583842 -0.057243243 -0.06591308 -0.16617362
0000d0 87 98 6a 3e ba cb fe bd 59 40 25 be 08 1d b9 bc
       0.22909747 -0.124412015 -0.16137828 -0.022596851
0000e0 6b 44 5e be e5 a0 1e 3d 2f 5f c2 bd cc 5e c8 bd
       -0.21705787 0.03872766 -0.09490811 -0.09783706
0000f0 fb fe 23 3e a9 d7 9c 3e 1b 05 a0 3c eb 46 a2 be
       0.16015236 0.30633286 0.019533684 -0.3169473
000100 f1 43 c5 3d 0b 53 ed 3d 88 f1 52 3e 6a 0c 85 3d
       0.096320994 0.11588105 0.2059995 0.064965084
000110 fa a9 43 bd 3d 96 7f 3d 42 39 4f 3f 45 0b 88 3f
       -0.047769524 0.062399138 0.80946743 1.0628439
000120 6a f3 9b 3f a8 2c 67 3f 7e 6c 55 3f 36 33 2d 3f
       1.2183659 0.90302515 0.8336867 0.67656267
000130 51 6d 5b bd 3f 16 28 40 9b 75 74 be 1f 70 07 be
       -0.05357105 2.6263578 -0.23872988 -0.13226365
000140 a8 47 9e be 26 92 46 3f cf f1 56 3f 1d 22 28 3f
       -0.30914044 0.77566755 0.8396272 0.6567705
000150 fb 41 7f be e4 a9 34 3e 72 0a ff 3c 12 7d 24 3e
       -0.24927513 0.17642933 0.03113291 0.16063336
000160 30 35 de bd a8 a1 82 bd a0 4d 89 be 87 11 2f be
       -0.108499885 -0.0637849 -0.26817036 -0.1709653
000170 26 aa 45 3e aa 9f ec bc 7a ac d8 bd cb a7 93 bc
       0.19303188 -0.028884728 -0.10579772 -0.018024346
000180 bb 4b 20 be b7 37 cb bd 5a 29 c0 be 48 22 3f 3e
       -0.15653889 -0.09922736 -0.3753155 0.18665421
000190 1d 6a f2 bd 8e 57 6e be 11 b1 28 bd fc 95 9a bc
       -0.11836646 -0.23275587 -0.04118449 -0.018870346
0001a0 2d 4b df 3d c2 19 8a 3d 6f 6c 37 3e da ae 02 3e
       0.109030105 0.06743194 0.17912458 0.12762013
0001b0 63 d6 e0 bd bd 94 70 be e7 93 b1 bd 6c 41 9d 3d
       -0.10978391 -0.23494239 -0.08670788 0.07678494
0001c0 4b 38 22 bd 37 7a 2e be 34 87 b6 bd 07 84 ee bd
       -0.039604466 -0.17038809 -0.08912507 -0.11646276
0001d0 b1 4a 4d be 1a 10 4b 3d 21 3e b9 bd 2e b4 2d 3d
       -0.20048024 0.049575903 -0.09045053 0.04240816
0001e0 a7 d5 fb bd 81 62 d3 3d 0e 52 6c be b9 a0 ed bd
       -0.1229661 0.103215225 -0.23078176 -0.11602921
0001f0 8c a2 dd bd 79 28 0e 3e ee 63 e5 3e 3e 25 1a 3f
       -0.10822019 0.13882627 0.44802803 0.6021308
000200 85 fc 21 3f 4a 09 fb 3e 6c f1 58 3f 3e 5b ad 3e
       0.6327594 0.49030524 0.8474338 0.33858675
000210 f7 49 54 3e fa c0 a1 3f e0 1a 64 bd 24 3b 1d 3e
       0.2073134 1.2637017 -0.055689692 0.15354592
000220 6c da fc 3c 17 04 20 3e 89 b6 91 3e e6 28 8b 3e
       0.03086587 0.1562656 0.28459576 0.2717964
000230 16 f9 27 3d 40 34 8c bb fa a6 7f 3d 15 9d 1e bc
       0.04100903 -0.0042786896 0.0624151 -0.009681006
000240 ce 27 8b 3e d6 8e 4c be 62 73 36 3c 11 52 a4 be
       0.27178806 -0.19976363 0.011135908 -0.32093862
000250 2d 90 97 3e 8d d0 32 3e b5 be 86 3e ab 8c 53 be
       0.29602185 0.17462368 0.26317373 -0.2065913
000260 f7 65 0a bd b4 db 26 be 94 de ff 3d fe 85 44 3d
       -0.033788648 -0.16294748 0.12493625 0.047979347
000270 b4 f7 43 3d 91 11 75 3d 8a 02 e2 3e 3a ae 55 3e
       0.04784365 0.059831206 0.44142562 0.20867243
000280 1f c6 e4 3d b8 f7 be be dc 69 f4 3e 02 bc ff 3e
       0.11170601 -0.3729837 0.47737014 0.49948126
000290 15 1f 45 3e 17 d7 12 be 81 75 3b be b1 db fd bd
       0.19250138 -0.14339863 -0.18306543 -0.123954184
0002a0 f0 0c be 3e e3 cc 4b 3e 65 d0 02 3f 98 df 94 3e
       0.37119246 0.19902377 0.51099235 0.29076838
0002b0 68 1d 82 3f 55 0d e3 3e 71 93 8a be 76 23 8a 3f
       1.0165224 0.4434611 -0.27065614 1.0792072
0002c0 1e 22 2d be 96 3d c0 bd 64 58 9c bd 9d f8 6a 3e
       -0.16907546 -0.093867466 -0.07634047 0.22946401
0002d0 84 7e 53 3d c1 1a 81 3e e5 1f e1 3d b7 86 90 bd
       0.051634327 0.25215724 0.109924115 -0.07056945
0002e0 94 39 d9 3d dd 18 58 3e 77 b7 31 be bc 24 11 be
       0.10606685 0.21103235 -0.17355143 -0.1417417
0002f0 f8 ee e0 bc 24 74 8e be 51 d7 1b 3e 0c 19 7a be
       -0.0274577 -0.27822983 0.15218855 -0.24423617
000300 5d b2 5a 3d d6 42 bc 3d 3b c5 fe bd 0b d6 3e be
       0.053392757 0.091924354 -0.124399625 -0.18636338
000310 9b a2 82 3b 20 3c 20 be 99 8c 36 be f8 7b 1e be
       0.0039866692 -0.15647936 -0.17827071 -0.15476978
000320 84 0f 1d 3e 80 c4 3d be cd c2 3a be bd 71 22 3e
       0.1533795 -0.1853199 -0.18238373 0.158637
000330 4d 76 e4 bd 12 a7 d2 bd f0 a2 e1 3d 0b 37 80 bd
       -0.111553766 -0.102857724 0.11017406 -0.062604986
000340 d8 5f 5b be 98 d7 87 be d5 2e 0d 3f 82 03 3c 3f
       -0.2142328 -0.26531672 0.55149585 0.7344285
000350 28 c6 49 3f 90 82 14 3f 5f 64 68 3f 7e be 41 3f
       0.7881799 0.5801172 0.90778154 0.75681293
000360 7d be c9 bd 6d 2e dd 3f 1a f1 cb bd b6 a4 e2 bd
       -0.09850786 1.7279793 -0.09958096 -0.11066572
000370 0c ab 97 bd 65 f0 bf 3e e7 f9 c9 3e 14 d0 07 3f
       -0.074056715 0.37488094 0.39448473 0.5305188
000380 c6 03 44 be fa bf 2b be c7 d2 41 be 2d ad 5c be
       -0.19142064 -0.16772452 -0.18928061 -0.21550436
000390 71 c1 69 3e 8f 5a 56 3e 20 89 d1 bd cc d2 c5 bd
       0.22827698 0.20932983 -0.10231233 -0.09659347
0003a0 d6 26 b7 3e e9 36 25 be 1d 32 8c 3e 55 bd cc 3c
       0.35771817 -0.16134228 0.27381983 0.024992624
0003b0 82 d8 45 be 57 10 32 bd f6 0c 32 3f 26 3d f4 3e
       -0.19320872 -0.043472614 0.69551027 0.47702903
0003c0 ce 00 dd 3e 34 71 2b 3f 06 44 4f 3f 64 2c 8c 3f
       0.43164676 0.6696961 0.8096317 1.0951047
0003d0 fe bc 3e be ee ba bd 3f 22 4e 3d be 2a ea 05 3e
       -0.18626782 1.4822671 -0.18486837 0.13077608
0003e0 22 49 3e 3e 62 92 74 3e ea 4a 0c 3f 3d b8 65 3e
       0.18582585 0.23883966 0.5480181 0.22433563
0003f0 b5 56 21 3f 3b c8 1e 3f 76 18 75 3f 3b 5f 1b 3f
       0.6302293 0.6202428 0.9574045 0.60692185

fc1.bias f4 [28]
000000 c4 fb 92 be b5 63 d2 3f cb 4d a1 3e 0b 08 57 be
       -0.28707707 1.6436678 0.31504664 -0.20999162
000010 b0 f4 41 be 86 00 10 40 20 0b af bd 18 cd 2a 3e
       -0.18940997 2.250032 -0.08547044 0.166798
000020 00 66 48 be 08 8f bb 3f b7 c6 cd 3d 02 38 88 be
       -0.1957016 1.4653025 0.100476675 -0.2660523
000030 33 a7 45 3f 1a cd 43 bc ce a1 97 be a7 e7 f1 3f
       0.7720825 -0.0119507555 -0.29615635 1.889882
000040 ca 50 30 be 1c 69 f4 3f 90 45 16 40 3c 31 86 3f
       -0.17218319 1.9094577 2.3479958 1.0483775
000050 26 0b 5c 3f 50 00 4d be 69 e2 ec 3f 0f fa bd 3f
       0.8595451 -0.2001965 1.8506595 1.4841937
000060 66 96 b8 3b b2 8b 8b be c5 e6 d9 be 57 f7 aa 3f
       0.0056331633 -0.27255017 -0.42558876 1.3356732

fc2.weight f4 [4, 28]
000000 e8 5d 2b be 84 5c b5 3e 20 f0 8d 3d 5b c6 37 3d
       -0.16735041 0.35422146 0.06930566 0.0448669
000010 f2 70 2c be 89 e7 f3 3e e9 eb 0d bc b3 d7 3d 3d
       -0.1683996 0.47637585 -0.008662202 0.046348285
000020 af 1f bb 3d b0 0c e5 3e de 2c 05 3e 42 0f 8a bd
       0.091369025 0.44736242 0.13005397 -0.067411914
000030 58 1f 24 3e c4 b2 81 3c d7 91 1d be cd 9c 9e 3e
       0.16027582 0.015832312 -0.15387665 0.30979005
000040 7d 4f 05 be 01 d6 a7 3e 60 ea eb 3e 68 6f 8e 3e
       -0.13018604 0.3278046 0.4607725 0.2781937
000050 cb ca 47 3e 9f 8b 72 bd 51 2e a4 3e 49 ee 8a 3e
       0.19510953 -0.059215184 0.32066587 0.27134922
000060 de 30 53 3d 47 71 c0 bc 01 cf 8a be 2e be 40 3e
       0.051560275 -0.023491515 -0.27111056 0.18822548
000070 cd 95 bd bd e7 ef 86 3e d0 e5 71 bd 75 34 59 3d
       -0.09257088 0.26354906 -0.059057057 0.053028543
000080 7b 9b 4a bd 5f f2 ee 3e 2a 58 a0 3d 0b e7 9f bd
       -0.049464684 0.4666929 0.07829316 -0.0780774
000090 1f 88 47 3e 41 fd 19 3e ea f7 0b be ce b9 48 be
       0.1948552 0.15038015 -0.1366879 -0.19602129
0000a0 3f 24 35 3e 24 66 d1 3c eb 5c 12 bd f6 ce b7 3e
       0.17689608 0.0255614 -0.035733145 0.35900086
0000b0 0f 86 04 be 66 45 86 3e e3 81 b8 3e 0e 4a 59 3d
       -0.12941764 0.26224822 0.36036596 0.05304914
0000c0 03 61 2e 3e fe 29 e4 bd 2e 76 ab 3e 86 20 5f 3e
       0.17029195 -0.11140822 0.334886 0.2178975
0000d0 6e 08 a6 bd 03 22 89 bd 78 aa 96 be 89 3e 8e 3e
       -0.081070766 -0.0669594 -0.29426932 0.27782086
0000e0 e7 f8 9a 3a f5 65 c4 3f 4c 2e 9c 3e 5a 63 f4 3d
       0.0011823446 1.5343615 0.30504072 0.11933012
0000f0 85 09 01 be f5 17 f0 3f c7 29 e3 3d f2 f0 bf 3d
       -0.12601288 1.8757311 0.11091953 0.093721285
000100 c2 e9 82 bd f2 2b c8 3f 7c f1 57 be 5e 46 83 be
       -0.06392242 1.5638411 -0.21088213 -0.25639623
000110 ba f0 b9 3f 95 97 83 bd c3 09 24 bd a8 a6 ef 3f
       1.4526589 -0.06425396 -0.040048372 1.8722734
000120 41 d5 40 be 71 48 04 40 63 df e5 3f 14 b5 a7 3f
       -0.1883135 2.0669215 1.7958797 1.3102136
000130 54 1f 8c 3f d9 80 bb 3d 1a 33 e7 3f 5c 91 10 40
       1.094706 0.09155435 1.806247 2.258872
000140 62 88 e8 3c c8 45 ad 3d 83 24 99 be ab b3 dc 3f
       0.028385345 0.08460575 -0.2991067 1.724233
000150 1d 67 2a be 75 bd 7f 3e c8 c0 fb 3d 50 87 4f bd
       -0.16640897 0.24974616 0.122926295 -0.050666153
000160 9e cf 49 be 30 1c f7 3e 9e 62 10 be f7 7e 3d bd
       -0.19708106 0.48263693 -0.1410012 -0.04626366
000170 d3 ee 83 bc 18 8a 8f 3e 77 7e c2 bd d9 f4 66 be
       -0.016105091 0.28035045 -0.094967775 -0.2255434
000180 b0 46 28 3e d3 7f bc bd da 29 ab 3d 00 09 c6 3e
       0.16433215 -0.09204068 0.08357592 0.3867874
000190 42 07 29 be 37 cd 84 3e c2 8e e4 3e e8 fc 3d 3d
       -0.16506675 0.25937817 0.44640166 0.04638377
0001a0 f6 59 8a 3e c7 25 42 bc 88 4b a6 3e b8 0a 62 3e
       0.2702176 -0.011849827 0.324795 0.22074401
0001b0 96 45 18 3d da 5c 33 bd 01 0d 61 be 35 c0 5a 3e
       0.037175737 -0.043789722 -0.21977617 0.21362384

fc2.bias f4 [4]
000000 b3 28 08 3d 68 12 b3 bc 62 61 11 3f 9c e2 1c bd
       0.03324194 -0.021859363 0.5678922 -0.03830205
