PythonFiles/brains/trained_q_network.pth (torch, 3360 bytes, 4 tensors)

fc1.weight f4 [16, 14]
00000000: ffbf 6c3d fb53 da3d f58d 4abb 179d 0abe
00000010: b56f c4bc 6b8c da3d 3310 6d3e aa98 2e3d
00000020: 569c 2abe 49b8 00be d19a abbd f712 11be
00000030: e2f1 2f3e f261 0d3e b7a2 5c3e 91a5 f5bd
00000040: ee77 b63c 9198 fcbd 20ff 49bf a8b4 0fbf
00000050: ea01 f5be 5211 c0be b7df 4d3c 99a0 983e
00000060: 1c38 123d c97e 89bd 490f 533e ef74 fcbd
00000070: b70d 373d 6df4 b4bd 0cdf ac3d 2866 babd
00000080: 5590 2c3e 476f f43e 7861 a13e 82df 1a3e
00000090: 849a 86be c4c0 cc3d a137 a0be 000c 923d
000000a0: cbda 6e3c d6dc 69bc 63aa 4c3e 5ff2 793e
000000b0: b378 053e 839b 3d3e 5487 793f cea1 593f
000000c0: ba66 933e aed7 0e3f 372d d0be 1dc5 f1be
000000d0: 30fe 0ebe 5303 ba3e ba21 3b3e 28c4 a2bd
000000e0: f16e 48bd f798 583d 5757 9d3d 669b 193e
000000f0: 188c 7e3e 058c 75bd afc0 8dbe fd2d 59be
00000100: 1acb a4bd c13a e5bc c4f8 093d da88 4a3e
00000110: fd9a 1a3c 577d 953e 9a83 203e 06a6 c1bd
00000120: 1811 243d bc05 d03d f6b3 5d3e 0a21 c83b
00000130: 6935 c0be 02a5 da3d 389c 4dbe af29 0c3d
00000140: 8c26 b2bd acd9 953d d785 45bd 3af2 a8bc
00000150: 3047 f13c 172a 97bd 02ec 813e d0fc c0bd
00000160: 69cd 2e3f bf9a 793e 4e71 28be 89b1 13be
00000170: 0d48 32be eb45 ce3a 9829 bebe a4d8 f5bd
00000180: 23bc bfbd 4682 0dbe 9f31 d5bc 20a5 f23d
00000190: dad9 19be 67d5 57bd 3fa7 c63e bb83 373e
000001a0: f583 1a3e a553 18bb b55a 73be d258 7a3c
000001b0: 0e79 483d d420 843e 089c 71bd 6902 14be
000001c0: 7707 6d3d 144e 053e f5b3 aa3c d1bc f5bd
000001d0: 6d41 023f eab2 093f 7cfc bbbd 98ba 1c3e
000001e0: 23a5 6dbd e7b4 adbe 34eb a0be 977d 02be
000001f0: b2b1 c4bb 780d 2c3e 6654 b9bd e84e 183e
00000200: 3ee7 8cbc 5dec 01be 206d 64be 0bce b5be
00000210: 0fb6 b4be ad79 343d 8e1f d2bb f0ad 8dbd
00000220: 5870 153e 03b0 ebbc 51db 053e 267a 133d
00000230: 8c83 86bd 3d10 6cbe 0b47 133d d0aa 0abe
00000240: 2d3e 2f3f 3466 073f ddaf 913e e97e ca3e
00000250: 008f 8fbe 561c 83be afd7 cdbd 1ddb 20bd
00000260: 59a2 59be d171 88bc 0bae 4fbe a3cc 51be
00000270: 814c 33be 2e14 923d 37e2 d43e 47ab ab3e
00000280: b169 f1bd 9889 a73e 6f49 39be 3df0 a03c
00000290: 91f9 a2be 4cc8 adbd 6083 98bd f4e3 50be
000002a0: 3c69 6b3e 43cd 2ebd 14db 9f3e b536 893e
000002b0: 7578 7b3f 6479 403f 647c cd3d aa6f c83e
000002c0: e209 2bbd c501 bdbe d38c b2bd 64cd 923d
000002d0: 40bf cfbc 10c0 ba3d 808b 2dbe 20f6 b83d
000002e0: 50cb 8fbc c134 bf3d 317b 1e3f b1b6 483f
000002f0: ea63 febd 2ff4 9d3e 9063 dfbe 83f4 d9bd
00000300: cd95 01bf 8dd1 5b3e b228 6cbe bcd4 0a3e
00000310: 2d17 b73d aec6 3a3e 9c47 b6bd ff90 433e
00000320: 412a c6be 72e7 d03c cabb d6be e97e 98be
00000330: 9c5d fb3d 5960 b5bd e465 833e 8f1f a83d
00000340: 2e30 04bc 1944 d2bc 5e60 3f3e 7433 043e
00000350: 4340 203e 1651 7fbd 076b 2c3f 1423 233f
00000360: 2f2d 70bd eee2 9bbd b4ab acbe 3024 8ebe
00000370: f91f 5bbd c989 6a3a be33 b1bc 4c0a 5abe
0.05780029 0.10660549 -0.0030907367 -0.13536488 -0.023979047 0.10671314 0.23150711 0.04262606
-0.166612 -0.12570299 -0.08379138 -0.14167391 0.17182115 0.13806894 0.21546446 -0.1199447
0.022273984 -0.12333787 -0.78904915 -0.56135035 -0.47853023 -0.37513214 0.012565545 0.29810026
0.03569804 -0.067136355 0.206113 -0.12326991 0.044690814 -0.08835683 0.0844098 -0.09101516
0.16851933 0.47741148 0.31519675 0.15124324 -0.2628976 0.099977046 -0.3129244 0.07131195
0.0145785315 -0.014273843 0.19986872 0.24408863 0.13034324 0.18516354 0.9747212 0.8501252
0.28789312 0.5579785 -0.40659496 -0.47220698 -0.13964152 0.3633066 0.18274584 -0.0794757
-0.048933927 0.052880254 0.076826744 0.15000686 0.24858129 -0.059947986 -0.27686068 -0.2120895
-0.08046551 -0.027982118 0.033684507 0.19778767 0.009436366 0.2919719 0.15675202 -0.094554946
0.040055364 0.10157344 0.21650681 0.006107454 -0.3754075 0.10676004 -0.20079124 0.03421944
-0.086987585 0.07316908 -0.048223343 -0.020623315 0.02945289 -0.07381075 0.25375372 -0.0942322
0.6828218 0.24375437 -0.16449472 -0.14423193 -0.17410298 0.001573739 -0.3714111 -0.120042115
-0.09362056 -0.13819227 -0.026024638 0.11847901 -0.1502451 -0.05269375 0.38799474 0.17921345
0.150894 -0.0023243215 -0.2376507 0.0152799655 0.04894357 0.25806296 -0.058986694 -0.14454044
0.057868447 0.13018066 0.020837763 -0.119989045 0.5088108 0.53788626 -0.09179017 0.15305555
-0.058018815 -0.3392708 -0.31429446 -0.12743221 -0.0060026282 0.16802013 -0.09049301 0.1487385
-0.017200109 -0.12687822 -0.22307253 -0.3550876 -0.3529515 0.04406135 -0.006412453 -0.069179416
0.14593637 -0.028770452 0.13071944 0.03600516 -0.06568059 -0.2305307 0.035956424 -0.13541722
0.6845425 0.52890325 0.28454486 0.3954995 -0.28038788 -0.25607556 -0.10050904 -0.039271463
-0.21253337 -0.016655834 -0.20281236 -0.20488219 -0.17509653 0.07132755 0.41578838 0.33529112
-0.11787737 0.32722163 -0.18094419 0.019645805 -0.3183103 -0.08485469 -0.07446933 -0.20399457
0.22989362 -0.04267622 0.3122183 0.2679955 0.9823068 0.7518523 0.10033491 0.39147693
-0.04175747 -0.36915413 -0.08718266 0.071680814 -0.02535975 0.09118664 -0.16947746 0.090313196
-0.017553002 0.09336234 0.61906725 0.78403765 -0.12421401 0.3085036 -0.43630648 -0.1064234
-0.506192 0.21466656 -0.23062399 0.13557714 0.08939967 0.18239853 -0.08900377 0.1909828
-0.38704112 0.025500987 -0.41940147 -0.29784325 0.12273714 -0.088562675 0.25663674 0.08209144
-0.008068128 -0.025667237 0.18689105 0.12910253 0.15649514 -0.06233319 0.6735081 0.637254
-0.05863684 -0.07611643 -0.3372475 -0.27761984 -0.05349729 0.0008946923 -0.021631118 -0.2129299

fc1.bias f4 [16]
00000000: 3a85 f5bc e4ad 83be 6bb7 c43d f41f d13e
00000010: 7643 5cbe f05b 6ebe ba66 713e 6c0b 93be
00000020: a42c 81bd 891b 74bd 3038 263e f15c 50be
00000030: 6561 c0bd 1e94 e53e 69a8 ad3e 8c77 1e3e
-0.029970754 -0.25718606 0.09605297 0.4084469 -0.2151011 -0.23277259 0.23574343 -0.28719652
-0.06307343 -0.059596572 0.16232371 -0.20347954 -0.093935765 0.44839567 0.3391755 0.15475291

fc2.weight f4 [4, 16]
00000000: f594 2e3d eb83 ddbe 0a9c d83e 1cae e23e
00000010: 3ffa 91bd 6e10 a23d 318c 1d3e 00ec 123d
00000020: d37d d33e 2df4 59be 1e07 943e 22b6 ab3e
00000030: 6131 d53e bcf7 b33e b620 21be 6d69 e23e
00000040: 0077 f23d f5a5 f0be ed3f d93e 274b e43e
00000050: 7eba 2bbe fb1f 33be 3c1f 643e bfe1 353e
00000060: f488 563e 3ec9 96be a0b4 e23e f596 023e
00000070: b48c d43e a173 c43e 2bc7 77be 10ff 583e
00000080: 8c63 e63d 9b38 97be a124 4c3e f191 dc3e
00000090: 82aa a83c 1199 ee3d 8a0a d03e 183b 553e
000000a0: b254 993e d649 59be 0f2f cf3e b13b b63e
000000b0: f739 053f ff57 873e 9643 92be 6525 9b3e
000000c0: 7bbc 303d 0af9 44be b1a7 8d3e 4be9 d23e
000000d0: 466e 01bd 2fde b5bc b44a e43e d5e6 37bd
000000e0: 0937 bd3e 03b7 2dbe 5bcd 853e 7260 b3bc
000000f0: 3ba1 ee3e 2b1c 193f 2c9d 293e 4d75 ab3e
0.042622525 -0.43264708 0.42306548 0.4427346 -0.07127809 0.0791329 0.1538551 0.0358696
0.41306934 -0.21284552 0.2891168 0.33537394 0.41639236 0.35149944 -0.15735134 0.44221058
0.11839104 -0.47001615 0.42431584 0.44588587 -0.1677036 -0.17492668 0.2227754 0.17761897
0.20950681 -0.2945041 0.4427843 0.12752898 0.41513598 0.38369468 -0.2419707 0.21191049
0.11249456 -0.29535374 0.19935848 0.43080094 0.020589117 0.11650289 0.4063304 0.20823324
0.2994743 -0.21219572 0.4046559 0.35592416 0.5204157 0.26434323 -0.2856719 0.30301967
0.0431485 -0.19235626 0.27667 0.41193613 -0.031599306 -0.022200672 0.44588244 -0.044897873
0.3695605 -0.16964345 0.26133236 -0.021896575 0.46607384 0.59808606 0.16563863 0.3348793

fc2.bias f4 [4]
00000000: 355a 103e 62ce 7f3d 8fae 223e ef49 c33d
0.14096911 0.06245268 0.15886901 0.09535586
