PythonFiles/brains/trained_q_network.pth (torch, 3360 bytes, 4 tensors)

fc1.weight f4 [16, 14]
-3.3361053 -3.34698 -3.1865168 -3.6850195 5.8144674 -3.5837383 3.5196018 -5.8270655
-5.746709 -5.831936 -5.412538 -2.026341 -1.7797209 -2.2557797 1.6990585 1.5715154
1.6501244 1.785276 -1.5900404 1.8016436 -4.0585895 2.7682004 2.698956 2.9638627
2.75472 0.703744 0.6928682 1.0241882 0.17044206 0.08459425 -0.032472234 0.04971885
1.3125437 0.1626208 -0.017291535 1.4511677 1.2682128 1.0955031 1.3297836 0.31511873
0.15494022 0.3205696 1.4444132 1.60472 1.5299929 1.691739 -3.3237827 1.7049189
-0.7721989 3.5755043 3.280104 3.555021 3.398389 0.78358185 0.997287 1.0116987
0.544093 0.2733863 0.115994066 0.36052987 -2.1769657 0.4256663 1.1534458 1.0284922
1.2444735 1.0922769 1.3066738 0.45760417 0.13571447 0.21632484 -3.9624772 -3.88429
-3.0501347 -3.678169 6.406453 -4.203534 3.7171104 -6.2411222 -6.294824 -6.3228106
-6.67339 -2.6690073 -2.439313 -2.8441994 -4.345762 -4.001891 -3.759373 -4.02607
6.557988 -4.6394806 3.6121404 -6.4795575 -6.56723 -6.5617943 -6.3267093 -2.3137257
-2.2273304 -2.3040533 -2.7441583 -2.9497135 -2.6388512 -2.924402 4.4301424 -3.0655465
3.916626 -4.663978 -3.9657013 -4.117674 -4.1470375 -0.93831855 -0.9383554 -1.2415044
5.591216 5.657644 5.2941236 5.7568693 -4.9289746 6.502065 -5.0226226 8.066267
7.7333584 7.9431 7.878177 4.470863 3.9590502 4.260238 -0.4680848 -0.4355884
-0.5421942 -0.38883296 2.2730248 -0.44374746 0.6180327 0.11255976 0.33702067 0.3226662
0.20795149 0.23445798 0.23770714 0.18256344 -1.2443744 -1.2088114 -1.1969973 -0.9687583
0.7863552 -1.276475 3.6432562 -1.6649289 -1.8350347 -1.5163995 -1.9594232 -0.8189932
-0.56782514 -0.6348794 -2.0477579 -1.63105 -1.3637432 -2.091094 2.0039806 -1.8279245
4.4005146 -2.9337904 -2.8739927 -2.6883407 -3.0348604 -0.7979537 -0.9026751 -0.7135956
-1.2775661 -1.3244077 -1.1230277 -1.2232044 0.5373123 -1.5843606 3.6267862 -2.6414652
-2.6492417 -2.742549 -2.4061518 -0.728892 -0.71605784 -1.0510377 0.4150609 0.3491072
0.36388487 0.6004785 1.2014202 0.60775775 -1.2160314 1.2272913 1.0877974 1.0694457
1.3681161 0.24678573 0.67598754 0.4194782 1.9047664 2.1354678 1.6109308 1.8174489
-1.7539855 2.1565876 -4.5991764 3.576682 3.3923593 3.3922966 3.5156455 0.998169
0.67088443 0.9414763 -0.19376129 -0.4405348 -0.081661604 -0.35122642 1.5710272 -0.47223473
-1.2036166 -0.83292836 -1.017268 -0.73754084 -1.046152 -0.017127654 -0.39876747 -0.61622137
00000000: c082 55c0 ec34 56c0 e4ef 4bc0 5cd7 6bc0
00000010: 1e10 ba40 f85b 65c0 2841 6140 5277 bac0
00000020: 0ae5 b7c0 389f bac0 8333 adc0 92af 01c0
00000030: e5cd e3bf b25e 10c0 c07a d93f 6b27 c93f
00000040: 4737 d33f ed83 e43f 7286 cbbf 429c e63f
00000050: f7df 81c0 322a 3140 b2bb 2c40 edaf 3d40
00000060: 554d 3040 9128 343f cf5f 313f 9918 833f
00000070: 5d88 2e3e c03f ad3d 9b01 05bd fea5 4b3d
00000080: 6f01 a83f 1186 263e faa6 8dbc ddbf b93f
00000090: cc54 a23f 7239 8c3f 5936 aa3f 3e57 a13e
000000a0: a6a8 1e3e b321 a43e 88e2 b83f 7767 cd3f
000000b0: cfd6 c33f e78a d83f dbb8 54c0 c83a da3f
000000c0: d4ae 45bf 10d5 6440 39ed 5140 7785 6340
000000d0: 357f 5940 d298 483f 334e 7f3f 587f 813f
000000e0: ae49 0b3f 4af9 8b3e 4c8e ed3d 5f97 b83e
000000f0: 6853 0bc0 eff0 d93e 1da4 933f a2a5 833f
00000100: e84a 9f3f bbcf 8b3f 1641 a73f 184b ea3e
00000110: bcf8 0a3e 4284 5d3e 3a99 7dc0 3598 78c0
00000120: 6835 43c0 1f67 6bc0 aa01 cd40 5a83 86c0
00000130: 23e5 6d40 46b7 c7c0 336f c9c0 7754 cac0
00000140: 698c d5c0 04d1 2ac0 b41d 1cc0 5d07 36c0
00000150: 7b10 8bc0 7e0f 80c0 9199 70c0 91d5 80c0
00000160: 0adb d140 a076 94c0 4f2d 6740 8958 cfc0
00000170: c026 d2c0 38fa d1c0 6774 cac0 1514 14c0
00000180: 958c 0ec0 9c75 13c0 4aa0 2fc0 1bc8 3cc0
00000190: f0e2 28c0 6729 3bc0 bac3 8d40 ea31 44c0
000001a0: 00aa 7a40 4f3f 95c0 0dce 7dc0 fcc3 83c0
000001b0: 88b4 84c0 a535 70bf 0f38 70bf 9ee9 9ebf
000001c0: 3eeb b240 6b0b b540 7669 a940 4638 b840
000001d0: 29ba 9dc0 eb10 d040 53b9 a0c0 6e0f 0141
000001e0: ac77 f740 e02d fe40 071a fc40 4f11 8f40
000001f0: 1461 7d40 df53 8840 d0a8 efbe 7105 dfbe
00000200: 3dcd 0abf 1d15 c7be 3d79 1140 de32 e3be
00000210: 6437 1e3f bb85 e63d f98d ac3e 8134 a53e
00000220: 3cf1 543e c115 703e 8069 733e e9f1 3a3e
00000230: a947 9fbf 55ba 9abf 3537 99bf 8b00 78bf
00000240: 934e 493f 8863 a3bf 1c2b 6940 641c d5bf
00000250: 6be2 eabf 6119 c2bf 61ce fabf 8aa9 51bf
00000260: fd5c 11bf 7587 22bf 770e 03c0 3fc6 d0bf
00000270: 238f aebf 7cd4 05c0 3841 0040 6ef9 e9bf
00000280: 04d1 8c40 39c3 3bc0 7fef 37c0 c60d 2cc0
00000290: 273b 42c0 b246 4cbf b715 67bf 34ae 36bf
000002a0: 4987 a3bf 3186 a9bf 5fbf 8fbf f691 9cbf
000002b0: 4d8d 093f 54cc cabf 441d 6840 c40d 29c0
000002c0: 2d8d 29c0 ec85 2fc0 64fe 19c0 ab98 3abf
000002d0: 914f 37bf 6788 86bf dd82 d43e 2ebe b23e
000002e0: 1e4f ba3e f5b8 193f 23c8 993f 0396 1b3f
000002f0: eba6 9bbf e217 9d3f f23c 8b3f 99e3 883f
00000300: 6e1e af3f 66b5 7c3e 850d 2d3f d9c5 d63e
00000310: 63cf f33f 81ab 0840 fb32 ce3f 2aa2 e83f
00000320: 9982 e0bf 8805 0a40 742c 93c0 5ce8 6440
00000330: 6a1c 5940 631b 5940 5600 6140 0188 7f3f
00000340: 15bf 2b3f 9704 713f 5c69 46be c78d e1be
00000350: 333e a7bd f3d3 b3be 6b17 c93f c0c8 f1be
00000360: 1c10 9abf cb3a 55bf d635 82bf 7acf 3cbf
00000370: 4fe8 85bf 4b4f 8cbc 402b ccbe afc0 1dbf

fc1.bias f4 [16]
-3.549461 2.1409178 -0.020851614 1.5880761 0.17899698 -4.3332853 -4.6262765 -3.2790637
6.478088 -0.5073661 -1.4330633 -2.0551116 -1.623243 0.66113037 2.5168278 -0.43755132
00000000: 5e2a 63c0 cc04 0940 01d1 aabc 1446 cb3f
00000010: fc4a 373e 46aa 8ac0 750a 94c0 2edc 51c0
00000020: 7f4c cf40 bfe2 01bf 9e6e b7bf f386 03c0
00000030: 6dc6 cfbf d73f 293f b513 2140 ba06 e0be

fc2.weight f4 [4, 16]
-1.2340384 2.0551636 0.27081305 0.68070203 -0.49908724 -1.1258365 -1.008447 -1.518795
1.0481153 -0.6558493 -2.4358885 -2.4448268 -2.0744426 0.80951643 2.1550822 0.34060174
-1.3713917 1.2462527 1.0544031 1.2098507 1.489157 -1.4013358 -1.2159153 -0.99725443
1.2608219 1.0286747 -1.2859632 -1.3962609 -1.5940018 1.0155709 1.3822722 -0.8948073
-1.5973254 1.3177413 -0.29218605 1.3070836 2.2509046 -1.499732 -1.3525095 -1.6615127
1.0921386 -2.3047924 -1.1480455 -1.6447803 -0.92102 -0.14130424 1.3713144 -1.1883633
-1.2030431 1.4022844 1.3354108 1.4541861 1.6260647 -1.215265 -1.298569 -1.2912242
1.0409169 0.9255435 -1.0706462 -1.4500917 -1.598067 0.99802095 1.7229964 -0.87800306
00000000: f8f4 9dbf cd87 0340 02a8 8a3e 7d42 2e3f
00000010: 5d88 ffbe 691b 90bf cb14 81bf e067 c2bf
00000020: a428 863f bde5 27bf 99e5 1bc0 0b78 1cc0
00000030: abc3 04c0 783c 4f3f deec 0940 5a63 ae3e
00000040: c389 afbf 3585 9f3f aef6 863f 63dc 9a3f
00000050: b29c be3f f95e b3bf 1da3 9bbf 114c 7fbf
00000060: 9d62 a13f 9dab 833f 719a a4bf adb8 b2bf
00000070: 4008 ccbf 3afe 813f 4cee b03f 1712 65bf
00000080: 2975 ccbf bfab a83f 6999 95be 844e a73f
00000090: d20e 1040 38f7 bfbf 081f adbf 73ac d4bf
000000a0: 33cb 8b3f b881 13c0 28f3 92bf 2988 d2bf
000000b0: f7c7 6bbf 0fb2 10be 3b87 af3f 4a1c 98bf
000000c0: 51fd 99bf 0e7e b33f beee aa3f c522 ba3f
000000d0: e322 d03f ce8d 9bbf 8237 a6bf d646 a5bf
000000e0: c43c 853f 6bf0 6c3f ef0a 89bf 9b9c b9bf
000000f0: 768d ccbf 4d7e 7f3f 258b dc3f cfc4 60bf

fc2.bias f4 [4]
0.38925737 0.36978966 0.24316312 0.5518443
00000000: be4c c73e 1255 bd3e c1ff 783e ab45 0d3f
