PythonFiles/brains/trained_q_network.pth (torch, 3360 bytes, 4 tensors)

fc1.weight f4 [16, 14]
000000 91 4b 92 40 f9 11 8f 40 49 3d 86 40 74 ea a3 40
       4.5717244 4.470944 4.194981 5.12237
000010 c8 f1 69 c0 de 86 6e bf 04 7f 3c c1 8b 61 d0 40
       -3.6553822 -0.9317454 -11.78101 6.511907
000020 07 e6 d2 40 da c5 d0 40 c8 fe ca 40 4f f7 5e 40
       6.5905795 6.524152 6.343601 3.4838445
000030 b7 bd 76 40 5e 2b 83 40 c7 60 0e 41 32 59 07 41
       3.8553293 4.099044 8.898627 8.459276
000040 6e 1f f6 40 80 2b 0d 41 b9 f3 10 c1 82 fd 45 40
       7.6913366 8.82312 -9.059503 3.093598
000050 4a 1f 17 c1 d5 3b 0f 41 a2 58 0b 41 28 89 04 41
       -9.445139 8.952107 8.709139 8.283485
000060 13 58 08 41 1e fe bf 40 11 b8 d5 40 36 41 dc 40
       8.5215025 5.99977 6.678719 6.8829603
000070 db fe fe 41 12 42 fb 41 d6 61 e0 41 2a 08 02 42
       31.874441 31.40726 28.047771 32.507973
000080 e2 17 47 c1 1c 3e 83 40 90 ba 9e c1 7b 2e 8f 41
       -12.443331 4.1013317 -19.841095 17.897696
000090 33 54 9e 41 02 44 99 41 fe 87 94 41 50 99 ab 41
       19.791113 19.158207 18.566402 21.44986
0000a0 04 4a b4 41 ae 17 bb 41 9c 1a 98 bf 2c a9 95 bf
       22.53614 23.386562 -1.188312 -1.1692252
0000b0 2f 15 48 bf 8f e7 a7 bf 26 8f 7b 40 e0 84 92 bf
       -0.78157324 -1.3117541 3.930612 -1.14468
0000c0 fa da be 3e 8c 73 ab bf e4 02 ad bf 07 b7 94 bf
       0.3727644 -1.3394637 -1.3516507 -1.1618356
0000d0 49 5d bf bf 94 b1 82 bf e7 42 74 bf eb 45 9c bf
       -1.4950343 -1.0210443 -0.95414585 -1.2208837
0000e0 95 e1 1d bf 5e e7 ae be c2 56 63 bf 01 e7 f1 be
       -0.61672336 -0.34160894 -0.88804257 -0.47246554
0000f0 74 a7 ef bf 58 5e 76 3f bd 84 60 40 14 bb 81 bf
       -1.8722978 0.9623771 3.5081017 -1.0135217
000100 48 8d 76 bf a6 d3 6d bf 47 3c 74 bf 56 dd 00 bf
       -0.9630933 -0.92901075 -0.95404476 -0.5033773
000110 e0 ec 9d be c1 92 cf be 30 ef 0c c0 72 41 f9 bf
       -0.30844784 -0.40541652 -2.2020988 -1.9473097
000120 bb ae fa bf c5 61 25 c0 c7 54 eb 3e c1 8d 83 3f
       -1.9584574 -2.5840924 0.45963117 1.0277635
000130 ca 25 e4 40 cb 3a 41 c0 d2 eb 4f c0 9a 92 2f c0
       7.129613 -3.0192134 -3.2487683 -2.7433228
000140 1c 47 43 c0 aa 35 d5 bf 14 dc d7 bf 2b bc ba bf
       -3.0512152 -1.6657002 -1.6864038 -1.4588674
000150 19 4f 54 c1 6e 42 53 c1 f6 43 33 c1 2d 2d 53 c1
       -13.269311 -13.203718 -11.204092 -13.198529
000160 a3 25 32 41 e6 cd 83 c0 f3 e5 48 41 7a e4 40 c1
       11.134189 -4.118884 12.55614 -12.05578
000170 47 2d 35 c1 00 ce 3a c1 c6 ab 30 c1 6e 55 0b c1
       -11.323554 -11.675293 -11.041937 -8.708357
000180 95 fe 12 c1 62 63 1b c1 8a cb ca c0 91 d7 d1 c0
       -9.187154 -9.711763 -6.337346 -6.5575643
000190 c3 14 b7 c0 be fc cb c0 0b 92 07 41 97 74 f5 bf
       -5.7212844 -6.3746023 8.473155 -1.9176205
0001a0 cc 24 04 41 e9 53 ec c0 90 ed d3 c0 0d c4 cd c0
       8.258984 -7.385243 -6.6227493 -6.430182
0001b0 27 10 d9 c0 89 a2 7f c0 52 88 8d c0 b5 1a 9a c0
       -6.7832217 -3.9942954 -4.4228907 -4.81576
0001c0 f3 9c 0c 41 ac a9 01 41 21 1d 00 41 37 fb 0b 41
       8.788318 8.103924 8.007112 8.748832
0001d0 9c 07 e3 c0 fc e6 d4 bf d7 07 9c c1 06 c7 1f 41
       -7.094679 -1.6632991 -19.503828 9.98609
0001e0 d9 6b 14 41 9b d8 14 41 a1 96 14 41 ec ae b4 40
       9.27633 9.302882 9.286775 5.646353
0001f0 56 f6 bb 40 9a e6 ba 40 01 66 3d c0 5f ce 59 c0
       5.8738203 5.8406496 -2.9593508 -3.403221
000200 cc 13 30 c0 b7 e9 4c c0 32 14 c9 40 4e 59 92 bf
       -2.7512083 -3.2017648 6.2837152 -1.1433504
000210 d4 82 7f 40 2a f7 61 c0 46 b9 49 c0 ee 14 44 c0
       3.99236 -3.5307107 -3.1519332 -3.0637774
000220 9f 76 46 c0 98 9c f0 bf fb 08 14 c0 2a 1a 03 c0
       -3.10099 -1.8797789 -2.3130481 -2.048472
000230 c8 a3 07 c1 1c 1f 03 c1 00 1d f0 c0 48 2c 04 c1
       -8.477486 -8.195095 -7.50354 -8.260811
000240 58 3d df 40 44 5a cd 3f cb 11 84 41 f9 69 1e c1
       6.9762383 1.6043172 16.508688 -9.900872
000250 4d 07 22 c1 c7 e7 1f c1 c1 44 1e c1 7d 0b c4 c0
       -10.126782 -9.994086 -9.891786 -6.1264024
000260 8f 92 c8 c0 fe 17 df c0 91 46 b6 bf 20 b5 b4 bf
       -6.2678905 -6.9716787 -1.4240285 -1.4117775
000270 29 b9 96 bf 89 30 cf bf 60 35 83 40 fb 4c 84 bf
       -1.1775256 -1.6186687 4.1002655 -1.0335993
000280 5b 34 50 3f c2 18 d2 bf a1 f9 ae bf 02 72 a8 bf
       0.8132989 -1.6413805 -1.3669931 -1.3159792
000290 8c 97 e7 bf 04 7b 8d bf 80 6b 85 bf c7 d8 b7 bf
       -1.8093123 -1.1053166 -1.0423431 -1.436303
0002a0 5e 0c 6e 40 46 10 6e 40 0e 82 4b 40 31 9c 59 40
       3.7195048 3.7197433 3.179813 3.4001582
0002b0 86 9c b9 c0 50 2a a2 3f 04 69 93 c0 04 24 89 40
       -5.800357 1.2669163 -4.6065693 4.2856464
0002c0 6c ed 50 40 dd c3 62 40 6f ac 55 40 0d db 01 40
       3.264491 3.5432045 3.3386495 2.0289948
0002d0 80 e1 fa 3f 6b 97 11 40 79 58 aa c0 d8 42 b6 c0
       1.9600067 2.2748668 -5.3233 -5.6956596
0002e0 5a 58 98 c0 cd 70 b3 c0 3c df f4 40 f8 ca d5 bf
       -4.760785 -5.6075196 7.6522503 -1.6702566
0002f0 1f 51 d9 40 e7 ec c4 c0 9d 08 b8 c0 83 23 b7 c0
       6.7911525 -6.1539187 -5.7510514 -5.723085
000300 4a 8a b0 c0 bb 7a 73 c0 ae ff 78 c0 eb f7 88 c0
       -5.516881 -3.8043659 -3.8906054 -4.2802634
000310 3c b4 c5 3e 0c bc 94 3d aa 01 f0 3e fb de f4 3e
       0.3861407 0.072624296 0.4687627 0.4782637
000320 14 f0 0b 40 58 91 33 bf 3c 5b 10 c0 d4 80 bf 3e
       2.1865282 -0.7014365 -2.2555685 0.37402976
000330 44 82 ac 3e 73 11 45 3f 94 4e 20 3f c6 14 04 3f
       0.33693135 0.7697975 0.626199 0.515942
000340 ce fa 27 3d 0a ae d6 3e d4 9b 4b 3e 2a 2d cf 3e
       0.04101067 0.41929656 0.19883662 0.40464145
000350 87 32 2d be 01 01 ea 3d 0b 44 0f c0 b4 a0 93 3f
       -0.16913806 0.11425973 -2.238528 1.1533418
000360 42 ff 1c 40 a0 42 9d 3e 5a ca 17 3d 56 0f b5 3e
       2.4530797 0.30714893 0.037058212 0.35363263
000370 ea a9 9d 3e 43 b6 11 3f cd f6 02 3f 98 a5 0b 3f
       0.30793697 0.56918734 0.5115784 0.5454955

fc1.bias f4 [16]
000000 be 98 ae 40 ee 5b 1f 41 7e 02 0e 42 26 7e c3 bf
       5.4561453 9.959944 35.502434 -1.5272872
000010 0d c4 5c bf 90 cc 1f c0 84 83 6c c1 c4 5b e5 c0
       -0.8623665 -2.4968605 -14.782108 -7.167452
000020 5d 09 1b 41 5b 41 69 c0 4d b3 18 c1 10 e1 b5 bf
       9.689786 -3.644614 -9.543775 -1.4209309
000030 19 e7 81 40 88 62 c0 c0 7c b3 c5 3e d4 73 d8 bd
       4.05946 -6.0120277 0.38613498 -0.105689675

fc2.weight f4 [4, 16]
000000 60 4f 77 40 7f 9e 7f 40 a5 a5 3a 40 5f 72 2a c0
       3.8642197 3.9940488 2.9163601 -2.6632307
000010 be 12 b7 c0 9b a8 a3 c0 cc ef 87 c0 d0 5d a6 c0
       -5.721038 -5.1143317 -4.248022 -5.1989517
000020 3c 57 93 40 9f 4b 9c c0 d3 0e 53 c0 54 ad 54 c0
       4.6043987 -4.884231 -3.2977798 -3.323079
000030 eb 93 99 40 ee 18 8d c0 87 37 17 40 12 f2 a0 c0
       4.7993064 -4.409293 2.3627641 -5.0295496
000040 46 5b 74 40 d5 8d 86 40 76 85 41 40 f2 da 91 c0
       3.818071 4.2048135 3.0237708 -4.5579767
000050 83 cc 77 c0 8a 86 88 c0 18 89 89 c0 af f8 9a c0
       -3.8718574 -4.266423 -4.297985 -4.842857
000060 fd a3 80 40 08 0d 99 c0 18 d9 5a c0 42 09 90 c0
       4.020018 -4.7828407 -3.4195004 -4.50113
000070 04 e0 81 40 89 12 93 c0 99 5c d9 3f 5d 81 5a 3f
       4.0585957 -4.5960126 1.6981384 0.8535364
000080 80 fc fb 3f eb 80 90 40 14 d3 29 40 de 7c 28 c1
       1.9686432 4.515737 2.6535082 -10.530485
000090 7d 71 43 40 1b 71 92 bf 2d 71 91 c0 34 50 c5 c0
       3.0538018 -1.1440767 -4.5450654 -6.1660404
0000a0 c5 6b 35 40 9a f0 ec c0 6d f4 03 c0 c8 f9 17 c1
       2.8347027 -7.4043703 -2.0617936 -9.498482
0000b0 13 2b ca 40 4b 78 af c0 40 b5 0d c0 be fa b1 40
       6.317758 -5.483434 -2.2141876 5.561858
0000c0 cf 62 60 40 42 70 73 40 b6 a0 48 40 da c2 71 c0
       3.5060308 3.8037267 3.134809 -3.7775178
0000d0 45 75 70 c0 5c a0 79 c0 8c c9 82 c0 3b 3e 9c c0
       -3.7571576 -3.9004126 -4.087103 -4.8825965
0000e0 8a e3 58 40 99 c5 78 c0 1e 69 3c c0 29 fe 61 c0
       3.388888 -3.8870604 -2.9439158 -3.5311377
0000f0 8c c3 72 40 34 1b 78 c0 19 ca ee 3f f0 42 9d 3f
       3.7931852 -3.8766603 1.8655425 1.2286053

fc2.bias f4 [4]
000000 c8 10 9f 3f 27 54 7d 3f 5a cd 2e 3f 9d 31 65 3f
       1.2426996 0.9895653 0.6828209 0.8952883
