PythonFiles/brains/trained_q_network.pth (torch, 4192 bytes, 4 tensors)

fc1.weight f4 [28, 14]
00000000: 9594 df3d ede2 1fbd 53d9 b23d 8594 083e
00000010: f14f 5dbf 1e26 a6be 5b19 c63e 13c3 5c3e
00000020: 6a7f 16be f4d4 acbc 8bbd 24be 5836 553e
00000030: fb41 c43c b746 563e 83ce 4abd fc0d e5bd
00000040: 8baa c3bd 4a8f 69bd f6ac 5c3e e2ce 5abf
00000050: 4260 853e a13c 963e 8a75 0abd 996d b2be
00000060: 8a01 b03d d245 2d3e 89e3 583e 3c62 233e
00000070: 262e 893b a063 c83d 1210 4b3e dd3a 5a3e
00000080: c5fc d03f bf2f f83f 2394 013f 849f 0f3e
00000090: b36a 2f3e efea 583e 065a 613e 5c77 873e
000000a0: e446 7b3e e1f4 a23e f370 993d 836b 9bbd
000000b0: 7008 993e b85f 493d 3489 e73f 3913 b0be
000000c0: f823 1a3f f39d 8e3e 536e 29be 4cea cbbe
000000d0: c873 6ebe 9185 c53d 46aa a1bd 53fb c93d
000000e0: 91f4 563e 3a32 883e a10a 7b3e 9409 9e3e
000000f0: ee13 aebf ef90 a1bf 044b 983e 7305 f33e
00000100: 6785 c63e b44a c03d c301 533e e40b a83e
00000110: 436c 8b3e 5333 7f3e 92b4 be3e 86c4 d63e
00000120: cb28 d03e 0478 5f3e 7b39 4140 c8f5 3340
00000130: 1b6f cb3f 71b1 8f3f 8d89 11bf 072e e3be
00000140: 8ba5 0fbf 527c e03e 4c0c 0f3f 452c 303f
00000150: 4101 c83c 3fdb 89bd a4a3 a93d 9389 573e
00000160: 0f18 ebbd 4995 f2be 3efd a7be b8c6 a63e
00000170: e674 df3e 435d c93c f1a9 773e 457c 9b3e
00000180: d263 5b3c aaaa e4bd 2ea1 71bd 9446 313e
00000190: 2990 c1bd baa6 00bd 1147 eb3e 2633 f03f
000001a0: 9909 203f 8fea 403e fa00 d6bd bb2a dd3d
000001b0: 31ae efbd 9288 c63e f153 643e a338 c63e
000001c0: b0dc c73e 3c27 183e c9d7 063f 1ec7 b73e
000001d0: ea45 3b40 26ac 2b40 f519 8f3f 434a fd3e
000001e0: 9377 bbbd c606 ccbe 8964 f4bd 8119 1d3f
000001f0: 6ec0 913e 94df 8c3e c807 263e 4d05 c63e
00000200: ddb4 913e f5ac c63d f990 0840 198a 0840
00000210: f08f 8a3f 036d 063f 6382 d4be b0d5 dcbe
00000220: 53d9 9bbe d0bd 753e e235 f9bd 8668 713c
00000230: ebdc 17be 0ba8 51bd fe27 72bd c77b 83be
00000240: 1aa9 a1bd 2a15 27be a4cf 1e3c 9c22 063e
00000250: 9e26 afbd 46b1 5cbd c1a2 81bb 1d79 d23d
00000260: 2d33 fc3d e141 dfbd 460c ed3e 025f cb3e
00000270: 91b0 593f 658b 1d3f 16f4 5840 3c6c 4340
00000280: e3b0 dd3f 910e c93f e45a 1cbf 2351 d7be
00000290: 301b 1fbf 3478 183f 47c3 413f 2181 573f
000002a0: 2a13 533e f2e1 043e 2455 1ebd e269 fa3c
000002b0: 7943 19be 4301 7ebe f16c 8abe 8cb2 24be
000002c0: 1439 a8bc 7738 0abc 16ef 003d f349 543e
000002d0: dea8 6fbe f1df 90be 1c79 c3bd b5d1 bcbd
000002e0: 9736 5cbe 780a 323c 9b94 0abe b18d 103e
000002f0: 26f0 8a3d 0002 90be 2c66 333a 586b 25bd
00000300: 9294 8a3b 7d0c 1f3e 2957 323d da7a 22be
00000310: a882 4e3e 8dc0 333d 6891 e73c fa8c 163e
00000320: 25ce 1040 32be 1040 4a25 213f 16c5 fc3e
00000330: 4d68 b0be d757 5dbd 8c9d a5bd c371 21bc
00000340: 06bf 8f3e 332d 153e d7b8 d13e d29c cd3d
00000350: f961 153e f39c 243e 703a 0d40 6b25 2440
00000360: 0dc4 913f 4adb 003f 2b71 8fbe a445 b0bd
00000370: 2891 55be ef32 803e fa60 bf3e 1c04 1f3f
00000380: a4e4 983d a906 55bd c355 36be 96d7 553e
00000390: e9f4 e9be adb7 d33f 4567 cc3e a8fb a63e
000003a0: 8259 42bd 16a7 6ebe e668 103e 851b 753e
000003b0: 41b8 d7bc de5b 1e3d 0a96 a43d dfa5 133e
000003c0: e428 703e a8d1 0a3e 4a1e de3f 9536 0b40
000003d0: bace 4c3f c5a4 c03e b4d1 dfbc eab0 8fbd
000003e0: 000c 173e 0be0 8a3e 350e 013f 4a5d 623e
000003f0: 07cd a4bd 2169 62be 6e24 c6bd f877 3ebe
0.10917012 -0.039034773 0.087328576 0.13337906 -0.86450106 -0.32450956 0.3869122 0.2155879
-0.14697042 -0.021097638 -0.1608793 0.20821512 0.023957243 0.20925413 -0.04951335 -0.11184308
-0.09554013 -0.057021417 0.21550354 -0.8547193 0.2605 0.2934313 -0.0338035 -0.3484924
0.085940436 0.16921166 0.21180548 0.15955442 0.0041864095 0.09784627 0.19830349 0.21311517
1.6327139 1.9389571 0.50616664 0.14025694 0.17130546 0.2118337 0.22006997 0.2645825
0.24538761 0.31827453 0.074922465 -0.075888656 0.2988925 0.04916355 1.8088746 -0.34389666
0.60211134 0.2785488 -0.16545992 -0.39827192 -0.23286355 0.096446164 -0.07893805 0.098623894
0.20991732 0.2660082 0.24515773 0.30866683 -1.3599832 -1.2622355 0.29744732 0.47465095
0.38773653 0.093892485 0.20606141 0.32821572 0.27231035 0.24921922 0.3724714 0.4194681
0.40656123 0.21823126 3.0191333 2.8118763 1.5893282 1.1226026 -0.5685051 -0.44371054
-0.56111974 0.4384485 0.5587814 0.6881755 0.02441466 -0.06731271 0.08283165 0.21048574
-0.11479198 -0.4737952 -0.32810396 0.32573485 0.43643874 0.024580603 0.24185921 0.30368248
0.013390498 -0.11165364 -0.058991604 0.1731208 -0.094513245 -0.031409003 0.45952657 1.8765609
0.62514645 0.18839477 -0.10449405 0.10799166 -0.11703146 0.3877607 0.22297646 0.38715085
0.3903556 0.14858717 0.5267301 0.35894102 2.9261422 2.682382 1.1179796 0.4947072
-0.09153666 -0.39848918 -0.11933238 0.6136704 0.28467125 0.27514327 0.16213906 0.3867592
0.284583 0.09700958 2.1338484 2.1334288 1.0825176 0.5251009 -0.41505727 -0.4313178
-0.30439243 0.23998189 -0.121684805 0.014734393 -0.14830367 -0.05118565 -0.05912017 -0.25680372
-0.07893582 -0.16316667 0.00969306 0.1309914 -0.085522875 -0.05388 -0.0039561694 0.10277007
0.123144485 -0.10901237 0.46298426 0.39720923 0.85035044 0.61540824 3.3898978 3.053481
1.7319607 1.570757 -0.6107619 -0.4205409 -0.6215086 0.59558415 0.75688595 0.8418141
0.2061278 0.12976816 -0.038655415 0.030568067 -0.14967145 -0.24805169 -0.2703624 -0.16083735
-0.02053503 -0.008436314 0.03147801 0.20731334 -0.23404261 -0.28295854 -0.09544584 -0.09219686
-0.215052 0.010866754 -0.13533251 0.14116551 0.06784086 -0.28126526 0.0006843533 -0.040385574
0.0042291367 0.15532108 0.043540154 -0.15867177 0.20167029 0.043884803 0.028267577 0.14702216
2.262582 2.2616086 0.62947524 0.49369115 -0.34454575 -0.05403885 -0.0808669 -0.009853783
0.28075427 0.14568023 0.40961334 0.10039677 0.14588155 0.16075496 2.2066917 2.5647838
1.1387955 0.5033461 -0.28016028 -0.08607033 -0.20856154 0.2503886 0.37378675 0.62115645
0.07465485 -0.052008305 -0.17806153 0.20883021 -0.45694664 1.6540428 0.39922538 0.32613873
-0.047448643 -0.23305926 0.14102516 0.23936279 -0.026332976 0.03866183 0.0803643 0.14418744
0.23453099 0.1355654 1.7352993 2.1752064 0.8000294 0.3762571 -0.027321674 -0.070161656
0.14750671 0.27124056 0.50412303 0.221059 -0.08046918 -0.22110416 -0.09674917 -0.18600452

fc1.bias f4 [28]
00000000: 2b72 a73e 1f07 d83e 68a8 803e 1017 9b3d
00000010: 73f3 0c3f eede 1b3f 6431 913d f479 7e3e
00000020: c497 b23e a324 0c3f e522 3fbe 4207 8f3f
00000030: e2ae 22be 0338 34be 85a4 133f 1ccd bb3e
00000040: 9ddf b13e b047 3a3e 91f1 64bc 7244 b83c
00000050: d596 703f ee9a 883e d383 393f 4f98 e03d
00000060: 3c84 e43e 066f 973f 81f2 2cbe 06a7 b63e
0.3270429 0.42192933 0.25128484 0.07572758 0.55058974 0.6088704 0.07089499 0.24851209
0.34881413 0.54743403 -0.18665655 1.117409 -0.15887025 -0.17599492 0.5767291 0.36679924
0.34740916 0.18191409 -0.01397361 0.022493575 0.9398015 0.26680702 0.7246677 0.109665506
0.44632137 1.1830757 -0.16889383 0.35674304

fc2.weight f4 [4, 28]
00000000: 024f 8a3d 65be 6dbf 0d4f 933f 2101 e8be
00000010: 01ba 5cbe df28 8a3f a70e b8bd 322f 963f
00000020: 9851 693f e42a 6d3f e170 ea3d c411 613f
00000030: 65e4 a23b 4109 ffbc e4ea 8d3f f579 a83f
00000040: 0b47 5f3f 2334 b93f 1c99 2ebd d050 93bf
00000050: 1a39 633f 4f9c 663f 5c49 783f 9595 34bf
00000060: 1c6c 96bf b4fd 7e3f 8fff 97bd 1d37 9c3f
00000070: d2b2 813d 475e c83d c900 133f 964f 3f3f
00000080: 2415 a9be b10f 803f 93bc f1be a30f 2d3f
00000090: 66d7 883f b6b6 333f 3b82 febd 0197 713f
000000a0: 769e 03be 4e68 3b3e 5e9a 223f 4705 893f
000000b0: cd54 d73e 900e 613f cc12 f2bd a5b0 c73e
000000c0: f03c 6a3f 878a 383f e745 7a3f 4dba b73d
000000d0: e061 d5bb 144e 823f f7ee 2bbe a299 853f
000000e0: 8789 4dbf 26a6 793d 958f 6d3f 50a0 703f
000000f0: 09e2 8cbf 8fea 773f d7d3 293d adb0 883e
00000100: e515 a73f b075 313f e030 8fbb fd7c 853f
00000110: d5cf 8d3d fa94 e3bd db8f 7f3f f073 693f
00000120: 97f3 b6be 3d1e 7f3f 4997 e4bd 317a c33e
00000130: dc00 893f 777d 1f3e 8d03 9b3f 5441 103f
00000140: 4836 73be 8e62 893f a2a3 333e d112 833f
00000150: 8531 72bd 4c76 82bd 9031 093f 4a67 513f
00000160: bc27 d7be 5354 943f 6933 29be 903b 1c3f
00000170: 192e 633f aee0 683f 5dde e23d cbf0 7a3f
00000180: 8c62 013e f68a 3fbe 82e2 6c3f c96b 7c3f
00000190: 7ad1 ea3e ac0f 553f f5d7 6e3b 0849 653e
000001a0: 209a 713f 2977 263f da58 823f 4ded 913e
000001b0: 154c 83be a46b 763f e49f c7bc 315a 703f
0.06753351 -0.92868644 1.1508499 -0.4531336 -0.2155533 1.0793723 -0.0898717 1.1733153
0.9114013 0.9264357 0.11447311 0.87917733 0.0049710744 -0.031132342 1.1087308 1.3162218
0.8721778 1.4469036 -0.042626485 -1.1509037 0.88759005 0.9008226 0.9698694 -0.70540744
-1.1751742 0.9960587 -0.07421791 1.2204319 0.063329354 0.09783607 0.57423073 0.74730814
-0.33023942 1.0004789 -0.47214183 0.67601985 1.0690734 0.7020067 -0.12427183 0.9437104
-0.12853417 0.18301508 0.63516796 1.0704736 0.42056885 0.87912846 -0.118199915 0.39001957
0.91499233 0.72086376 0.9776291 0.08971081 -0.0065119117 1.0180078 -0.16790377 1.043751
-0.80287975 0.060949467 0.92797214 0.9399462 -1.100648 0.96842283 0.04146179 0.26697293
1.3053557 0.693202 -0.00436984 1.0428768 0.069244064 -0.111123994 0.9982888 0.9119253
-0.3573272 0.99655515 -0.11161668 0.38179162 1.0703387 0.15575205 1.2110459 0.5634968
-0.23751175 1.0733202 0.1754289 1.0240117 -0.059129257 -0.063702196 0.5359125 0.8179823
-0.42022502 1.1588234 -0.16523518 0.61028385 0.88742214 0.90967834 0.11077569 0.9802367
0.12635249 -0.18705353 0.92533123 0.9860197 0.45862943 0.8322704 0.0036444638 0.2239114
0.943758 0.65025574 1.0183365 0.2850136 -0.25643983 0.96257997 -0.024368234 0.9388762

fc2.bias f4 [4]
00000000: eaac 2a3e cb90 9d3d 0533 ff3d a00e 913d
0.16667524 0.07693633 0.12460903 0.070828676
