PythonFiles/brains/trained_q_network.pth (torch, 3360 bytes, 4 tensors)

fc1.weight f4 [16, 14]
0.49501935 0.39892003 0.6579346 0.43784487 -1.7235045 0.16821244 -0.59347385 0.7116792
-0.23066911 -0.0980967 -0.3978005 0.25570035 0.46120346 0.17789441 0.925947 1.0130188
0.9751842 1.0620599 -0.46597856 -7.5920687 -1.7394814 1.9971175 -1.925434 -1.8366724
-1.8303863 1.0070106 1.3338124 1.1143378 -0.5832898 -0.3106571 0.25220057 -0.5036713
0.61436903 -1.9608452 -1.9300119 2.4608219 -1.9236796 -1.6968764 -1.578051 1.1255579
1.1876922 1.4563984 -0.3648752 0.015061535 0.45611095 -0.07578045 0.42287952 -3.139205
-1.7644715 2.9902077 -2.1484852 -2.1047447 -1.7260946 1.1592442 1.4203691 1.1589184
-2.0399518 -2.099568 -2.5861392 -2.088153 3.8133204 8.010439 1.9644014 -3.5069997
2.0414865 2.223882 2.2087636 -1.316907 -1.2517194 -1.5557404 -3.0508692 -3.0153987
-3.9981043 -2.7334049 2.1521642 12.820775 3.9449797 -5.9927263 2.5330122 2.4095669
2.3045893 -3.11949 -3.1360385 -3.2148724 0.024677612 0.01354467 0.39617923 0.014261514
0.7795306 -3.9576497 -1.726663 1.9910631 -1.6434385 -1.5669551 -1.6946211 0.7557492
0.85158247 1.0631539 1.2879633 1.4580665 1.7365401 1.11265 -0.98777336 -10.051918
-3.332446 4.082994 -2.9446683 -2.8842204 -3.0346038 1.8980024 1.997078 2.1349347
-0.037015274 0.019983396 -0.50425076 -0.32454494 1.1968532 -0.78100425 0.5045182 -0.70120144
0.2614328 0.41742483 0.5447332 -0.37666562 -0.33405486 -0.2417361 0.7830053 0.8844348
1.6403155 0.40499035 -1.2536223 -7.372905 -3.883086 5.603902 -3.6090896 -3.775988
-3.3462462 2.0452993 2.3457768 2.532157 -1.1756283 -1.1948348 -1.5687497 -1.2453201
2.932637 3.0064058 1.2884514 -1.392449 1.2633188 1.151156 1.0717398 -0.65459067
-0.561279 -0.48874196 -2.3176773 -2.344383 -2.6670337 -2.039415 3.7610936 7.644786
2.3472688 -3.088883 1.9864168 1.8561001 1.9133836 -1.2200733 -1.4864539 -1.3637741
-1.8144573 -2.2299733 -2.31543 -2.1192374 4.126161 7.0558114 1.6972632 -2.7108753
1.9898008 1.9518604 1.7309436 -1.0128179 -1.1338655 -1.0355283 0.4647263 0.5058403
0.261019 0.48840302 -1.9090255 0.38825348 0.21720819 -0.4404208 -0.04228087 -0.009442759
0.14581677 0.05095865 -0.024330249 0.17540185 -1.3067658 -1.3701322 -1.6670344 -1.1554716
3.1853583 2.996707 1.3396628 -2.028534 2.0554638 1.4394311 1.7067144 -0.8784623
-0.95045537 -0.9698112 -0.2782751 -0.33886158 -0.825685 -0.506795 -0.20638421 5.6673727
2.2508168 -2.8606703 2.3390841 2.5691845 1.997624 -1.2245847 -1.1907303 -1.2769314
00000000: 2d73 fd3e 3f3f cc3e 676e 283f 342d e03e
00000010: cc9b dcbf e23f 2c3e e7ed 17bf 9c30 363f
00000020: 8634 6cbe ece6 c8bd 82ac cbbe 28eb 823e
00000030: dc22 ec3e f429 363e dd0a 6d3f 9aaa 813f
00000040: aca5 793f 94f1 873f be94 eebe 3af2 f2c0
00000050: 54a7 debf 8ca1 ff3f 9f74 f6bf 1518 ebbf
00000060: 194a eabf b9e5 803f 5dba aa3f 9fa2 8e3f
00000070: 7b52 15bf 730e 9fbe 6f20 813e 9af0 00bf
00000080: 4a47 1d3f fafc fabf a10a f7bf 1b7e 1d40
00000090: 223b f6bf 3f33 d9bf 93fd c9bf 4812 903f
000000a0: 4c06 983f 436b ba3f ecd0 babe a8c4 763c
000000b0: 6087 e93e c832 9bbd aa83 d83e bce8 48c0
000000c0: 34da e1bf 905f 3f40 c880 09c0 23b4 06c0
000000d0: abf0 dcbf 1d62 943f a8ce b53f 7057 943f
000000e0: 928e 02c0 525f 06c0 4e83 25c0 4ca4 05c0
000000f0: 710d 7440 c22a 0041 8171 fb3f af72 60c0
00000100: b7a7 0240 1554 0e40 625c 0d40 6990 a8bf
00000110: 5738 a0bf 8022 c7bf 7141 43c0 4bfc 40c0
00000120: f1e0 7fc0 1bf0 2ec0 0fbd 0940 e521 4d41
00000130: 8c7a 7c40 6ac4 bfc0 df1c 2240 5836 1a40
00000140: 647e 1340 b9a5 47c0 dbb4 48c0 78c0 4dc0
00000150: b428 ca3c 77ea 5d3c 01d8 ca3e 20a9 693c
00000160: 518f 473f 224a 7dc0 4b03 ddbf 28db fe3f
00000170: 315c d2bf fc91 c8bf 58e9 d8bf c878 413f
00000180: 4f01 5a3f 6d15 883f fbdb a43f eca1 ba3f
00000190: f246 de3f 516b 8e3f b7de 7cbf a8d4 20c1
000001a0: cc46 55c0 e3a7 8240 7275 3cc0 1197 38c0
000001b0: f336 42c0 bef1 f23f 40a0 ff3f c5a2 0840
000001c0: 549d 17bd 38b4 a33c 9416 01bf c12a a6be
000001d0: 7c32 993f e5ef 47bf 1b28 013f f081 33bf
000001e0: 85da 853e b5b8 d53e a373 0b3f 51da c0be
000001f0: 3d09 abbe ab89 77be 0973 483f 526a 623f
00000200: dcf5 d13f e55a cf3e b276 a0bf d6ee ebc0
00000210: 7b84 78c0 2a53 b340 53fb 66c0 caa9 71c0
00000220: e628 56c0 2fe6 0240 3521 1640 dc0e 2240
00000230: fd7a 96bf 59f0 98bf cacc c8bf a666 9fbf
00000240: 53b0 3b40 f468 4040 faeb a43f c53b b2bf
00000250: 6eb4 a13f 1459 933f c52e 893f 4193 27bf
00000260: fbaf 0fbf 633c fabe d354 14c0 5f0a 16c0
00000270: aeb0 2ac0 c685 02c0 c2b5 7040 16a2 f440
00000280: a739 1640 42b0 45c0 e842 fe3f b094 ed3f
00000290: c1e9 f43f 5d2b 9cbf 1f44 bebf 2690 aebf
000002a0: 2340 e8bf e2b7 0ec0 0130 14c0 96a1 07c0
000002b0: 8309 8440 35c9 e140 ec3f d93f fb7e 2dc0
000002c0: cbb1 fe3f 90d6 f93f 8f8f dd3f 04a4 81bf
000002d0: 8122 91bf 318c 84bf 9bf0 ed3e c07e 013f
000002e0: 48a4 853e f60f fa3e f35a f4bf 29c9 c63e
000002f0: d36b 5e3e d67e e1be b52e 2dbd cdb5 1abc
00000300: fe50 153e 04ba 503d 3b50 c7bc 8b9c 333e
00000310: 1a44 a7bf 7e60 afbf 6261 d5bf 7ee6 93bf
00000320: e9dc 4b40 0cca 3f40 127a ab3f 80d3 01c0
00000330: b88c 0340 473f b83f 9e75 da3f e8e2 60bf
00000340: 0b51 73bf 8c45 78bf 137a 8ebe 447f adbe
00000350: 1860 53bf 51bd 01bf 6256 53be 1e5b b540
00000360: 620d 1040 3915 37c0 8eb3 1540 856d 2440
00000370: 25b2 ff3f 31bf 9cbf da69 98bf 7d72 a3bf

fc1.bias f4 [16]
1.099754 1.7667909 -0.5840925 -0.24421051 -4.8375072 -6.3742714 0.52941614 2.7018852
-0.5930688 1.9917676 -2.5196447 -4.5897565 -4.320033 0.9014139 -2.2532833 -0.7791583
00000000: bdc4 8c3f 3426 e23f 1687 15bf 5212 7abe
00000010: dccc 9ac0 08fa cbc0 d187 073f b0eb 2c40
00000020: 5bd3 17bf 3ef2 fe3f dc41 21c0 49df 92c0
00000030: b63d 8ac0 10c3 663f cb35 10c0 eb76 47bf

fc2.weight f4 [4, 16]
-1.3097788 5.6288214 0.95256627 1.4852535 -6.2185054 -5.2686653 3.5599735 3.7197528
1.1143337 2.2541366 -3.601315 -6.835301 -5.8920493 -1.1609114 -2.1266694 -2.854634
1.912514 3.9471424 2.0196207 2.3965595 -5.4422755 -5.2403336 3.7184591 3.515295
-0.48082545 3.2386284 -3.8302288 -6.126796 -4.7952137 -1.7956029 -3.1597483 -2.9819386
6.6558676 2.7528799 -0.34439102 0.030885205 -8.291719 -4.6727347 0.2104237 2.0929327
-2.087466 1.5223426 -8.554799 -9.407228 -8.36283 6.586308 -6.1023498 -0.81304795
1.3405846 3.7525313 2.2324693 2.527429 -5.5023637 -4.842485 3.48896 3.4445295
-0.43457305 3.402884 -3.6956675 -5.626993 -4.6363835 -2.1597686 -3.4846938 -2.879516
00000000: d5a6 a7bf 4e1f b440 62db 733f c91c be3f
00000010: fffd c6c0 e898 a8c0 9bd6 6340 6e10 6e40
00000020: 7da2 8e3f c643 1040 f27b 66c0 c9ba dac0
00000030: ab8b bcc0 bf98 94bf 5a1b 08c0 53b2 36c0
00000040: 42cd f43f fb9d 7c40 7741 0140 3b61 1940
00000050: 1f27 aec0 d0b0 a7c0 3cfb 6d40 98fa 6040
00000060: c12e f6be b045 4f40 7822 75c0 b60e c4c0
00000070: 6472 99c0 51d6 e5bf 5139 4ac0 15d8 3ec0
00000080: defc d440 2f2f 3040 0554 b0be f802 fd3c
00000090: e2aa 04c1 0b87 95c0 4f79 573e 9cf2 0540
000000a0: 0b99 05c0 1fdc c23f 75e0 08c1 0284 16c1
000000b0: 27ce 05c1 09c3 d240 7346 c3c0 e923 50bf
000000c0: 4798 ab3f 7929 7040 c7e0 0e40 66c1 2140
000000d0: 5d13 b0c0 a3f5 9ac0 1f4b 5f40 2c73 5c40
000000e0: 5c80 debe dac8 5940 d185 6cc0 5410 b4c0
000000f0: 415d 94c0 a639 0ac0 3905 5fc0 fd49 38c0

fc2.bias f4 [4]
0.34726736 0.55265516 1.6130326 0.0020648804
00000000: 07cd b13e cf7a 0d3f da77 ce3f f252 073b
