PythonFiles/brains/trained_q_network.pth (torch, 3360 bytes, 4 tensors)

fc1.weight f4 [16, 14]
00000000: 5905 27c1 dc16 2dc1 bf1a 4bc1 530d 22c1
00000010: 255b 3940 c488 be40 ea19 8140 5b09 4ec0
00000020: 3cc2 ae3f 1fa4 0240 ee5b b63f 6a6b 23c1
00000030: e6d2 15c1 d333 22c1 8647 a8c0 438d b4c0
00000040: 4525 e7c0 f763 a3c0 d7a6 5d40 5e00 cb3f
00000050: cd7c 3c40 9d04 2ec0 d26c ca3f ccb7 633f
00000060: 6e8b 963f 2e65 87c0 6d00 7ac0 0d60 77c0
00000070: 97d8 90c0 d428 90c0 c0a3 b4c0 377e 92c0
00000080: ebb2 0e3d 0f1b 8941 61a7 2c40 3f7b 7ac0
00000090: 0d2e da3f e18f 0f40 22b4 c33f d2c4 8ec0
000000a0: 5122 8bc0 9bc4 95c0 9040 b9c1 89d2 c1c1
000000b0: 376e e8c1 19cf b5c1 7414 b3c0 dc7b 2141
000000c0: 9c67 3441 7fcc 0ac1 e38b c33f 8f7f e13f
000000d0: 7b5f cd3f 2e6f d4c1 6514 c3c1 7358 cec1
000000e0: 97a3 02c1 7a06 09c1 e68a 51c1 c1e6 fec0
000000f0: d0ab 073f 62aa 31bf d8f9 8040 e4ff a8bf
00000100: ecf5 e13f 568c 773f 7387 d83f 6054 11c1
00000110: d663 03c1 e930 0ec1 de9c 67c0 3b1b 68c0
00000120: 5528 99c0 98be 62c0 5a56 7c40 116b 8b40
00000130: a8c2 b63f c6d0 f5bf 3e1f bb3f 0ca3 9b3f
00000140: 2eb8 ad3f ad90 31c0 c106 16c0 df85 1ec0
00000150: bf73 36c0 c43d 46c0 6c1f 98c0 7fb3 29c0
00000160: 7f55 07c0 ce75 2541 a9a6 2540 ebd5 2fc0
00000170: 02f1 1540 9aaa 1d40 c3b8 0540 2652 76c0
00000180: 9a63 75c0 e499 80c0 89a0 3a41 fd51 4041
00000190: 23a4 6a41 af39 3941 8e7e 88bf 33cf 84c0
000001a0: 5b53 44c0 8c69 dd3f 094d c3be 1eb8 eebf
000001b0: 9c1b 70bf 0628 4741 c621 3241 dad5 4741
000001c0: 16bd 933f a1cb 7a3f 9aaa 2f3e 784a 613f
000001d0: 68cb 3bbf 5a52 5fc1 9a53 7c3f 4c81 9d3f
000001e0: 78fa 8a3f f92b fc3e 5297 943f 3fdd b8be
000001f0: 3f35 5fbe c833 a2be 2a62 663f 10ea 463f
00000200: 16cb 993f ea8f 173f 3bb3 5e40 246f ccc0
00000210: 7da3 fbbe 1ba7 713f 9c8c 07bf 428a 31bf
00000220: 9c84 04bf 6588 b53f 8554 553f fc0a 923f
00000230: c7b2 9641 1f0b 9b41 fc88 d741 2a7b 9241
00000240: 3414 1b40 4597 edc0 f322 25c1 cfc0 f840
00000250: 83d9 19c0 9501 0ac0 df88 09c0 dea5 b541
00000260: d066 9e41 fa48 ab41 dee8 5040 0dff 6740
00000270: 8f29 7f40 f42e 4c40 3174 7fc0 a54d c7c0
00000280: a5de babf 7f3c ce3f 6b98 8abf 26f8 9abf
00000290: 0b58 6dbf 31de 0440 c7e8 e13f fa22 0540
000002a0: 8fae 39c0 00e3 51c0 84df 8fc0 2b22 3dc0
000002b0: 60e0 9ac0 4d8f a4bd 3c35 3640 91ce c6bd
000002c0: d968 0b40 7dc1 1e40 1b6a 1640 f8a1 adc0
000002d0: 9012 a9c0 5be8 adc0 a4d8 a240 1265 b440
000002e0: 0bd3 0041 324d 9b40 fd6e 7e3f b692 3f40
000002f0: 3627 acc0 98d7 e23f 9a42 11c0 b581 70bf
00000300: 7fb1 18c0 8cfb d040 59a6 a940 fbf0 c340
00000310: f1b5 0dbf 8015 6abf d1e4 a3bf c256 39bf
00000320: d708 87c0 ff49 6abf 2ff8 9d3f ea94 a5be
00000330: 5fe6 683f 6be7 6b3f b760 313f ee68 f0bf
00000340: fc4c e6bf e475 06c0 d2e8 7c41 afc1 8341
00000350: e19a b741 0f13 7941 f78f 9c40 f523 eac0
00000360: c69d 90c0 d5f6 5440 21d2 603e c7ac 55bf
00000370: ea0e afbe 41eb 9941 5ccd 8241 a91b 9741
-10.438806 -10.818081 -12.69403 -10.128253 2.896188 5.954195 4.0344133 -3.219321
1.3653026 2.0412672 1.4246805 -10.213724 -9.363989 -10.137652 -5.258731 -5.642244
-7.2232995 -5.1059527 3.463308 1.5859487 2.9451172 -2.7190316 1.5814459 0.88952327
1.17613 -4.231101 -3.906276 -3.8652375 -4.526439 -4.504984 -5.644989 -4.577907
0.0348386 17.138212 2.697716 -3.9137723 1.7045304 2.2431567 1.5289347 -4.461526
-4.347939 -4.6802497 -23.156525 -24.2278 -29.053816 -22.726122 -5.5962467 10.092739
11.275295 -8.674926 1.5277065 1.7617053 1.6044763 -26.554287 -24.384958 -25.793188
-8.164939 -8.564081 -13.096411 -7.965668 0.5299654 -0.6940061 4.0304985 -1.3203092
1.7653174 0.9669851 1.6916336 -9.083099 -8.211874 -8.886941 -3.6189494 -3.626662
-4.7861733 -3.542883 3.9427705 4.3568196 1.4278154 -1.9204338 1.4618909 1.2159133
1.3571832 -2.7744553 -2.3441622 -2.4769208 -2.8508146 -3.0975199 -4.7538357 -2.6515806
-2.1145933 10.341261 2.5882971 -2.7474315 2.342835 2.4635377 2.089402 -3.848764
-3.8342042 -4.0187855 11.664193 12.020017 14.665072 11.576583 -1.0663621 -4.150293
-3.0675876 1.7297835 -0.3814471 -1.8649938 -0.9379213 12.447271 11.133245 12.48971
1.154208 0.97966963 0.17154923 0.88004255 -0.7335725 -13.957605 0.98565066 1.2305083
1.0857687 0.49252298 1.1608679 -0.36106297 -0.21797656 -0.3168013 0.89993536 0.777009
1.2015102 0.5920397 3.4796894 -6.388567 -0.4914817 0.9439561 -0.5294893 -0.6935159
-0.51764846 1.4182249 0.8333209 1.1409602 18.837294 19.38043 26.941887 18.310139
2.423108 -7.4247155 -10.321033 7.773536 -2.4039009 -2.1563466 -2.148979 22.70599
19.800201 21.410633 3.264213 3.624942 3.9869115 3.1903658 -3.9914668 -6.228228
-1.4599196 1.6112212 -1.0827764 -1.2106979 -0.9271247 2.0760615 1.7649163 2.0802598
-2.9012792 -3.27948 -4.4960346 -2.9552104 -4.8398895 -0.08035145 2.8469992 -0.09707368
2.1782744 2.4805596 2.3502262 -5.4260216 -5.283516 -5.4346137 5.0889454 5.6373377
8.051524 4.8531733 0.99388105 2.9933295 -5.3797865 1.7722044 -2.26969 -0.9394792
-2.3858335 6.5307064 5.301556 6.1231666 -0.55355746 -0.91439056 -1.2804204 -0.72398007
-4.219829 -0.9151916 1.2341365 -0.32340175 0.9097652 0.9214999 0.692882 -1.8782022
-1.7992244 -2.1009455 15.806841 16.469572 22.950624 15.567153 4.892574 -7.3168893
-4.5192595 3.3275654 0.21955158 -0.8346676 -0.34191066 19.23987 16.350273 18.888506

fc1.bias f4 [16]
00000000: 2101 b3c1 b449 43c1 4dfe 0ec1 3d01 41c2
00000010: 33df 96c1 1812 09c1 739d d2c0 c76a c941
00000020: 6936 c03f b918 db3f 77c5 2542 cffd f940
00000030: 2e9d c9c0 b355 3e41 de36 abbf 9fde 0c42
-22.375551 -12.205494 -8.937085 -48.25121 -18.858984 -8.566917 -6.58172 25.177137
1.5016605 1.711692 41.442837 7.8122325 -6.300437 11.895923 -1.3376119 35.217403

fc2.weight f4 [4, 16]
00000000: 62f0 04c1 81c7 b0c0 b3b6 12c1 1251 dcc0
00000010: 22aa 93c0 19a2 d2c0 f559 d0c0 c04f 0441
00000020: 8987 3041 31c6 e240 d9a0 c940 2e2f e740
00000030: 43c4 9bc0 dcde 4040 b2f2 a6c0 1929 f340
00000040: afb0 fcc0 9610 f3c0 45c4 c8c0 a314 ebc0
00000050: 5d71 bac0 f92f f9c0 cddc 8bc0 9612 ed40
00000060: ae6b 8740 2136 7440 3b16 ea40 990a 0641
00000070: 0df1 47c0 2920 ac40 967f 28c0 3c1c d740
00000080: ae81 21c1 62e5 18c1 93b5 adc0 e710 c9c0
00000090: a129 e1c0 a12c 47c1 b48e 13c0 aa3d 1c41
000000a0: 44b7 8240 8fa5 32c0 f79d de40 45c9 5441
000000b0: 54ca 6ebf 702a 9c40 1d02 1e40 435d c240
000000c0: 9d1b bfc0 c853 7ac0 e58d a8bf 641e 0bc1
000000d0: 43c2 d4c0 30c1 17c0 d57f f1bf a950 d740
000000e0: 8467 03c1 33a4 923f 6cfa 0c41 4b54 a23f
000000f0: fe21 cec0 0385 f440 9696 81c0 231b d340
-8.308687 -5.5243535 -9.169604 -6.8848963 -4.614518 -6.5822873 -6.510981 8.26947
11.03309 7.0866933 6.3008847 7.2245092 -4.8677077 3.0136023 -5.217126 7.598767
-7.896568 -7.5957747 -6.2739587 -7.346269 -5.8263383 -7.787106 -4.370703 7.408519
4.2318945 3.8158038 7.3152137 8.377587 -3.1240876 5.378926 -2.6327872 6.7221966
-10.09416 -9.556002 -5.428415 -6.2833133 -7.0363317 -12.448396 -2.305585 9.765055
4.0848713 -2.791355 6.956783 13.299138 -0.9327748 4.8801804 2.468879 6.0738845
-5.972121 -3.9113636 -1.3168303 -8.69492 -6.6487136 -2.3711662 -1.8867136 6.728596
-8.212772 1.145636 8.811138 1.2681974 -6.4416494 7.641237 -4.049632 6.5970626

fc2.bias f4 [4]
00000000: 7102 b73f 721a 6140 c2cb 6140 6868 8140
1.429762 3.517239 3.5280614 4.043995
