PythonFiles/brains/trained_q_network.pth (torch, 4192 bytes, 4 tensors)

fc1.weight f4 [28, 14]
000000 6d 15 14 3e ac 70 37 3d c0 a1 14 3d e4 25 9d 3d
       0.14461298 0.044785187 0.03628707 0.07673243
000010 36 af 16 3e 0e fe e1 3d 27 0e 9c be b4 82 86 be
       0.14715275 0.11034785 -0.30479547 -0.26271594
000020 4e 62 4b be 65 5a ed 3d cd 2c 27 3e f4 57 58 be
       -0.19861719 0.11589507 0.16325684 -0.21127301
000030 4a 88 1f 3d 8b 4b a9 3d eb 6e e7 3d 7a df 84 3e
       0.038948335 0.08266362 0.11300453 0.2595175
000040 a1 fd 96 3e 1a 97 4d 3e df 4f 44 40 31 a1 45 40
       0.29490378 0.20077172 3.067375 3.0879633
000050 9e 2a af 3f ae ac 4c 3f a2 07 16 bf 68 30 d2 be
       1.3684881 0.7995099 -0.58605397 -0.41052556
000060 c5 9a 69 be 71 11 08 3f 55 ee 66 3d 52 d0 0a 3f
       -0.22812946 0.53151613 0.056379635 0.5422412
000070 33 79 68 ba 70 7f dd 3d 78 79 13 3e 96 83 6b 3c
       -0.0008868158 0.108153224 0.14401805 0.014374634
000080 c5 9b 5e 3f 1d 72 70 bf 59 52 76 3d cd 9a 15 3e
       0.86956435 -0.93924123 0.060137127 0.14609833
000090 db 93 65 3e 9c 47 9e bd 7c 65 87 3e 52 e8 e4 3d
       0.22419684 -0.07728502 0.26444614 0.11177124
0000a0 2e bb 91 3e b2 12 2a be c6 52 7b be d3 c0 a5 bd
       0.2846312 -0.16608694 -0.24543294 -0.08093419
0000b0 d3 69 7b be 9b 41 a7 bd 42 ee 39 be 36 a6 60 3d
       -0.24552087 -0.0816681 -0.18157294 0.05484601
0000c0 1d fd a2 3c 6d d4 50 bd 26 85 65 3e a1 57 81 be
       0.019896084 -0.050983835 0.22414073 -0.25262168
0000d0 e2 28 49 3c e7 60 53 3e e9 b9 80 3c 17 d3 47 be
       0.012277814 0.20642434 0.015713649 -0.19514118
0000e0 15 03 ab 3e 9a f9 63 3e 73 d6 b6 3e 5e 9c bd 3e
       0.3340079 0.22263184 0.35710487 0.3703336
0000f0 ed e8 4f 40 1d c3 4a 40 5b 25 9d 3f 9e 66 4c 3f
       3.2485917 3.1681588 1.2277025 0.7984408
000100 73 b8 0c bf c7 01 36 bf 66 7d 08 bf 29 3a f2 3c
       -0.5496895 -0.7109646 -0.5331634 0.029568749
000110 08 db e9 bd 67 d9 3b bd 71 83 65 3d 90 04 a3 3d
       -0.1141873 -0.045861628 0.056033555 0.079598546
000120 8f b6 d6 3e bd 2e b5 3e 35 54 61 40 48 5a 56 40
       0.41936156 0.3538722 3.5207646 3.3492603
000130 fc 3c ba 3f 00 37 88 3f 80 0a fe be 8f c8 11 bf
       1.4549861 1.0641785 -0.49617386 -0.56946653
000140 29 ee ae be 08 cc cb 3e 50 37 39 3f ff 15 b4 3e
       -0.34166077 0.398041 0.72350025 0.35173032
000150 4a a5 0b 3e ba 5e e9 3d 47 91 3e 3e 6a fe 12 be
       0.13637272 0.11395021 0.18610106 -0.14354864
000160 03 92 36 3d 10 17 b8 3d 2b ee 68 be cc 70 48 be
       0.04457284 0.08988774 -0.22747104 -0.19574279
000170 0c 6e 66 3d a7 19 7a be bc e8 85 bc 78 51 10 bd
       0.056257293 -0.24423848 -0.016346328 -0.035233945
000180 d6 72 2c be 9a 56 23 3e 18 30 09 3f f7 69 b9 3d
       -0.16840681 0.15951005 0.5358901 0.09053414
000190 e1 ce 17 3f df cf c3 3e 8f 86 0a 40 bf ed c3 3f
       0.5930005 0.3824453 2.1644628 1.5306929
0001a0 3d 28 82 3f d8 31 15 3f 8d dd 8d be c1 01 b5 be
       1.016853 0.5827918 -0.27708092 -0.353529
0001b0 8a c4 96 be 8a b2 f9 3e 68 31 8f 3e 06 83 01 3f
       -0.29446822 0.48769027 0.2796738 0.5059055
0001c0 9f 97 79 3e d7 40 1f 3e 32 d6 6f bb 6a b4 26 bc
       0.24374245 0.15552078 -0.0036596176 -0.01017485
0001d0 f8 02 07 40 a2 43 30 40 78 70 47 3f 21 8e c4 3e
       2.1095562 2.754128 0.7790599 0.38389686
0001e0 5a 07 8d be 96 9e 64 bd 80 24 67 be 15 1e 57 3e
       -0.2754467 -0.0558153 -0.22572517 0.21007569
0001f0 cc e7 14 3d ca 54 14 3f a2 6e b3 3d c5 41 30 bc
       0.03635387 0.5794188 0.08761336 -0.010757868
000200 93 68 d4 bd 96 97 8c 3e 1a 5d d9 3e 42 41 10 40
       -0.103715084 0.274594 0.42453843 2.253983
000210 2a f4 98 3e 47 78 08 3e 62 4d 77 3d b2 02 53 3d
       0.29873782 0.13327132 0.060376532 0.051516242
000220 45 98 69 3d a2 cd e8 3d 5e 47 5a 3e 3c 67 0f 3e
       0.05702998 0.11367346 0.21316287 0.14004225
000230 98 e8 a9 3e fb e4 90 3e 1e 80 2b 3e ef 9e b6 3e
       0.33185267 0.28299698 0.16748092 0.35668132
000240 fa 5e 1e bf ea a4 70 bf 63 62 b8 3e e2 23 05 3e
       -0.6186367 -0.9400164 0.36012563 0.1300197
000250 d5 85 bd bd 1c 30 31 be e8 cc a1 bd 89 13 34 3e
       -0.09254042 -0.17303509 -0.07900411 0.17585577
000260 b6 c1 6e bd da f6 8a 3d 3c 8c 79 3d 64 28 50 3e
       -0.058290206 0.067853644 0.060924754 0.20327908
000270 78 b4 33 3d 2c 6c 45 bc 07 ea bb 3c 18 59 fc 3f
       0.04387328 -0.012049716 0.022938741 1.9714689
000280 26 85 d9 3e 1d 1f 25 3e 4b 95 a1 be b8 07 47 be
       0.42484397 0.1612515 -0.31559214 -0.19436538
000290 9b 81 8d be 1e db 2c 3e 96 23 c5 3d 51 cc af bd
       -0.27637944 0.16880462 0.09625928 -0.08583892
0002a0 30 03 7c 3e 6a bd 39 3e 57 f4 95 3e 96 73 64 3e
       0.24610591 0.18138662 0.2928798 0.22309718
0002b0 36 9d c0 be 38 3e 89 bf e1 55 0e 3f 6f c3 05 3f
       -0.37619942 -1.0722113 0.5559979 0.52251333
0002c0 4b 0d 39 be a5 24 01 be 87 8c 3d 3d 34 00 9e bd
       -0.18071477 -0.12611635 0.046276595 -0.077148825
0002d0 19 fe e6 bc 4f ba 97 bd ea 26 08 3e d8 09 2e be
       -0.028197335 -0.074085824 0.13296095 -0.16995943
0002e0 6d 60 2b 3e 83 c0 0f be 36 c0 c6 3d b3 53 16 3e
       0.16736002 -0.14038281 0.0970463 0.14680366
0002f0 04 01 9e be eb f3 66 bd 16 2c b1 bd 70 f0 1f be
       -0.3086015 -0.056384962 -0.08650987 -0.15619063
000300 39 73 18 be 12 92 02 be c2 a0 48 be fe af 04 be
       -0.14887704 -0.12751034 -0.19592574 -0.1295776
000310 ae f4 e6 3e 97 bb be 3e 60 ed b5 3e 36 97 d4 3e
       0.4510855 0.37252495 0.35532665 0.41521615
000320 a3 33 d1 bf 85 e4 d1 bf 6c 86 78 3e 8d 75 e3 3e
       -1.6343883 -1.6397864 0.24270028 0.44425622
000330 56 cd f2 3e 4a 55 50 3e 75 db c1 3e ca 87 e5 3e
       0.47422284 0.20345035 0.37862745 0.4483016
000340 85 30 0f 3e 88 86 bd 3e 80 17 89 3e 18 27 32 3e
       0.13983352 0.37016702 0.26775742 0.17397726
000350 4f b8 cd 3e 22 74 e4 3e 80 6b 59 40 22 f5 4e 40
       0.4017968 0.44619852 3.3971863 3.2337117
000360 51 d1 d5 3f 6e dd 77 3f 52 a9 10 bf ae e3 23 bf
       1.6704503 0.9682225 -0.5650836 -0.64019287
000370 48 44 f9 be ba df e7 3e 3c 8b a4 3e 06 e4 1c 3f
       -0.48684907 0.45287877 0.32137477 0.61285436
000380 0d 2f 53 3e dd 76 1a 3e 47 d8 83 3e 73 a6 80 3e
       0.20623417 0.15084405 0.25750944 0.2512699
000390 de 91 c9 3d 0e 03 9f bf 4b 33 16 3f 8b 9d ee 3e
       0.09842275 -1.2422807 0.58672017 0.4660457
0003a0 b5 fb 05 3e 0c df 37 3d 8e 74 41 be 1f c3 6d 3d
       0.130843 0.04489045 -0.18892118 0.05804741
0003b0 6b cc 54 3e 85 f7 aa 3d ac 74 0a 3f 6d 31 d8 3e
       0.20781104 0.08347992 0.5408428 0.4222521
0003c0 a8 ef cd 3e 7e 43 9f 3d 52 9b 49 40 c2 c0 32 40
       0.40221906 0.07776545 3.150105 2.793015
0003d0 14 a0 96 3f 2f 87 7b 3f b7 38 35 bf ce a7 3e be
       1.1767602 0.9825315 -0.70789665 -0.186187
0003e0 a2 1c a9 be bb 91 d9 3d af 51 d5 3e f4 2f 93 3e
       -0.33029658 0.10623499 0.41663882 0.28747523
0003f0 2d b7 82 3c 25 3e 3b be b5 e5 2a 3d 4b d9 9b bc
       0.015956486 -0.18285425 0.041722972 -0.019024512

fc1.bias f4 [28]
000000 7a 96 a4 be 81 46 b2 3e 58 3c b9 3e 99 8e 5b be
       -0.32146055 0.34819415 0.3617885 -0.21441115
000010 3a d9 1f 3f d3 8b 21 3f 6f 62 9a be c9 a9 93 3e
       0.62440836 0.6310398 -0.30153224 0.28840473
000020 81 f4 df 3e 8f 75 da 3e 80 ab c7 3e a7 87 36 3e
       0.4374123 0.42667815 0.38998032 0.17825185
000030 95 85 b4 3e 1c 09 48 be c6 a1 33 3f 2b 22 63 3f
       0.35258165 -0.19534725 0.7016872 0.8872401
000040 88 81 a0 3e 37 60 1f 3f f8 de cd 3d 19 dd 3d 3e
       0.31348825 0.6225619 0.100522935 0.18541373
000050 8a 37 4d 3e e5 31 a0 3e 43 86 af 3e c9 23 8a 3e
       0.20040718 0.31288067 0.3428212 0.26980427
000060 89 1b 5e be 82 bb 83 3f 5f c7 3a be 69 45 b2 3e
       -0.21690191 1.0291598 -0.18240117 0.3481858

fc2.weight f4 [4, 28]
000000 16 69 2c 3d 04 db bb 3f b4 3b 0b bf 58 68 7c bd
       0.042092405 1.4676213 -0.54387975 -0.061622947
000010 11 4c 91 3f 34 68 5d 3f 9e 8b 67 bd 65 9e 11 3f
       1.1351339 0.86487126 -0.056529634 0.56882316
000020 5e ca de 3f 7f 79 b5 3f d5 51 4e bf ad fd 90 3f
       1.7405508 1.4177703 -0.80593616 1.1327416
000030 c0 dd 8a bf ae e9 d0 3c 1a a4 d4 be 52 6e a0 3f
       -1.0848923 0.025502052 -0.4153145 1.2533667
000040 2f 74 9e bf b0 32 8d 3f 24 d6 2f be 57 ae a0 bd
       -1.2379206 1.1031094 -0.17171532 -0.07845753
000050 82 ef 81 bd c8 e8 2b 3f 4e 74 ab 3f 1a 1c 2c 3e
       -0.063445106 0.6715207 1.3394868 0.16807595
000060 7f 7e 7c bb 35 50 04 bf e4 e8 e3 3d 44 61 6b bf
       -0.0038527546 -0.51684886 0.11128405 -0.9194529
000070 3f 7e 8b 3d b6 8c 98 3f 45 c9 53 bd 83 b3 86 3d
       0.06811189 1.1917942 -0.051705617 0.06577208
000080 0e f6 75 3f e8 13 91 3f fe a7 46 bd 30 39 36 3f
       0.96078575 1.13342 -0.048500054 0.7118101
000090 8c 2b 97 3f 80 74 f4 3e 2e 1d 06 be 37 df 51 3f
       1.1810164 0.47745132 -0.13097069 0.81981224
0000a0 97 7d a2 bd 68 8c 18 be 5e c2 0b bf 6f 3c 91 3f
       -0.079341106 -0.1489731 -0.54593456 1.1346568
0000b0 ba 78 90 3d e4 f0 53 3f 1b 4d 5f 3f ee 66 cc be
       0.07054277 0.82789445 0.8722703 -0.3992228
0000c0 5f e4 2f 3f a6 44 5a 3f 43 30 97 3f 3c ff 3a bf
       0.6870784 0.85261 1.1811603 -0.73045707
0000d0 17 67 e7 3d 94 a8 30 bf 51 34 ee 3c 3a 48 1a be
       0.1129896 -0.6900723 0.02907768 -0.15066615
0000e0 02 10 f1 bc 62 43 95 3f eb c2 33 3f 67 01 10 be
       -0.029426578 1.1661189 0.70219296 -0.14063035
0000f0 ce e6 7f 3f c3 a0 a5 3f d5 4b 0c 3e f5 77 36 3f
       0.99961555 1.2939686 0.13700803 0.7127679
000100 76 5f 8b 3f 87 f2 a4 3e e6 90 da be d2 ea 17 be
       1.0888507 0.32216284 -0.42688674 -0.1483567
000110 0b 12 c2 be ca 61 31 3e e0 c5 b8 bf c5 98 9b 3f
       -0.3790439 0.1732246 -1.4435387 1.2155997
000120 94 2f c8 bb e7 b0 8f 3f 5e a4 a3 3f 9b 59 40 3e
       -0.0061091874 1.1225861 1.2784536 0.18784182
000130 18 f4 77 3f cc 53 92 3f 30 ba 76 3f e6 72 d9 3d
       0.9685683 1.1431823 0.9637785 0.10617618
000140 fa d0 dc 3d 97 5a 4a bf 09 da 8c ba 5b a4 2a bd
       0.107820466 -0.7904448 -0.0010746132 -0.041660648
000150 9b 89 28 be e8 7c a0 3f d6 a5 97 3b 58 45 34 3e
       -0.16458742 1.2538118 0.0046279235 0.17604578
000160 b3 85 a1 3f de 59 84 3f 84 64 c0 3d bf 4a 2a 3f
       1.2618927 1.0339925 0.09394172 0.66520303
000170 c7 90 74 3f bf 3e f8 3e e3 53 80 be 0f 30 4a 3f
       0.9553341 0.4848537 -0.25064 0.7897958
000180 56 46 15 3d 24 d5 18 3e ac ce 44 bf 37 45 8a 3f
       0.03644403 0.14925057 -0.76877856 1.0802373
000190 0a e1 01 be 8f 1f 83 3f bd e1 79 3f eb 12 21 be
       -0.12683502 1.0244006 0.97610074 -0.15729873
0001a0 69 ca 30 3f eb 28 1d 3f 70 16 89 3f 45 47 d7 be
       0.69058853 0.6139056 1.0709972 -0.42046562
0001b0 84 ee de 3d a8 cf 27 bf af 65 60 3b fa 5b 8e be
       0.10885337 -0.65551233 0.0034240296 -0.27804548

fc2.bias f4 [4]
000000 47 62 87 3e 79 a7 cc 3c ae e4 3d 3e d9 80 17 bd
       0.26442167 0.024982201 0.18544266 -0.036988113
