PythonFiles/brains/trained_q_network.pth (torch, 4192 bytes, 4 tensors)

fc1.weight f4 [28, 14]
000000 8b 56 ef bd 3b e7 81 bd 7b 49 11 be b6 68 12 be
       -0.11686429 -0.06342932 -0.14188187 -0.14297757
000010 ac 77 4b 3d 5c d7 9e 3b 5c 5b fd bd 22 2a e0 3d
       0.049674675 0.00484745 -0.12370941 0.10945536
000020 6b fd cd 3d 3e f8 e3 bc 35 06 5d bd 86 dd f0 3d
       0.10058101 -0.027828332 -0.053960998 0.11761002
000030 a0 5e 71 be a8 b4 56 3d 29 5c 4f 3d 86 39 88 3e
       -0.23571253 0.05241838 0.050625 0.26606387
000040 69 3f df bd 10 8f 68 be e9 93 4c bd c6 b0 d7 bd
       -0.109007664 -0.22710824 -0.049945746 -0.10531764
000050 12 2f 87 be 43 e0 2e bd 46 5b 3d be 2d ff 72 be
       -0.264031 -0.04269434 -0.1849185 -0.23730154
000060 eb 6b 2a be c0 12 6d bc 73 20 90 3d 4d be 90 bc
       -0.1664273 -0.014469802 0.07037439 -0.017668867
000070 a3 98 74 bd 86 57 71 be 6b 71 36 3e d6 d2 06 be
       -0.05971588 -0.23568544 0.17816703 -0.13166365
000080 c3 c3 16 bd 78 f7 db bd 84 14 51 be ce 13 83 be
       -0.036807787 -0.1074056 -0.20417982 -0.25601047
000090 26 a0 7f 3e 3d 77 0c be 8f 08 ec 3a b5 15 36 be
       0.24963436 -0.13717361 0.0018007922 -0.17781718
0000a0 c3 f0 dd 3c d2 41 22 bd 5c 1b 43 3e d0 18 53 3e
       0.027092343 -0.039613552 0.19053406 0.20614934
0000b0 59 e4 cf bd b2 41 0c 3e 71 77 e7 bb 61 2b 03 be
       -0.10150976 0.13696936 -0.007063799 -0.12809516
0000c0 db ef a6 3c 46 c5 0d 3e 62 b7 80 be bb 26 92 bd
       0.020378044 0.13844785 -0.2513991 -0.071362935
0000d0 8b 61 52 bc 86 6b 2d 3e 10 4b 1b be 04 a5 c7 bd
       -0.012840639 0.16935548 -0.15165353 -0.09748271
0000e0 77 66 f4 3d 6d 0e 1e be 31 79 75 3d b5 6f 50 3e
       0.11933606 -0.1543519 0.05993003 0.20355113
0000f0 8b 77 2b 3e 10 b6 46 3e b1 74 0f 3e 78 79 76 3d
       0.16744821 0.19405389 0.14009358 0.060174435
000100 f1 60 13 3e b6 cc f2 3d 2f 04 6a bd 25 bd 0c be
       0.14392449 0.11855452 -0.057132896 -0.13744028
000110 07 bd d7 bd 85 5d f7 bd d7 31 ab bd 89 48 88 be
       -0.10534101 -0.12078384 -0.083591156 -0.2661784
000120 ef f7 f8 bd a4 cf ca bc 8e c4 12 3e 0a 12 3b be
       -0.121566646 -0.024757214 0.14332792 -0.182686
000130 41 57 dc bd d3 8b 77 3d 13 67 36 3e bd cb d2 3c
       -0.1075883 0.06043608 0.17812757 0.025731916
000140 81 14 6d be 17 33 06 3e 79 64 48 be 10 3d d9 3c
       -0.23152353 0.13105427 -0.19569577 0.026518375
000150 95 8b cb bb ca 3d 88 bc ca 3f 09 3e 2b fd 4c be
       -0.006211708 -0.016631026 0.1340324 -0.20018451
000160 4c c3 85 3d 00 75 db 3d 61 1d 23 3e 52 08 49 be
       0.065313905 0.10715675 0.15929176 -0.1963208
000170 b9 2a 99 bd 21 60 05 bd a9 52 51 bd 00 9d c3 bc
       -0.07478852 -0.03256238 -0.05110422 -0.023878574
000180 64 07 1d be dd d9 49 3e dd a5 0a 3e 8b 5e 9a bc
       -0.1533485 0.19712014 0.13539834 -0.01884391
000190 14 d9 02 bd 0b cb 21 be bc b8 4b be 8b 6e 2b be
       -0.031945303 -0.15800111 -0.1989469 -0.16741388
0001a0 88 83 e9 3d 8c a2 64 bd 3d af 15 3e c3 7d 16 3e
       0.11402041 -0.05581908 0.1461763 0.14696412
0001b0 f2 c0 97 3d d5 cd 4c be 85 e3 84 3e 8d 11 3b be
       0.07409848 -0.20000394 0.25954834 -0.18268414
0001c0 c8 7a 94 bc 14 4d 61 be f2 ed 7d 3b 93 1d 2d 3e
       -0.018124953 -0.22002059 0.0038746563 0.16905813
0001d0 e5 95 cc bc c1 7a 98 3d 85 40 1b be 60 5f 38 3e
       -0.024973819 0.074452884 -0.15161331 0.18005133
0001e0 2f 5a 08 3e 76 38 80 bd 1e d8 6b bd 3e 38 f7 3d
       0.13315652 -0.06260769 -0.057579152 0.12071274
0001f0 bd 2f 83 be ea c3 29 3e c4 a9 fb 3d bb 46 3c be
       -0.2562236 0.16578642 0.122882396 -0.18386357
000200 13 33 eb bc f2 76 27 be bc 3d db 3d d6 98 06 be
       -0.028710878 -0.16353968 0.10705134 -0.1314424
000210 a3 a8 8b bd 76 83 5a be 21 36 e4 3d 1d 28 b6 3d
       -0.06819274 -0.21339211 0.11143137 0.0889437
000220 64 df f0 bd 0f 5a 84 3e 35 d3 80 3e b7 23 09 be
       -0.117613584 0.2584996 0.25161138 -0.1339253
000230 eb ca 32 be f4 04 0e 3b 0c f5 53 3e 52 5b cf bd
       -0.1746022 0.0021670433 0.20698947 -0.1012484
000240 70 e5 3f bc 75 ea 42 be ed 2f 80 3e 88 f1 95 be
       -0.011712417 -0.19034751 0.25036564 -0.29285836
000250 1b bd d7 bd f6 73 87 bd 09 aa 46 be 56 bf 37 bd
       -0.10534116 -0.06613915 -0.19400801 -0.044860207
000260 ef c9 2c 3c ac cd 3b 3e 0e 84 62 be 56 b8 e7 bd
       0.010546192 0.18340176 -0.22120687 -0.11314456
000270 9f 23 48 3e 40 37 dc bd 55 c4 6f be 78 1f 70 be
       0.19544838 -0.107527256 -0.23414738 -0.23449504
000280 c9 60 23 be ce eb 1e 3e c2 46 52 3e 01 7e 0f be
       -0.1595489 0.1551964 0.20534804 -0.1401291
000290 00 0b 2d be a1 36 1f bc 44 2f 7f 3c 99 bc b8 3d
       -0.16898727 -0.009717614 0.015575234 0.09020347
0002a0 4d 51 f7 bd a2 a7 2d be 29 60 c8 bd b3 e5 53 3d
       -0.12076054 -0.16958478 -0.09783966 0.05173273
0002b0 3b ec 17 3e e7 ca fd 3c 1a 71 0c 3c 53 8a b3 3d
       0.14836209 0.03098054 0.008571887 0.087666176
0002c0 d8 0a 4d be a7 43 19 be e9 8f 0b 3e 4a 56 5f be
       -0.20023668 -0.14967214 0.13629116 -0.2181026
0002d0 61 95 a1 3d 96 9e fb 3d 15 0d 5c be 3f c5 6c 3e
       0.0788982 0.12286107 -0.21489365 0.23122118
0002e0 66 20 88 be 74 da 54 3d c8 26 84 bd f7 2d cc bd
       -0.26587218 0.051966146 -0.064527094 -0.099697046
0002f0 dc 43 ce bc 09 50 e8 3d 6f 66 53 be 90 31 b2 3d
       -0.025178842 0.113433905 -0.20644544 0.087008595
000300 54 fc 6f be 81 d0 b6 bd 03 a8 73 ba a2 2e 9e bd
       -0.234361 -0.08926488 -0.000929475 -0.07723738
000310 49 49 c0 bb 5f 4b 0b 3d fb 08 df bb 88 5c 6a 3d
       -0.0058681113 0.034007426 -0.0068064905 0.05721715
000320 81 20 62 3d 72 2e 09 be 5a bf 28 be 6e 56 96 3c
       0.05520678 -0.13396624 -0.16479245 0.01835176
000330 99 81 25 bc 88 0b 25 be 5c a2 83 3e 78 7c 9d bd
       -0.010101699 -0.1611768 0.25709808 -0.07689756
000340 ad 7a 0a be 23 b8 96 bd 96 73 88 3d 96 40 59 3c
       -0.1352336 -0.0735934 0.06662671 0.013260027
000350 ba 6b 76 3e 44 22 58 bb 2e be 4f bd 7f 90 64 3e
       0.24064532 -0.0032979408 -0.05071848 0.22320746
000360 ef 45 08 3e 79 72 36 be 3d cb c9 3c be 92 f2 3d
       0.13307928 -0.17817105 0.024633044 0.11844395
000370 9d d9 41 be ca 23 2b be 84 71 63 be 9f d7 b9 bd
       -0.18930669 -0.16712871 -0.22211272 -0.090743296
000380 c4 57 a6 bd ab 6e 2f be 1b c3 eb bd e5 26 1e be
       -0.08122209 -0.1713206 -0.11511823 -0.15444525
000390 ee d7 df 3d ca 74 28 be da f3 d9 3d be b7 94 be
       0.10929857 -0.16450801 0.10642214 -0.29046434
0003a0 6f 64 77 3e 44 1b e2 3d a8 17 5e bd 90 c8 0a 3e
       0.24159406 0.11040357 -0.05422178 0.13553071
0003b0 bd af 12 3e b2 68 cc bd 5e 20 74 be 9f cc 98 3d
       0.14324851 -0.099809065 -0.23840472 0.074609034
0003c0 42 a7 94 3d 70 e3 8f 3e d0 b8 01 3e be 02 a9 3d
       0.072584644 0.2810321 0.12668157 0.08252476
0003d0 f1 4d 26 be 42 fc 92 bc ee e6 f6 3b 6e 2a 43 be
       -0.1624067 -0.017942552 0.007534853 -0.19059154
0003e0 16 37 22 3e cb f3 30 3d e7 e6 a9 3b fb 6f 32 3e
       0.15841326 0.04320125 0.0051849964 0.1742553
0003f0 1c 1f 5a be c4 ed 17 be 53 fb 54 3d 3b 21 5d bd
       -0.2130093 -0.14836794 0.051997494 -0.05398677

fc1.bias f4 [28]
000000 59 70 8e 3e f3 ae 80 be f3 7f 62 be 0c 58 85 be
       0.2782009 -0.25133476 -0.22119121 -0.26043737
000010 91 0b bb 3d ac 01 13 be 9e e5 05 3e 15 a5 6e bc
       0.091330655 -0.14356107 0.13075873 -0.014565726
000020 09 dd f2 bd 83 fb 27 3d b3 73 31 3e 20 d6 f9 3d
       -0.11858565 0.041011345 0.17329292 0.12199044
000030 05 dc 00 be 6f ff 4b bd fc 74 02 be 07 57 2a 3b
       -0.12583931 -0.049804147 -0.12739938 0.0025991814
000040 ef 53 d2 3d bf 1c 57 be ee 44 c2 bb 66 11 10 3e
       0.10269915 -0.2100706 -0.005928627 0.14069137
000050 02 10 d1 3b 28 f3 fb 3c e8 9d 6a 3e 19 14 7c 3e
       0.006380082 0.030755594 0.22911799 0.24617042
000060 48 7b a1 bd 8d 5d 8e bd 3c 1d 46 be 5c 2a 3a be
       -0.07884842 -0.06951437 -0.1934709 -0.18180221

fc2.weight f4 [4, 28]
000000 a4 d7 0c be 85 c0 3f be 5c a2 b5 bd fb e5 7f 3d
       -0.13754135 -0.18725784 -0.08868858 0.062475186
000010 0d 02 1e 3e 1d a9 2d be 1b 20 df bd a5 63 9a bb
       0.1543047 -0.16959043 -0.108947955 -0.0047115856
000020 f4 ca f0 3d 19 48 13 be 12 eb 6a 3d b0 7e 88 bd
       0.1175746 -0.14382972 0.057353087 -0.06664789
000030 7f 30 80 3d 6c f7 b1 3d 13 b5 c7 bd a8 18 d1 bc
       0.0625925 0.0868977 -0.09751334 -0.025524452
000040 12 2e 12 3e 2a 12 68 bd 4c a2 83 bd 3b ef 3c 3d
       0.14275387 -0.056657948 -0.0642744 0.046126585
000050 eb 64 0f 3e 1a fa f6 3c d0 0c c9 bb c5 c2 a6 bd
       0.14003341 0.030148555 -0.0061355606 -0.08142618
000060 00 c2 b1 bd 9e fe 50 bd f6 d2 20 3e f1 a1 00 be
       -0.08679581 -0.051024072 0.15705475 -0.12561776
000070 54 54 bd 3d 46 c4 f7 3d c6 55 3e 3d ee 21 84 3c
       0.092446 0.12097983 0.04646852 0.01612946
000080 6e a5 cd bd 15 e1 13 be bf 84 6b bd 42 5f 28 bd
       -0.10041319 -0.1444133 -0.057499643 -0.04110647
000090 97 1e 1c 3e 3b 30 00 3d a1 b9 80 bb 82 bf 39 be
       0.15246044 0.031295996 -0.0039283787 -0.1813946
0000a0 15 5d 41 3e 61 b7 21 bb b8 d5 d6 3d 92 1f 21 3e
       0.18883164 -0.0024675953 0.10489982 0.157347
0000b0 00 87 3f 3e 58 9e 9e 3d 94 9c e7 3c cc 10 2e 3e
       0.18703842 0.077450454 0.028272904 0.16998595
0000c0 31 1c 90 3d a4 89 e2 3d 2e a8 10 3e 58 cc 1b 3e
       0.07036627 0.11061409 0.14126655 0.1521467
0000d0 b1 a3 9a ba d8 97 2c be 52 f6 dd 3d 1f 31 6e 3d
       -0.0011798051 -0.16854799 0.108379975 0.058152314
0000e0 6e 34 d3 3c f3 39 21 3e 2a 3b 1d 3e af aa 21 3e
       0.025781836 0.15744762 0.153546 0.15787767
0000f0 05 bb 03 bd 3a de 2d bc 52 3a 24 be 56 c9 b6 3d
       -0.032160778 -0.010612065 -0.16037872 0.089251205
000100 f9 b9 17 be 0c 52 be 3d 16 2e a1 3d 35 be 00 3d
       -0.14817037 0.09292993 0.07870118 0.031431396
000110 59 c4 7c bb 46 14 57 3d 08 bf 23 3e 62 59 80 3b
       -0.003856918 0.05250957 0.15990841 0.0039169053
000120 c4 dc a5 3d e1 f6 95 bc d5 49 a5 bd 78 a8 0c bd
       0.08098748 -0.018306198 -0.08070723 -0.03434035
000130 32 16 9c bc 30 68 28 3e 72 46 6d 3c fb b9 23 bd
       -0.019053552 0.16445994 0.0144821275 -0.039972287
000140 ea 09 17 be a2 8d d7 bd 9e 50 ef 3d f8 32 f3 bc
       -0.14749876 -0.10525061 0.116852984 -0.02968739
000150 66 17 77 bd bb c6 fb bd cc fe e4 3d a1 7a d0 bd
       -0.06032505 -0.12293764 0.11181411 -0.101796396
000160 fa de 77 3d 0d 82 3b 3e 93 82 14 3e 29 1d c8 bd
       0.06051538 0.18311329 0.14502935 -0.09771187
000170 29 ee 0a 3e 36 0b 14 be 51 2d b3 bd 5b 83 35 3e
       0.13567413 -0.14457402 -0.08748878 0.1772589
000180 10 e6 08 be 2a 27 a8 ba dd b2 e5 3d a1 8d e5 bd
       -0.13369012 -0.0012829055 0.11215756 -0.11208654
000190 16 0c dd 3c 8a 72 10 bb eb 10 1b be 3c eb 10 3d
       0.026983302 -0.0022040927 -0.15143172 0.035380587
0001a0 92 2f 9d bd b6 32 42 3e 34 91 6e bd c5 ad 09 3e
       -0.07675089 0.18964657 -0.058243945 0.13445194
0001b0 53 7e ec 3d 5d 5b b3 bd 9e fc d7 3d d8 9e 12 be
       0.11547532 -0.087576605 0.1054623 -0.14318407

fc2.bias f4 [4]
000000 de 51 bd 3d 5d 2e b3 bc f3 5e 28 3e 70 b0 d4 3d
       0.092441306 -0.021872694 0.1644247 0.10385215
