PythonFiles/brains/trained_q_network.pth (torch, 2976 bytes, 4 tensors)

fc1.weight f4 [16, 8]
0.042007763 -0.12773883 0.10978887 -0.5864481 -0.8136501 -0.035989072 0.10693011 -0.18595865
0.21371558 -0.26173356 0.0055586635 0.31182787 -0.097014256 0.33555523 -0.53895295 -0.1577864
-0.21391313 0.101459056 -0.23028527 -0.19196148 0.042912014 0.21757965 0.13664876 0.37325057
-0.052139148 0.24588668 0.34534693 0.22081034 0.08555505 0.22503327 0.20991799 0.22793725
0.23653515 -0.34241658 -0.27711746 0.16424288 0.14492892 -0.19280024 0.050664578 -0.12276051
0.24711068 -0.31330296 -0.24731547 -0.29055697 0.14895475 0.18893163 0.08766299 -0.28451502
0.033933017 0.023990408 0.27752662 0.22990583 -0.24219793 0.08209883 -0.1258454 0.12815219
0.0012199405 -0.14122477 0.04918592 -0.30841863 0.038776997 -0.31224707 0.10662619 0.06949463
-0.15232216 -0.16388237 0.28305402 -0.06055492 -0.29231375 0.06325265 -0.3300363 0.021000288
0.08581136 -0.17145957 0.023836825 -0.1413349 -0.32103738 0.23238511 -0.046131227 0.22472593
-0.15674804 0.3036621 -0.18900016 -0.21920186 0.31551746 0.2623811 -0.38687196 -0.36142093
0.2312899 -0.14117344 -0.107693285 0.002322352 0.27939892 -0.10142174 0.391287 -0.15608643
-0.24638554 0.2358592 -0.1761498 0.18121827 0.108865134 0.19310051 0.0044348026 0.009287896
-0.3337021 -0.22482343 0.26660284 0.29102978 -0.33444175 -0.30140975 0.1863779 -0.030347114
0.22980657 0.14280292 -0.3043306 0.28722814 -0.32837754 -0.062453765 -0.22017272 -0.22717704
-0.17324264 -0.07054721 0.10630931 0.16047451 0.18402088 -0.0036165423 -0.30972987 -0.19404848
00000000: 5510 2c3d f8cd 02be fdd8 e03d 7621 16bf
00000010: 5f4b 50bf 4769 13bd 2cfe da3d f26b 3ebe
00000020: 42d8 5a3e f101 86be 7325 b63b e7a7 9f3e
00000030: 69af c6bd e5cd ab3e d2f8 09bf c292 21be
00000040: 0b0c 5bbe c4c9 cf3d e7cf 6bbe 8d91 44be
00000050: 82c4 2f3d 33cd 5e3e a7ed 0b3e b31a bf3e
00000060: dc8f 55bd b8c9 7b3e 50d1 b03e 1b1c 623e
00000070: 7c37 af3d 1f6f 663e bef4 563e 6268 693e
00000080: 4536 723e 3a51 afbe 57e2 8dbe 492f 283e
00000090: 3f68 143e 6d6d 45be a985 4f3d dd69 fbbd
000000a0: 950a 7d3e 3f69 a0be 4440 7dbe e2c3 94be
000000b0: 9887 183e 4b77 413e a788 b33d f4ab 91be
000000c0: 59fd 0a3d 8887 c43c f817 8e3e 6f6c 6b3e
000000d0: bc02 78be 6e23 a83d 9edd 00be 543a 033e
000000e0: 69e6 9f3a 3a9d 10be 2d77 493d 0ce9 9dbe
000000f0: a1d4 1e3d d9de 9fbe d55e da3d 3353 8e3d
00000100: 57fa 1bbe c8d0 27be 75ec 903e 7008 78bd
00000110: 26aa 95be 9b8a 813d 85fa a8be cc08 ac3c
00000120: debd af3d 1993 2fbe 7245 c33c 19ba 10be
00000130: 035f a4be 5df6 6d3e 19f4 3cbd 8e1e 663e
00000140: 8f82 20be 9979 9b3e 4289 41be 7476 60be
00000150: 818b a13e d156 863e 1514 c6be 2a0c b9be
00000160: 42d7 6c3e c58f 10be 4c8e dcbd 9a32 183b
00000170: 600d 8f3e 34b6 cfbd c556 c83e 1fd5 1fbe
00000180: 7e4c 7cbe 1385 713e 9d60 34be 4891 393e
00000190: aff4 de3d 24bc 453e d251 913b 422c 183c
000001a0: 00db aabe 1d38 66be 2b80 883e db01 953e
000001b0: f33b abbe 6152 9abe d9d9 3e3e 839a f8bc
000001c0: 6a52 6b3e ee3a 123e 38d1 9bbe 910f 933e
000001d0: 1a21 a8be 85cf 7fbd f574 61be 19a1 68be
000001e0: 8566 31be 0e7b 90bd b2b8 d93d 6e53 243e
000001f0: f86f 3c3e 8303 6dbb ea94 9ebe a5b4 46be

fc1.bias f4 [16]
0.15101813 0.09085333 0.06684629 0.27381164 -0.2609837 -0.08382589 -0.22304305 0.20791292
-0.16019912 0.051804237 -0.21875507 0.4234926 0.22266825 0.0012882776 -0.049049336 0.3337087
00000000: 7fa4 1a3e 5011 ba3d b5e6 883d 0a31 8c3e
00000010: a89f 85be e9ac abbd 6665 64be 20e7 543e
00000020: 3d0b 24be ae30 543d 5401 60be 06d4 d83e
00000030: 2503 643e 6cdb a83a f5e7 48bd dedb aa3e

fc2.weight f4 [4, 16]
0.19385807 -0.23191349 -0.04964982 0.19210337 -0.0057810466 0.08247975 -0.19368146 0.26640323
0.045253173 0.0015558953 0.063538656 -0.017393395 0.17912155 -0.018969974 -0.31895778 -0.06866836
0.2827703 -0.12706594 0.1018569 0.006575496 -0.04598223 0.06298114 -0.1935197 -0.06724414
0.35753188 0.13332479 -0.16127086 0.08410232 -0.098053545 0.12775597 0.18844815 0.058180906
0.18284416 -0.14077826 -0.010818389 -0.08126927 -0.15065467 -0.116402276 -0.11576395 0.033525463
-0.1492466 0.12041541 -0.085520595 0.000626371 0.06569952 0.14867231 -0.19842261 -0.21816546
0.20387878 -0.18818872 -0.13522331 0.019255448 -0.1033046 0.10061117 0.09766689 0.23249991
0.15417734 -0.20728885 0.27317208 -0.0997449 0.15742432 0.114894405 -0.07165223 -0.10483223
00000000: bb82 463e bb7a 6dbe 9c5d 4bbd bfb6 443e
00000010: ef6e bdbb 25eb a83d 6f54 46be 0166 883e
00000020: 645b 393d 2fef cb3a 8e20 823d 987c 8ebc
00000030: a46b 373e eb66 9bbc 6f4e a3be ffa1 8cbd
00000040: 45c7 903e 931d 02be 5a9a d03d 4277 d73b
00000050: dd57 3cbd 42fc 803d 072a 46be 4cb7 89bd
00000060: 6b0e b73e 4b86 083e 3024 25be d63d ac3d
00000070: 4cd0 c8bd 76d2 023e 8df8 403e 1a4f 6e3d
00000080: 803b 3b3e 2d28 10be 9d3f 31bc 8170 a6bd
00000090: 3845 1abe 5164 eebd a615 edbd ff51 093d
000000a0: 1ad4 18be 5b9c f63d 6c25 afbd 0c33 243a
000000b0: 788d 863d 8e3d 183e 4c2f 4bbe c466 5fbe
000000c0: 99c5 503e 8bb4 40be fb77 0abe 9abd 9d3c
000000d0: 5d91 d3bd 3b0d ce3d 9405 c83d 7514 6e3e
000000e0: aae0 1d3e 8743 54be 36dd 8b3e 0e47 ccbd
000000f0: d733 213e c24d eb3d 68be 92bd 48b2 d6bd

fc2.bias f4 [4]
-0.048750747 0.3419758 0.23257002 0.13120507
00000000: ddae 47bd 7417 af3e d626 6e3e 9f5a 063e
