PythonFiles/brains/trained_q_network.pth (torch, 4192 bytes, 4 tensors)

fc1.weight f4 [28, 14]
-0.16889235 0.09184077 -0.22590517 -0.16088052 0.07142051 -0.003905076 0.18279848 0.26322743
0.22955404 0.25338998 0.09149275 -0.05249451 -0.14354336 -0.20453699 0.12677002 -0.1843324
0.023902996 0.04694796 0.056996457 0.122484595 0.09024086 0.24679756 -0.0052477657 -0.22573707
-0.12216925 -0.14371708 0.014911695 -0.17768317 -0.109953776 -0.19427024 -0.21463765 -0.08294422
0.105329774 0.18812862 -0.043862488 -0.15344962 0.22029893 -0.08299262 -0.1554446 -0.08666136
-0.007897813 0.17834444 0.16168642 0.21302862 0.14068043 0.24582006 0.050858207 0.14301239
-0.038870167 0.09985827 -0.19010717 -0.021429818 0.20777157 -0.0637493 -0.0038324466 0.13383329
-0.14373024 -0.18778099 0.16725557 -0.0869929 -0.08485375 -0.0149482805 -0.2297503 -0.006971926
0.0683105 -0.18014106 -0.11650299 -0.047078025 -0.1513441 0.23852238 -0.08035273 -0.0729165
0.11285074 0.11747203 0.2386614 0.009378098 -0.21486205 0.0354307 -0.20798162 0.15133624
-0.043555453 -0.07119036 0.15803087 -0.0076928255 -0.000851104 -0.050869208 0.011417708 -0.0028088433
-0.2217456 0.23722783 -0.16179708 -0.105070524 -0.20388888 0.116670676 -0.027841423 0.031218266
-0.12881434 0.06735126 -0.112089895 -0.02297479 -0.19478492 0.15179262 0.22491884 -0.1863729
0.17131285 0.19673789 -0.031511314 -0.062121164 -0.13302661 0.06515904 -0.21542378 -0.07939849
-0.16509514 -0.24207972 0.14400706 -0.004338476 0.09948056 0.05725808 0.07849542 -0.072709374
0.153024 -0.020398319 0.14442337 0.033099506 -0.21152623 -0.09466955 0.013812142 0.11456373
-0.23683262 0.22354548 0.028670644 0.19006518 -0.2486019 -0.0170264 0.060702547 0.02701833
-0.25295863 0.17572464 -0.054167755 -0.0999734 -0.17338352 0.18067905 0.24842736 -0.16213343
-0.14184079 -0.061483137 0.023813551 -0.2449939 -0.040560454 -0.22787084 0.25788754 -0.2534017
-0.22602037 -0.0510504 0.026909685 -0.0320154 0.10770354 -0.053578246 0.17331728 0.061297387
0.091285914 -0.2811483 -0.14675233 -0.053519897 0.17390679 0.0074393847 -0.083482794 0.17918792
0.17057641 -0.23860984 0.25073868 -0.13132341 0.19096702 -0.12343365 0.09363609 0.037446424
-0.25928298 -0.059241448 0.10120885 0.11306947 -0.21376719 0.24700885 0.20843343 0.17279056
-0.24145325 -0.02558523 0.097138785 0.00964128 0.21023835 0.025334863 -0.23085111 -0.09819011
-0.12731393 -0.14210512 0.22751734 0.06874356 0.2418429 0.122352205 -0.05131783 -0.00076804956
-0.21443127 0.0128790075 -0.102493815 -0.12881862 0.20756423 0.015137493 0.18380797 -0.084985815
-0.0016586647 -0.2319695 -0.19987938 0.25512657 0.114518635 0.005843428 0.12887874 -0.20716897
-0.13497221 0.08997212 0.22989245 0.118937075 -0.132449 -0.11082595 -0.09166031 -0.20933896
-0.038838003 -0.21562704 0.21752569 0.1757201 -0.109588645 0.014771396 -0.117824055 -0.10675987
-0.1761596 0.17119025 0.032500867 0.035447907 0.070202485 -0.11962431 -0.22800377 -0.2549044
0.21289416 -0.21180986 0.034071494 -0.043667406 -0.1838022 0.008891687 -0.22007848 0.24503098
-0.12972659 0.24207172 0.08455086 0.2647756 -0.07047937 0.22889045 0.2499723 -0.15016052
00000000: 1ef2 2cbe 0317 bc3d af53 67be ddbd 24be
00000010: eb44 923d 4eec 7fbb 862f 3b3e bfc5 863e
00000020: 3710 6b3e 55bc 813e 8d60 bb3d 7c04 57bd
00000030: 08fd 12be 2572 51be 00d0 013e a2c1 3cbe
00000040: 37d0 c33c 814c 403d 1e75 693d 34d9 fa3d
00000050: 33d0 b83d 80b8 7c3e 73f5 abbb 9e27 67be
00000060: df33 fabd 922a 13be 2f50 743c 94f2 35be
00000070: 722f e1bd c7ee 46be f9c9 5bbe a9de a9bd
00000080: 23b7 d73d caa4 403e 27a9 33bd e621 1dbe
00000090: 0b96 613e 09f8 a9bd df2c 1fbe 837b b1bd
000000a0: d465 01bc ed9f 363e 2091 253e 2d24 5a3e
000000b0: 880e 103e 41b8 7b3e b250 503d d771 123e
000000c0: 5336 1fbd 7e82 cc3d 74ab 42be 968d afbc
000000d0: 12c2 543e fe8e 82bd c929 7bbb 980b 093e
000000e0: 052e 13be a949 40be 0b45 2b3e 5529 b2bd
000000f0: cec7 adbd a2e9 74bc aa43 6bbe c174 e4bb
00000100: 60e6 8b3d e676 38be 1f99 eebd e3d4 40bd
00000110: f3f9 1abe 363f 743e f98f a4bd 3f55 95bd
00000120: 4a1e e73d 2d95 f03d a763 743e 98a6 193c
00000130: cc04 5cbe c81f 113d 22f9 54be e3f7 1a3e
00000140: 3467 32bd 40cc 91bd d8d2 213e 1914 fcbb
00000150: 9f1c 5fba 3b5c 50bd 5711 3b3c 9214 38bb
00000160: 4711 63be daeb 723e 22ae 25be 372f d7bd
00000170: 3fc8 50be 09f1 ee3d b213 e4bc 73bd ff3c
00000180: e8e7 03be 75ef 893d 638f e5bd a035 bcbc
00000190: b375 47be 866f 1b3e 2051 663e 8ad8 3ebe
000001a0: a36c 2f3e a875 493e 0212 01bd c372 7ebd
000001b0: 2138 08be 1a72 853d 0d98 5cbe ad9b a2bd
000001c0: b30e 29be bfe3 77be 9676 133e c629 8ebb
000001d0: 77bc cb3d 7387 6a3d 35c2 a03d a7e8 94bd
000001e0: 53b2 1c3e 601a a7bc b8e3 133e 5993 073d
000001f0: 559a 58be 1ce2 c1bd 534c 623c 64a0 ea3d
00000200: 4084 72be 1be9 643e b3de ea3c 72a0 423e
00000210: 7f91 7ebe f37a 8bbc 3ca3 783d 8b55 dd3c
00000220: cb83 81be 29f1 333e 02df 5dbd dbbe ccbd
00000230: 738b 31be ee03 393e be63 7e3e 4e06 26be
00000240: b63e 11be bed5 7bbd a314 c33c aedf 7abe
00000250: b822 26bd f956 69be d609 843e debd 81be
00000260: e271 67be 391a 51bd b371 dc3c 9422 03bd
00000270: ac93 dc3d dd74 5bbd 167a 313e f812 7b3d
00000280: 1cf4 ba3d acf2 8fbe 3e46 16be ae37 5bbd
00000290: 9f14 323e 15c6 f33b 07f9 aabd 0a7d 373e
000002a0: 95ab 2e3e 2356 74be d260 803e a579 06be
000002b0: dc8c 433e c8ca fcbd 47c4 bf3d 6c61 193d
000002c0: bdc0 84be 29a7 72bd 9646 cf3d f790 e73d
000002d0: c9e5 5abe e3ef 7c3e 936f 553e 02f0 303e
000002e0: 853f 77be 1e98 d1bc b3f0 c63d 76f6 1d3c
000002f0: b948 573e 0f8b cf3c 3c64 6cbe e517 c9bd
00000300: 955e 02be 0184 11be 4efa 683e 6cc9 8c3d
00000310: aaa5 773e cb93 fa3d a532 52bd ef56 49ba
00000320: df93 5bbe 7902 533c 47e8 d1bd 07e9 03be
00000330: b88b 543e 3f03 783c 2838 3c3e 0b0d aebd
00000340: 8d67 d9ba 6a89 6dbe 2ead 4cbe f39f 823e
00000350: bf88 ea3d 3a7a bf3b caf8 033e 1a24 54be
00000360: 2836 0abe 4e43 b83d ed68 6b3e 4895 f33d
00000370: b6a0 07be b7f8 e2bd 67b8 bbbd f45c 56be
00000380: 9914 1fbd 56cd 5cbe 0ebf 5e3e f8ef 333e
00000390: 0370 e0bd ba03 723c bd4d f1bd eba4 dabd
000003a0: 2f63 34be 7f4c 2f3e a11f 053d d331 113d
000003b0: 52c6 8f3d 97fd f4bd d279 69be d482 82be
000003c0: ed00 5a3e afe4 58be 8d8e 0b3d 98dc 32bd
000003d0: a536 3cbe 70ae 113c 415c 61be 67e9 7a3e
000003e0: 0cd7 04be a6e1 773e 0029 ad3d ab90 873e
000003f0: 7d57 90bd 4262 6a3e bdf8 7f3e aec3 19be

fc1.bias f4 [28]
-0.11615786 0.13105078 -0.21225561 -0.09647081 -0.059880372 -0.083561264 -0.12614688 -0.21560514
-0.08372359 0.03941518 -0.10432783 -0.018051239 -0.26736093 -0.20388286 -0.15891068 0.25628817
-0.06117199 -0.1820033 -0.16922419 -0.17996918 -0.15455326 0.19816986 -0.057324987 -0.18229517
0.049642235 0.2354313 -0.21187796 0.22526339
00000000: 2ce4 edbd 2d32 063e 8959 59be 7d92 c5bd
00000010: 1f45 75bd 2b22 abbd a62c 01be 98c7 5cbe
00000020: 4677 abbd d071 213d d4a9 d5bd 31e0 93bc
00000030: 88e3 88be abc6 50be 7bb9 22be 3438 833e
00000040: 7b8f 7abd 135f 3abe 1b49 2dbe d749 38be
00000050: 3643 1ebe 0aed 4a3e 9bcd 6abd 96ab 3abe
00000060: a855 4b3d e714 713e 89f6 58be 72ab 663e

fc2.weight f4 [4, 28]
0.051559377 -0.0014040573 -0.07271576 -0.08665234 0.10998649 0.089898705 0.07372794 0.00970938
-0.17481923 -0.14205694 0.051385067 0.08040949 0.09800775 0.032998297 -0.008414732 -0.040095586
0.11861321 -0.029003134 0.12665543 0.14158733 0.06330695 -0.09992536 0.13077341 0.13418598
-0.13050443 0.005766875 -0.15048498 0.010445261 0.13475154 0.15608576 0.1366488 -0.1808104
0.027728872 -0.15783925 0.037627216 -0.15135586 -0.18685862 -0.18190253 -0.19035615 0.10561256
0.14547597 0.16986756 0.06848146 -0.03803731 -0.004608748 0.16113074 0.065426104 0.17335837
-0.08635824 -0.08580562 -0.03099537 -0.16548711 -0.10816755 0.013713701 -0.123584546 0.07709334
-0.12149548 0.09091825 0.03753623 -0.115787 -0.12380191 0.039616667 0.16766128 -0.08864593
0.069347985 -0.08807943 0.03195072 -0.025584793 -0.016098188 -0.10606257 -0.08218586 0.18023175
0.0011170825 0.008454685 0.080330744 -0.157247 0.17141753 0.052777186 -0.0077459537 -0.031148687
0.1379697 -0.09317502 -0.13974775 -0.010399076 0.101116665 0.06908103 0.017309636 0.11871446
-0.12938277 0.122133546 0.13374542 -0.026743429 0.054721553 0.12638141 0.1789067 -0.05494871
-0.0469081 -0.12094892 0.052404255 -0.03659325 -0.17544 -0.0019576536 -0.09707534 -0.13980743
-0.04658559 -0.0818851 -0.08192526 0.12337088 0.14255422 -0.109249994 0.085560605 -0.10086044
00000000: ed2f 533d 5808 b8ba 00ec 94bd c876 b1bd
00000010: 9940 e13d d01c b83d adfe 963d 1714 1f3c
00000020: d003 33be 6077 11be 2679 523d bbad a43d
00000030: 4ab8 c83d 3929 073d f2dd 09bc 453b 24bd
00000040: 7ceb f23d fb97 edbc f6b1 013e 45fc 103e
00000050: 13a7 813d aba5 ccbd 77e9 053e 0d68 093e
00000060: f4a2 05be 0ef8 bc3b bc18 1abe 9a22 2b3c
00000070: 4ffc 093e f2d4 1f3e aaed 0b3e 5d26 39be
00000080: a927 e33c 9da0 21be ff1e 1a3d 08fd 1abe
00000090: de57 3fbe a844 3abe b9ec 42be 664b d83d
000000a0: a7f7 143e c3f1 2d3e 0240 8c3d 03cd 1bbd
000000b0: fb04 97bb 75ff 243e 1ffe 853d db84 313e
000000c0: 97dc b0bd dbba afbd 01ea fdbc 7475 29be
000000d0: f386 ddbd 6eaf 603c e519 fdbd 1de3 9d3d
000000e0: 9fd2 f8bd 5933 ba3d 97bf 193d bc21 edbd
000000f0: db8b fdbd 1645 223d 66af 2b3e ff8b b5bd
00000100: 5106 8e3d fd62 b4bd c2de 023d 3397 d1bc
00000110: 59e0 83bc 5537 d9bd 0f51 a8bd ac8e 383e
00000120: 126b 923a 8585 0a3c 7284 a43d 5c05 21be
00000130: 1488 2f3e e42c 583d c5d1 fdbb 882b ffbc
00000140: ee47 0d3e 8bd2 bebd 091a 0fbe e360 2abc
00000150: 4116 cf3d 5b7a 8d3d f0cc 8d3c 9120 f33d
00000160: eb7c 04be 2721 fa3d 8ff4 083e 0915 dbbc
00000170: b523 603d 216a 013e 5133 373e e611 61bd
00000180: b522 40bd 11b4 f7bd d8a5 563d cee2 15bd
00000190: 8ba6 33be fa4b 00bb 70cf c6bd ae29 0fbe
000001a0: 88d0 3ebd 60b3 a7bd 6ec8 a7bd dfa9 fc3d
000001b0: bcf9 113e 76be dfbd 663a af3d eb8f cebd

fc2.bias f4 [4]
-0.06231269 -0.029795509 -0.07592731 -0.037140828
00000000: 973b 7fbd b615 f4bc c77f 9bbd fb20 18bd
